results/Run4/Agent.onnx (onnx, 923545 bytes, 19 tensors)

discrete_action_output_shape f4 [1, 6]
00000000: 0000 4040 0000 4040 0000 0040 0000 0040
00000010: 0000 0040 0000 0040
3.0 3.0 2.0 2.0 2.0 2.0

network_body._body_endoder.seq_layers.0.weight f4 [256, 366]
00000000: ca8c deba b78b 17bd 3809 153d 1e09 ff3c
00000010: f8e0 2e3d bb32 1bbc 65e0 f23c 66de 33bd
00000020: 59c9 0f3d 9c9c 2cbc d67b 1bbd 673f 373d
00000030: 2d1b c63c a1b6 fc3a 4ba6 ae3c 1a65 92bd
00000040: 19f3 24bd ef10 a0bd 8752 043d 79ca 743d
00000050: 1e31 663d 094a 93bb 0691 6a3c 1e80 453c
00000060: cac3 a9bb 192f a43d b6ea 86bc fbb8 8ebc
00000070: 122c ea3d 9707 623d ecb9 db3c 9820 133d
00000080: bdb1 753d 99c8 223c cb56 183d 8210 02bc
00000090: 7a42 213d 5d23 87bc f675 be3d 23ae 09bb
000000a0: 281c e43b 10a9 47bd f85f 5fbb a0ef 5e3d
000000b0: 92c6 e63c 690a 11bd 31b6 623d f32a 133c
000000c0: cea9 e2bd 7e71 3c3d b9f0 fdbc 3483 da3d
000000d0: fca2 703d e34d a43c 03e7 81bc 6e7f ce3b
000000e0: 34f3 e63c 340f 813c 0868 71bd 0494 ab3c
000000f0: 1d9f 1e3d 3859 5cbb 2283 3abd 9534 92bd
00000100: c439 133d 3522 523d cf71 0ebd 9f8d 323d
00000110: ebdd a93c 6956 d63a 3e09 3dbd c1de 1f3e
00000120: 9f20 2c3c 8b18 debc 3835 273c 087d 223d
00000130: ac1d 1f3d 77a1 1f3d 1181 17bd 3d90 e53c
00000140: aab0 de3d 87ea 78bc daf1 ea3c 370e c93c
00000150: bbb8 f2bc 79d1 4abd c5cd 813d c2fe b4bd
00000160: f0a6 98bd 9edd 3ebd f882 3abd c10e fe3c
00000170: acec f63c 75a0 a93d 11c6 ba3c 8e53 313c
00000180: b35c 8abc 084a 023c ce8f 733d d109 57bd
00000190: 1c26 9abd 5067 08bd 2422 a83c 880c a7bb
000001a0: 2400 ba3d 0d2d 6f3d 0384 02bc 766a a63c
000001b0: 11f3 0a3e 4461 fcbc 2813 a9bb 3120 8b3d
000001c0: 0c96 783d fea9 d43d e23e efbc 453a f7bc
000001d0: 2c97 a43d c6c3 d63d 12bc ccbc f073 003d
000001e0: 7d1a 643d 6cb2 a33c c355 2a3c 4aa6 ebbc
000001f0: d49a b4bd 35d8 e0bd 083f 87bd 2fcd bf3b
00000200: 66bf 2a3d 56ba 863d a177 2d3d ce37 77bb
00000210: 8a5f 2cbd 118b 23bd 5aa8 6abc 6610 793d
00000220: 96bf 933d 23bc 9c3c 8095 89ba 3507 c53c
00000230: 3f5b 1d3d c47d bdbc 7567 0f3d 3b71 3d3c
00000240: f877 293d 5639 7cbc 12c4 dc3c aecb 713c
00000250: 4305 ef3b f774 bbbc 065e ac3d 7e94 a1bb
00000260: 4e7c 0ebd 5893 07bc 65dc 8abb 9a44 ca3c
00000270: b92c 67bc ec45 143d a305 0ebc 976e 2fbd
00000280: 5185 513d 7e50 57bc d5eb 003d c1a4 7bbd
00000290: e36f 473d 222d dc3b 94e6 cf3c 6654 3fbd
000002a0: d103 383d 0d79 cdbb adea 273c 3932 59bc
000002b0: dca8 ab3d 2a99 b73d 8e58 b2bd ac87 003e
000002c0: 9618 373d 9e7b b83c b3fe 893c a341 7b3d
000002d0: a677 50bd 9808 fc3b 6f86 443c 3912 bbbc
000002e0: dd80 ca3d 88d9 6ebd b547 5a3c c154 b3bd
000002f0: 8a74 a2bd d21c 45bc e192 2d3d f008 99bd
00000300: e003 b8bd 2fd2 2ebd bdb6 773c 4917 9fbd
00000310: 7340 54bd db77 08bd 09cd 1c3c 47e7 8abd
00000320: 9e8a 4f3c 0c38 40bd 994c 2bbd 9a15 33bb
00000330: 921d d6bd 9464 00bb 4a61 283c f04a 063d
00000340: 7495 3cbd 58f8 f0bc c7fd cebb f01c 5fbd
00000350: aecf 3d3a ece4 303d 2977 d1bc 61e3 03bd
00000360: 1e4c 493b f2f6 50bc 4bb2 5e3d ae7c d3bc
00000370: e7f0 153c 7d15 81bd a8b0 993b 5f23 70bd
00000380: 362a bcbd 2c88 d9bd 9694 6ebd 36c5 f53c
00000390: dd48 023d 3b95 c43c d15b d03c f1da 6abc
000003a0: 60d0 65bc 1f08 493c 49d7 43bd 6741 773d
000003b0: 6a88 f93c 67a3 aabc 4eb0 a1bd db3d 963d
000003c0: e215 13bd 5f06 323d ea16 9bbd 4414 60bc
000003d0: 270c 193d eb77 a3bd c536 5b39 43b8 d63c
000003e0: 9036 56bc 6a0e 153d 23e3 0ebd 2af0 f5ba
000003f0: a889 6c3d f83c be3b cf4e 433d 1a4a 473d
-0.0016979214 -0.036998477 0.036385745 0.031132277 0.042695016 -0.009472544 0.029648015 -0.043913268
0.03510413 -0.010535385 -0.037959896 0.0447382 0.02418288 0.0019280502 0.021319529 -0.0714819
-0.0402709 -0.0781573 0.032305267 0.059763405 0.056199186 -0.0044949097 0.014316803 0.012054471
-0.0051808106 0.08016796 -0.01646934 -0.01742219 0.11434187 0.05518302 0.026822053 0.035919756
0.059983958 0.0099355215 0.037192147 -0.007938506 0.039370038 -0.016496355 0.09299843 -0.0021008335
0.0069613643 -0.048745215 -0.0034084301 0.054427743 0.028170858 -0.03541032 0.055349533 0.008982408
-0.11067544 0.046006672 -0.030998575 0.10669556 0.058749184 0.02005667 -0.015857225 0.006301812
0.02819214 0.01575432 -0.058937103 0.020944603 0.03872596 -0.0033622514 -0.045535214 -0.071389355
0.03594376 0.051302154 -0.034776505 0.04359209 0.020735702 0.0016352657 -0.046151392 0.15612318
0.010505824 -0.027111312 0.010205559 0.03967002 0.038846657 0.038972344 -0.03698832 0.02802288
0.1087354 -0.015192634 0.028679777 0.024542911 -0.029629102 -0.049516175 0.063380755 -0.08837654
-0.07453716 -0.04659807 -0.045535058 0.031012895 0.03014215 0.08282558 0.022799524 0.010823144
-0.016889906 0.007952221 0.059463315 -0.052499596 -0.075268 -0.03330165 0.020524092 -0.0050979294
0.09082058 0.058392573 -0.007966044 0.020314436 0.13569285 -0.030808099 -0.0051597543 0.067932494
0.06068997 0.10383986 -0.02920479 -0.030179152 0.08036646 0.104865596 -0.024992023 0.031360567
0.055689324 0.01998254 0.010396424 -0.028765816 -0.088185936 -0.10978738 -0.06603819 0.005853317
0.041686438 0.065785095 0.042350415 -0.0037722471 -0.0420833 -0.039927546 -0.014322365 0.060806654
0.072142765 0.01913268 -0.0010496825 0.024051288 0.038417097 -0.023131259 0.035010774 0.011562641
0.041374177 -0.015394529 0.026948962 0.014758034 0.0072943284 -0.022882922 0.08416371 -0.0049310317
-0.034786515 -0.008274876 -0.004237699 0.024690915 -0.014109784 0.036199495 -0.008668336 -0.042830076
0.05115253 -0.013141749 0.031474907 -0.06143642 0.048690688 0.0067192474 0.025378503 -0.046711348
0.044925515 -0.006270534 0.010248822 -0.013256603 0.08381817 0.089647606 -0.08708297 0.12551755
0.04470118 0.022519883 0.016845083 0.061341893 -0.050895356 0.007691454 0.011994942 -0.022835838
0.0988786 -0.058312923 0.01332276 -0.087564 -0.07932384 -0.012030797 0.042376403 -0.07472408
-0.08985114 -0.042680915 0.015119252 -0.07768113 -0.051819276 -0.033317428 0.009570369 -0.06782394
0.012667326 -0.04692845 -0.041821096 -0.0027326108 -0.10454859 -0.00195912 0.010277102 0.03278631
-0.046040967 -0.029415295 -0.0063168737 -0.054470956 0.00072407245 0.043187067 -0.025569515 -0.032199267
0.0030715535 -0.012754189 0.054369252 -0.025816288 0.009151674 -0.06302927 0.0046902485 -0.058627483
-0.091877386 -0.10621676 -0.05824717 0.030001264 0.03180777 0.02399694 0.025434406 -0.014334426
-0.014026731 0.012270003 -0.047812734 0.060365107 0.030460555 -0.02082987 -0.078949556 0.07336017
-0.03590954 0.043463107 -0.0757273 -0.013676707 0.037365105 -0.07981857 0.00020905871 0.02621091
-0.013074532 0.0363907 -0.034884583 -0.0018763591 0.057748467 0.005805608 0.04768258 0.048654653

network_body._body_endoder.seq_layers.0.bias f4 [256]
00000000: 0000 0000 0000 0000 0000 0000 0000 0000
00000010: 0000 0000 0000 0000 0000 0000 0000 0000
00000020: 0000 0000 0000 0000 0000 0000 0000 0000
00000030: 0000 0000 0000 0000 0000 0000 0000 0000
00000040: 0000 0000 0000 0000 0000 0000 0000 0000
00000050: 0000 0000 0000 0000 0000 0000 0000 0000
00000060: 0000 0000 0000 0000 0000 0000 0000 0000
00000070: 0000 0000 0000 0000 0000 0000 0000 0000
00000080: 0000 0000 0000 0000 0000 0000 0000 0000
00000090: 0000 0000 0000 0000 0000 0000 0000 0000
000000a0: 0000 0000 0000 0000 0000 0000 0000 0000
000000b0: 0000 0000 0000 0000 0000 0000 0000 0000
000000c0: 0000 0000 0000 0000 0000 0000 0000 0000
000000d0: 0000 0000 0000 0000 0000 0000 0000 0000
000000e0: 0000 0000 0000 0000 0000 0000 0000 0000
000000f0: 0000 0000 0000 0000 0000 0000 0000 0000
00000100: 0000 0000 0000 0000 0000 0000 0000 0000
00000110: 0000 0000 0000 0000 0000 0000 0000 0000
00000120: 0000 0000 0000 0000 0000 0000 0000 0000
00000130: 0000 0000 0000 0000 0000 0000 0000 0000
00000140: 0000 0000 0000 0000 0000 0000 0000 0000
00000150: 0000 0000 0000 0000 0000 0000 0000 0000
00000160: 0000 0000 0000 0000 0000 0000 0000 0000
00000170: 0000 0000 0000 0000 0000 0000 0000 0000
00000180: 0000 0000 0000 0000 0000 0000 0000 0000
00000190: 0000 0000 0000 0000 0000 0000 0000 0000
000001a0: 0000 0000 0000 0000 0000 0000 0000 0000
000001b0: 0000 0000 0000 0000 0000 0000 0000 0000
000001c0: 0000 0000 0000 0000 0000 0000 0000 0000
000001d0: 0000 0000 0000 0000 0000 0000 0000 0000
000001e0: 0000 0000 0000 0000 0000 0000 0000 0000
000001f0: 0000 0000 0000 0000 0000 0000 0000 0000
00000200: 0000 0000 0000 0000 0000 0000 0000 0000
00000210: 0000 0000 0000 0000 0000 0000 0000 0000
00000220: 0000 0000 0000 0000 0000 0000 0000 0000
00000230: 0000 0000 0000 0000 0000 0000 0000 0000
00000240: 0000 0000 0000 0000 0000 0000 0000 0000
00000250: 0000 0000 0000 0000 0000 0000 0000 0000
00000260: 0000 0000 0000 0000 0000 0000 0000 0000
00000270: 0000 0000 0000 0000 0000 0000 0000 0000
00000280: 0000 0000 0000 0000 0000 0000 0000 0000
00000290: 0000 0000 0000 0000 0000 0000 0000 0000
000002a0: 0000 0000 0000 0000 0000 0000 0000 0000
000002b0: 0000 0000 0000 0000 0000 0000 0000 0000
000002c0: 0000 0000 0000 0000 0000 0000 0000 0000
000002d0: 0000 0000 0000 0000 0000 0000 0000 0000
000002e0: 0000 0000 0000 0000 0000 0000 0000 0000
000002f0: 0000 0000 0000 0000 0000 0000 0000 0000
00000300: 0000 0000 0000 0000 0000 0000 0000 0000
00000310: 0000 0000 0000 0000 0000 0000 0000 0000
00000320: 0000 0000 0000 0000 0000 0000 0000 0000
00000330: 0000 0000 0000 0000 0000 0000 0000 0000
00000340: 0000 0000 0000 0000 0000 0000 0000 0000
00000350: 0000 0000 0000 0000 0000 0000 0000 0000
00000360: 0000 0000 0000 0000 0000 0000 0000 0000
00000370: 0000 0000 0000 0000 0000 0000 0000 0000
00000380: 0000 0000 0000 0000 0000 0000 0000 0000
00000390: 0000 0000 0000 0000 0000 0000 0000 0000
000003a0: 0000 0000 0000 0000 0000 0000 0000 0000
000003b0: 0000 0000 0000 0000 0000 0000 0000 0000
000003c0: 0000 0000 0000 0000 0000 0000 0000 0000
000003d0: 0000 0000 0000 0000 0000 0000 0000 0000
000003e0: 0000 0000 0000 0000 0000 0000 0000 0000
000003f0: 0000 0000 0000 0000 0000 0000 0000 0000
0.0 0.0 0.0 0.0 0.0 0.0 0.0 0.0
0.0 0.0 0.0 0.0 0.0 0.0 0.0 0.0
0.0 0.0 0.0 0.0 0.0 0.0 0.0 0.0
0.0 0.0 0.0 0.0 0.0 0.0 0.0 0.0
0.0 0.0 0.0 0.0 0.0 0.0 0.0 0.0
0.0 0.0 0.0 0.0 0.0 0.0 0.0 0.0
0.0 0.0 0.0 0.0 0.0 0.0 0.0 0.0
0.0 0.0 0.0 0.0 0.0 0.0 0.0 0.0
0.0 0.0 0.0 0.0 0.0 0.0 0.0 0.0
0.0 0.0 0.0 0.0 0.0 0.0 0.0 0.0
0.0 0.0 0.0 0.0 0.0 0.0 0.0 0.0
0.0 0.0 0.0 0.0 0.0 0.0 0.0 0.0
0.0 0.0 0.0 0.0 0.0 0.0 0.0 0.0
0.0 0.0 0.0 0.0 0.0 0.0 0.0 0.0
0.0 0.0 0.0 0.0 0.0 0.0 0.0 0.0
0.0 0.0 0.0 0.0 0.0 0.0 0.0 0.0
0.0 0.0 0.0 0.0 0.0 0.0 0.0 0.0
0.0 0.0 0.0 0.0 0.0 0.0 0.0 0.0
0.0 0.0 0.0 0.0 0.0 0.0 0.0 0.0
0.0 0.0 0.0 0.0 0.0 0.0 0.0 0.0
0.0 0.0 0.0 0.0 0.0 0.0 0.0 0.0
0.0 0.0 0.0 0.0 0.0 0.0 0.0 0.0
0.0 0.0 0.0 0.0 0.0 0.0 0.0 0.0
0.0 0.0 0.0 0.0 0.0 0.0 0.0 0.0
0.0 0.0 0.0 0.0 0.0 0.0 0.0 0.0
0.0 0.0 0.0 0.0 0.0 0.0 0.0 0.0
0.0 0.0 0.0 0.0 0.0 0.0 0.0 0.0
0.0 0.0 0.0 0.0 0.0 0.0 0.0 0.0
0.0 0.0 0.0 0.0 0.0 0.0 0.0 0.0
0.0 0.0 0.0 0.0 0.0 0.0 0.0 0.0
0.0 0.0 0.0 0.0 0.0 0.0 0.0 0.0
0.0 0.0 0.0 0.0 0.0 0.0 0.0 0.0

network_body._body_endoder.seq_layers.2.weight f4 [256, 256]
00000000: 877c f03d fa7e bfbd fb87 873d 2bfc afbc
00000010: 549d 303d c6a8 8f3d 70d4 57bd 5a55 0dbc
00000020: bd17 993d 7df8 7a3d 4c79 8abd 953a a1bc
00000030: 465f c8bc 16bc 8ebc b72d 293d 07c6 923d
00000040: 9328 883b 843d 8dbd 1491 bb3c 9861 a8bc
00000050: 5bd5 ec3c 6e4f 663c 50da f23d cf1f 50bc
00000060: 61dd 0bbc 4820 3a3d 4ebf 713d c0b7 90bd
00000070: fde7 753b 0fc1 85bd a9af 7abd a5da 0b3d
00000080: 8188 cabd c72e 98bd bc8d 0a3e f651 c4bd
00000090: 97fd c7bd 0a08 ef3c 83d6 03bc 60eb 5d3d
000000a0: 052c aa3c 1d9b 9e3d 6969 4a3b 5179 96bd
000000b0: 42e2 353e 8d39 8f3d b080 8dbc 80cc f0bd
000000c0: 4130 6d3b 0f4f 64bd 24b4 f13c 47c5 43bd
000000d0: 3128 d93d 1348 90bd eaea 703d 8ef8 c9bc
000000e0: dd62 243d 9bde 8bbd 2c09 b9bd 8060 aa3b
000000f0: a864 bd3d 2b8b c63d f6ed 15be 7ad5 a33d
00000100: 6d12 67bd edb5 07bd 2777 893d a472 05bd
00000110: 9fed 05be 2770 083d 542e b73d bbc5 353d
00000120: 964d 50bd a842 1cbd ed7c a33c 7498 4abc
00000130: e4f7 093d 5c92 d7bd 5e29 0d3d b6ab c33d
00000140: 8cb3 94bd 26df 953d 8f93 e93c 1234 07be
00000150: 2899 05be c1b3 b3bb f8f0 ba3d 9269 a53c
00000160: d280 24bd ba20 13bd 0be2 39bd bbbc 8fbd
00000170: 89a3 48bb c7b0 b8bd 8cf0 14bc 0493 01bc
00000180: 1c38 783d 172f 223c 58e6 493c aa3f d03b
00000190: bbc0 8cbd 09cc 943c b19c 923d 92c0 113d
000001a0: 59a2 a0bc c138 92bd aece 9bbd 202e 1e3d
000001b0: 75e3 aa3d 85b0 39bd 0c5e 383e b30b 113e
000001c0: b164 973d 4251 4dbc e91d 2a3d e3ce 7d3c
000001d0: d214 0e3d f626 ceb9 de2d d53c 3c69 47bd
000001e0: d9c4 903d 6f66 053d f046 2ebd 3115 88bd
000001f0: ffbf f83d 8582 1cbd 71e6 5abc d314 c3bc
00000200: 2795 2abd 3a5c 5dbd 9722 9d3d 68ed b5bb
00000210: 2236 5bbd 9565 7abc cf8f 63bd 17d2 9cbc
00000220: 1527 1bbd 3167 93bd 516b 163d d9df 043e
00000230: 65fa 203b 9b92 0a3d 8583 903d 32a2 49bc
00000240: 2237 e6bd de70 d4bd 2b98 15bd 3805 5d3c
00000250: dcbf 9bbd 433b 66bb e040 f33d 50c1 a23d
00000260: bb19 29bd 5ff2 0dbe 1134 d03b d367 9fbd
00000270: 6656 e8bd 3d83 2f3d 53f0 3b3d 001a 183d
00000280: 8b6d f03c 5a87 4d3d b9d7 af3c d69c b9bc
00000290: b6dc 17bc a1bb b6bc 2889 bdbc 4a8d 4ebd
000002a0: 3138 803d 1d00 7ebd f4e3 003e 0218 c2bd
000002b0: 70ac f3bd 3f64 11bd 2393 5b3d 73f1 e73c
000002c0: 2175 2f3e 003d fdbd 4ef8 33bd 67b0 17be
000002d0: 6ae0 e4bc 580b 673d 11e6 51bd 956b 183d
000002e0: ba1b 9b3d 1f5d 27bd cf47 983c b347 8ebc
000002f0: b0e1 0abd 96a6 da3a e33f ecbd 5ed2 bc3d
00000300: a1eb fcbc 3ea6 d5bd f096 92bd 760c e6bd
00000310: c57b afbd bf19 b2bd 59a0 0d3d aa73 0abd
00000320: 2692 4cbb 8370 8fbd 9e40 d33d 4a25 a2bd
00000330: b646 cf3d a54d 60bd 8868 96bd 58e8 a13d
00000340: fbd0 b2bd ca09 123d 36fa af3d 1af0 0cbc
00000350: 1289 3ebc f0c0 71bd 48ae d9bd 858d 3bbc
00000360: ea62 dd3d eebe cdbc bb2b 1b3d 83d3 3e3d
00000370: 73a4 14be aa24 c23d e936 1b3c 5152 88bd
00000380: 95d5 cc3b fe32 c63c 773d 803d 00bd 1d3d
00000390: a983 053d 2508 083a b66c 8abd de26 d83c
000003a0: f23e fb3c 07b9 023d cb85 333d 8c87 a6bc
000003b0: fa4e 723d a724 ee3c c565 c53d 7a04 ccbd
000003c0: fc2b 9fbc 068e 973c aba5 d2bc 503c eabc
000003d0: ca5f 003d f258 583c 2ab9 b83c 2161 aabd
000003e0: ecab 353d 6707 ea3c 45f9 afbd 0e0e 703c
000003f0: 1464 8a3d a24a 01bd 5b98 a73c 4456 44be
0.11742502 -0.09350391 0.06617733 -0.021482548 0.04311879 0.07014613 -0.05269283 -0.008626306
0.07475231 0.061272133 -0.06761417 -0.019681254 -0.024459492 -0.01742367 0.041303363 0.07166677
0.0041552274 -0.06896499 0.022896327 -0.020554349 0.02891033 0.014057023 0.11858046 -0.012702896
-0.008536668 0.045440942 0.059020333 -0.070662975 0.003752231 -0.06530964 -0.06120268 0.034144063
-0.09889317 -0.07430797 0.1353063 -0.09585945 -0.09765165 0.029178638 -0.008046749 0.05417955
0.020772943 0.07744429 0.0030885583 -0.07347358 0.17762092 0.06993399 -0.017273277 -0.11757755
0.0036192092 -0.05573946 0.029504843 -0.04779556 0.10603369 -0.07044997 0.05881778 -0.024654653
0.040133346 -0.06829568 -0.090349525 0.005199492 0.09247714 0.09694513 -0.14641556 0.07999702
-0.056414057 -0.033132482 0.0671218 -0.032580033 -0.13078927 0.03331008 0.08944383 0.044378024
-0.05085524 -0.038149506 0.01995703 -0.012365449 0.033683673 -0.10525963 0.03446328 0.09554236
-0.07260808 0.07317953 0.028512744 -0.13203457 -0.13046706 -0.005484075 0.091279924 0.020191941
-0.040161915 -0.035919882 -0.045381587 -0.07018419 -0.0030615053 -0.090180926 -0.009090554 -0.007908586
0.060600385 0.009898922 0.012322985 0.0063552456 -0.06872698 0.018163698 0.07158793 0.03558404
-0.019608663 -0.07139731 -0.076077804 0.038618207 0.08344165 -0.045334358 0.18004626 0.14164619
0.07392252 -0.01253158 0.04153243 0.01549122 0.034687825 -0.0003932041 0.026022848 -0.048684344
0.07068796 0.03256839 -0.04254812 -0.06644667 0.12145995 -0.03821041 -0.013360606 -0.02381364
-0.04164615 -0.054043032 0.07672613 -0.0055519827 -0.053518422 -0.015283008 -0.05555707 -0.019143147
-0.03787907 -0.071974166 0.03672344 0.12976016 0.002456331 0.03383122 0.07056335 -0.012306737
-0.112409845 -0.1037309 -0.03652207 0.013490014 -0.07604954 -0.0035130538 0.11877608 0.07947028
-0.041284304 -0.13861988 0.006353863 -0.07783475 -0.11344604 0.042849768 0.045883488 0.03713417
0.02934911 0.05017791 0.02146517 -0.022657793 -0.00926893 -0.022306265 -0.02313669 -0.050427713
0.06260718 -0.062011827 0.12586957 -0.094772354 -0.11898124 -0.035495993 0.053607117 0.028313374
0.17134525 -0.123651505 -0.043937974 -0.14813386 -0.02793904 0.056407303 -0.0512448 0.037211973
0.07573648 -0.04086029 0.018588929 -0.017368173 -0.03390664 0.0016681727 -0.11535623 0.09219812
-0.030874075 -0.10432099 -0.07157695 -0.112328455 -0.08568529 -0.08696317 0.034576748 -0.033801712
-0.003121504 -0.07003882 0.10315059 -0.079172686 0.10120909 -0.054761548 -0.073441565 0.07905644
-0.08731266 0.035653867 0.08592646 -0.008602167 -0.01162936 -0.05902189 -0.10628945 -0.011447315
0.10809882 -0.025115456 0.0378835 0.046588432 -0.14515857 0.09479649 0.009473541 -0.066563256
0.006251047 0.024194237 0.062617235 0.038510323 0.032596264 0.0005189202 -0.06759016 0.02638572
0.030669663 0.031914737 0.043828767 -0.020328306 0.05915735 0.029070212 0.096385516 -0.09961791
-0.019430153 0.01850034 -0.025713762 -0.028593212 0.03134135 0.0132048 0.02254923 -0.08319307
0.04435341 0.028567983 -0.08592466 0.014651788 0.0675737 -0.031565316 0.020458391 -0.19173533

network_body._body_endoder.seq_layers.2.bias f4 [256]
00000000: 0000 0000 0000 0000 0000 0000 0000 0000
00000010: 0000 0000 0000 0000 0000 0000 0000 0000
00000020: 0000 0000 0000 0000 0000 0000 0000 0000
00000030: 0000 0000 0000 0000 0000 0000 0000 0000
00000040: 0000 0000 0000 0000 0000 0000 0000 0000
00000050: 0000 0000 0000 0000 0000 0000 0000 0000
00000060: 0000 0000 0000 0000 0000 0000 0000 0000
00000070: 0000 0000 0000 0000 0000 0000 0000 0000
00000080: 0000 0000 0000 0000 0000 0000 0000 0000
00000090: 0000 0000 0000 0000 0000 0000 0000 0000
000000a0: 0000 0000 0000 0000 0000 0000 0000 0000
000000b0: 0000 0000 0000 0000 0000 0000 0000 0000
000000c0: 0000 0000 0000 0000 0000 0000 0000 0000
000000d0: 0000 0000 0000 0000 0000 0000 0000 0000
000000e0: 0000 0000 0000 0000 0000 0000 0000 0000
000000f0: 0000 0000 0000 0000 0000 0000 0000 0000
00000100: 0000 0000 0000 0000 0000 0000 0000 0000
00000110: 0000 0000 0000 0000 0000 0000 0000 0000
00000120: 0000 0000 0000 0000 0000 0000 0000 0000
00000130: 0000 0000 0000 0000 0000 0000 0000 0000
00000140: 0000 0000 0000 0000 0000 0000 0000 0000
00000150: 0000 0000 0000 0000 0000 0000 0000 0000
00000160: 0000 0000 0000 0000 0000 0000 0000 0000
00000170: 0000 0000 0000 0000 0000 0000 0000 0000
00000180: 0000 0000 0000 0000 0000 0000 0000 0000
00000190: 0000 0000 0000 0000 0000 0000 0000 0000
000001a0: 0000 0000 0000 0000 0000 0000 0000 0000
000001b0: 0000 0000 0000 0000 0000 0000 0000 0000
000001c0: 0000 0000 0000 0000 0000 0000 0000 0000
000001d0: 0000 0000 0000 0000 0000 0000 0000 0000
000001e0: 0000 0000 0000 0000 0000 0000 0000 0000
000001f0: 0000 0000 0000 0000 0000 0000 0000 0000
00000200: 0000 0000 0000 0000 0000 0000 0000 0000
00000210: 0000 0000 0000 0000 0000 0000 0000 0000
00000220: 0000 0000 0000 0000 0000 0000 0000 0000
00000230: 0000 0000 0000 0000 0000 0000 0000 0000
00000240: 0000 0000 0000 0000 0000 0000 0000 0000
00000250: 0000 0000 0000 0000 0000 0000 0000 0000
00000260: 0000 0000 0000 0000 0000 0000 0000 0000
00000270: 0000 0000 0000 0000 0000 0000 0000 0000
00000280: 0000 0000 0000 0000 0000 0000 0000 0000
00000290: 0000 0000 0000 0000 0000 0000 0000 0000
000002a0: 0000 0000 0000 0000 0000 0000 0000 0000
000002b0: 0000 0000 0000 0000 0000 0000 0000 0000
000002c0: 0000 0000 0000 0000 0000 0000 0000 0000
000002d0: 0000 0000 0000 0000 0000 0000 0000 0000
000002e0: 0000 0000 0000 0000 0000 0000 0000 0000
000002f0: 0000 0000 0000 0000 0000 0000 0000 0000
00000300: 0000 0000 0000 0000 0000 0000 0000 0000
00000310: 0000 0000 0000 0000 0000 0000 0000 0000
00000320: 0000 0000 0000 0000 0000 0000 0000 0000
00000330: 0000 0000 0000 0000 0000 0000 0000 0000
00000340: 0000 0000 0000 0000 0000 0000 0000 0000
00000350: 0000 0000 0000 0000 0000 0000 0000 0000
00000360: 0000 0000 0000 0000 0000 0000 0000 0000
00000370: 0000 0000 0000 0000 0000 0000 0000 0000
00000380: 0000 0000 0000 0000 0000 0000 0000 0000
00000390: 0000 0000 0000 0000 0000 0000 0000 0000
000003a0: 0000 0000 0000 0000 0000 0000 0000 0000
000003b0: 0000 0000 0000 0000 0000 0000 0000 0000
000003c0: 0000 0000 0000 0000 0000 0000 0000 0000
000003d0: 0000 0000 0000 0000 0000 0000 0000 0000
000003e0: 0000 0000 0000 0000 0000 0000 0000 0000
000003f0: 0000 0000 0000 0000 0000 0000 0000 0000
0.0 0.0 0.0 0.0 0.0 0.0 0.0 0.0
0.0 0.0 0.0 0.0 0.0 0.0 0.0 0.0
0.0 0.0 0.0 0.0 0.0 0.0 0.0 0.0
0.0 0.0 0.0 0.0 0.0 0.0 0.0 0.0
0.0 0.0 0.0 0.0 0.0 0.0 0.0 0.0
0.0 0.0 0.0 0.0 0.0 0.0 0.0 0.0
0.0 0.0 0.0 0.0 0.0 0.0 0.0 0.0
0.0 0.0 0.0 0.0 0.0 0.0 0.0 0.0
0.0 0.0 0.0 0.0 0.0 0.0 0.0 0.0
0.0 0.0 0.0 0.0 0.0 0.0 0.0 0.0
0.0 0.0 0.0 0.0 0.0 0.0 0.0 0.0
0.0 0.0 0.0 0.0 0.0 0.0 0.0 0.0
0.0 0.0 0.0 0.0 0.0 0.0 0.0 0.0
0.0 0.0 0.0 0.0 0.0 0.0 0.0 0.0
0.0 0.0 0.0 0.0 0.0 0.0 0.0 0.0
0.0 0.0 0.0 0.0 0.0 0.0 0.0 0.0
0.0 0.0 0.0 0.0 0.0 0.0 0.0 0.0
0.0 0.0 0.0 0.0 0.0 0.0 0.0 0.0
0.0 0.0 0.0 0.0 0.0 0.0 0.0 0.0
0.0 0.0 0.0 0.0 0.0 0.0 0.0 0.0
0.0 0.0 0.0 0.0 0.0 0.0 0.0 0.0
0.0 0.0 0.0 0.0 0.0 0.0 0.0 0.0
0.0 0.0 0.0 0.0 0.0 0.0 0.0 0.0
0.0 0.0 0.0 0.0 0.0 0.0 0.0 0.0
0.0 0.0 0.0 0.0 0.0 0.0 0.0 0.0
0.0 0.0 0.0 0.0 0.0 0.0 0.0 0.0
0.0 0.0 0.0 0.0 0.0 0.0 0.0 0.0
0.0 0.0 0.0 0.0 0.0 0.0 0.0 0.0
0.0 0.0 0.0 0.0 0.0 0.0 0.0 0.0
0.0 0.0 0.0 0.0 0.0 0.0 0.0 0.0
0.0 0.0 0.0 0.0 0.0 0.0 0.0 0.0
0.0 0.0 0.0 0.0 0.0 0.0 0.0 0.0

network_body._body_endoder.seq_layers.4.weight f4 [256, 256]
00000000: 2c90 253e 0f94 503c 9f20 7ebd 98b2 36bb
00000010: 8b81 063d f0a0 ba3c cbb5 8d3d c779 35be
00000020: bba7 a8ba 058d 0bbd 3a0f d1bd f418 2c3d
00000030: b71a 06bc 36e1 033e 9550 f1bc b8cf d9bd
00000040: f442 7ebb 7a87 aebc 0941 c8bb 69cd ebbb
00000050: 0d9d bebd d2f6 1abd 8493 babc 927e c93d
00000060: 04e9 5abb bb40 3d3c a56d fc3c 213b 783c
00000070: 32f7 683d 4b4f 533c 62ba b63d f9fa d13c
00000080: 0e26 2e3c ccef a2bd 5168 f83b 5429 19bd
00000090: b678 9ebc fe68 2e3d 3f36 ef3d d42c 9bbc
000000a0: db14 b53c b1b2 8a3c 60df db3b c41a 94bc
000000b0: 7fa6 e0bc de51 64bb 3797 39bb 0a14 1b3d
000000c0: 772f 7bbd b561 47bd 2540 fd3c ed00 07bd
000000d0: 09e0 b23b 271e 46bd 03b3 63bd ea92 83bd
000000e0: 7b43 9cbd db57 863d 7d16 d1bc b9cf 903d
000000f0: ce19 89bc 7baf 8e3d 8079 16bd 9c5b 52bb
00000100: 667b c93b 1bd0 fd3c a1d5 d6bc 9c26 623c
00000110: 0bbc 323d e893 22bd 878f fa3d a48e ed3c
00000120: 5242 48bb f9f0 e6bd b7a0 f2bd c932 33bd
00000130: 522f 2d3b 51db e63d 22a1 673b 95cf 20bc
00000140: 493d 5e3d dc90 41bd 0bb8 c3bc 1543 153d
00000150: 8b20 e4bb ee7c d2bc 961a ddbc 01d3 0ebd
00000160: c362 1a3d 6940 67bc 9bd2 63bd c0ce bbbd
00000170: 5aaf 403d 69d8 aa3b 674f ba3b e329 913d
00000180: f275 5ebd d02f 49bc d9a2 073e 7ce1 483d
00000190: a5a8 f13c 22c8 653d e142 7dba cd75 65bd
000001a0: c303 29be e59f a4bd 9dba 06be f0d3 08bd
000001b0: f674 d13c 0c94 71bc a54f c0bc e9ef 093d
000001c0: 4e7e 5f3d bdd2 a8bc ede1 b9bd 18d2 213d
000001d0: 852f a2bd 3049 91bd f552 5c3d dfc0 023d
000001e0: 80f5 5c3d 6105 82bc 5399 363d 3c4b 47bd
000001f0: 2234 893d 7acd 133b 81d7 8abd 8724 c83d
00000200: f52b 84bd 5bb3 2ebd a5d5 dd3d 1ae1 46bc
00000210: 94ab c4bb 3b21 93bd f140 99bb cb7b 043d
00000220: 88f5 98bd 0a0b 4b3c c909 ec3d f9a1 a7bc
00000230: 0b56 2e3c 8ac5 66bd c1d8 07be f1b1 13bc
00000240: c8fb 26bd 7b53 833d d02f 04b9 b58e 303d
00000250: 41df 163d 27fc 04bd 5473 113d 9d4b 883d
00000260: 9e03 69bd 58ab 9cbc 95af e43c 78b8 db3c
00000270: b9f4 9dba 4e1e 763d e617 1c3e 1f55 66bd
00000280: eefd 3fbd 453d bcbc de3e 88bc cb5a f9bd
00000290: 65e8 e9bd 04e1 bf3c 3d0a 3abd 086f 593c
000002a0: cdb9 debc a1c5 d23c d9f9 0ebc ff93 86bd
000002b0: bfbb 07bd 2e3d 0d3d 50db 5e3c 8fd1 413c
000002c0: 0baf ca3c 7684 aa3c dfae 01be f7c0 37bd
000002d0: be82 0a3b 3aa5 cf3d d85b 623b f9fd b4bd
000002e0: d751 87bc c1b9 dc3b 7cdf 99bd d9ed ad3c
000002f0: 980c c7bb 7151 86bc bde9 3d3d b257 833d
00000300: 1c8e debc 8a69 703d 6891 0ebb 07b1 5cbd
00000310: 5aff fa3c 5149 793d 55ee 9abb 90cf 84bd
00000320: 1823 14bd 268b af3d d172 14bd 9f3b 78bd
00000330: 3860 cebd e9cf 6ebc 7786 2abc 14aa 0e3d
00000340: cae9 323d f568 44bd bb0b 793a a530 253d
00000350: 9e6c 813d 4a22 bebd ae93 ffbc af7e 763b
00000360: 1b91 20bd d39d 77bd ea8a edbd 155e 92bd
00000370: ff78 debd 12ad 673b 596a b33d b37c 8dbc
00000380: 6a6a 323c d00b 3abe e0e7 503c 6229 f2bd
00000390: b5b3 083d 4deb b6bc 53ca 8c3a 5014 9ebd
000003a0: b9cb 21bd 5dd5 c5bd a1bf 223b a152 c23d
000003b0: c9de 363d 3054 c2bd 0f7b 9e3d b2a3 62bd
000003c0: c0d2 a7bb a845 3c3e 66bf 35bc ffcf 473d
000003d0: da3b 31bd 6c8c 0ebc d857 303c 06e1 473d
000003e0: 165f e1bb da81 fa3b 67f7 b13d 7416 21bd
000003f0: 63f3 21bd 318f cf3d e96d 1dbe a778 c03d
0.16168278 0.012730612 -0.06204283 -0.0027877446 0.032838386 0.02278182 0.0691944 -0.17722236
-0.001286737 -0.034070034 -0.10207982 0.042015985 -0.00818508 0.1287888 -0.02945737 -0.10635322
-0.0038797231 -0.021304835 -0.0061112684 -0.0071961177 -0.09307299 -0.037833042 -0.022775419 0.098385945
-0.0033403048 0.0115510775 0.030814001 0.015150816 0.05687637 0.012897323 0.089222685 0.025632368
0.01062919 -0.07955894 0.007580795 -0.03739293 -0.019344669 0.042580597 0.116802685 -0.018942274
0.022104671 0.01693091 0.006709978 -0.01807917 -0.027423142 -0.0034838836 -0.002831889 0.037860908
-0.061324563 -0.048677165 0.030914376 -0.032959867 0.005458836 -0.0483686 -0.05559064 -0.06424506
-0.076300584 0.06559726 -0.025523419 0.0707087 -0.016735937 0.06967064 -0.036736965 -0.003209806
0.0061487434 0.030983021 -0.026224913 0.0138031505 0.043636363 -0.039691836 0.12234407 0.02899868
-0.0030557108 -0.11276431 -0.1184706 -0.043749604 0.002642591 0.112723 0.0035343845 -0.009815116
0.054257665 -0.04725729 -0.02389147 0.036440928 -0.0069618872 -0.025694337 -0.026990216 -0.034869198
0.037691843 -0.014114478 -0.05562077 -0.09170294 0.04704223 0.0052137864 0.005685735 0.070880674
-0.0543117 -0.012279466 0.13245715 0.049043164 0.029499361 0.056099065 -0.000966115 -0.056020547
-0.16505341 -0.0803831 -0.13157125 -0.033405244 0.025568467 -0.01474477 -0.023475477 0.03367606
0.054563813 -0.0206083 -0.09076295 0.039507 -0.0791922 -0.070940375 0.05379005 0.031922217
0.053945065 -0.015871705 0.044579815 -0.048655733 0.06699397 0.0022552893 -0.06779385 0.09772592
-0.06453697 -0.042651515 0.10831765 -0.012138629 -0.006001899 -0.071840726 -0.004676931 0.03234462
-0.07468706 0.012392769 0.11525304 -0.020462977 0.010640631 -0.05634073 -0.13266279 -0.0090145925
-0.04076746 0.06412407 -0.00012606313 0.043104846 0.036834005 -0.032467034 0.035510376 0.06655047
-0.056888215 -0.019124672 0.027915755 0.02682136 -0.0012051082 0.060087495 0.15243492 -0.05623352
-0.046873026 -0.022978434 -0.01663154 -0.121755205 -0.11421279 0.023422725 -0.04541992 0.013271101
-0.027188206 0.025729002 -0.0087265605 -0.06571197 -0.033138033 0.034482174 0.013602093 0.011829748
0.02474167 0.020815115 -0.12664364 -0.04486176 0.0021135057 0.10138936 0.0034539606 -0.08837504
-0.016518516 0.006736011 -0.075133294 0.021231579 -0.0060744993 -0.016396256 0.04636549 0.06413211
-0.027167372 0.0586944 -0.002175415 -0.053879764 0.03063934 0.060860936 -0.0047281184 -0.06484902
-0.03616628 0.08571462 -0.03624231 -0.060603734 -0.10076946 -0.014575937 -0.0104080355 0.034830168
0.04367999 -0.047951657 0.0009500344 0.040329594 0.06319545 -0.09283884 -0.031198349 0.003761213
-0.039200883 -0.060453247 -0.115987614 -0.07146851 -0.10862922 0.003535096 0.087605186 -0.017271375
0.010889629 -0.18168569 0.012750596 -0.118242994 0.033374507 -0.022328997 0.001074145 -0.07718718
-0.039500926 -0.096598364 0.0024833458 0.094884165 0.04464606 -0.09488714 0.07738315 -0.055331893
-0.005121559 0.18385947 -0.011092996 0.048782345 -0.04326997 -0.008700471 0.010763131 0.048798583
-0.00687779 0.007644874 0.086897664 -0.039328054 -0.039538752 0.101347335 -0.15373959 0.093980126

network_body._body_endoder.seq_layers.4.bias f4 [256]
00000000: 0000 0000 0000 0000 0000 0000 0000 0000
00000010: 0000 0000 0000 0000 0000 0000 0000 0000
00000020: 0000 0000 0000 0000 0000 0000 0000 0000
00000030: 0000 0000 0000 0000 0000 0000 0000 0000
00000040: 0000 0000 0000 0000 0000 0000 0000 0000
00000050: 0000 0000 0000 0000 0000 0000 0000 0000
00000060: 0000 0000 0000 0000 0000 0000 0000 0000
00000070: 0000 0000 0000 0000 0000 0000 0000 0000
00000080: 0000 0000 0000 0000 0000 0000 0000 0000
00000090: 0000 0000 0000 0000 0000 0000 0000 0000
000000a0: 0000 0000 0000 0000 0000 0000 0000 0000
000000b0: 0000 0000 0000 0000 0000 0000 0000 0000
000000c0: 0000 0000 0000 0000 0000 0000 0000 0000
000000d0: 0000 0000 0000 0000 0000 0000 0000 0000
000000e0: 0000 0000 0000 0000 0000 0000 0000 0000
000000f0: 0000 0000 0000 0000 0000 0000 0000 0000
00000100: 0000 0000 0000 0000 0000 0000 0000 0000
00000110: 0000 0000 0000 0000 0000 0000 0000 0000
00000120: 0000 0000 0000 0000 0000 0000 0000 0000
00000130: 0000 0000 0000 0000 0000 0000 0000 0000
00000140: 0000 0000 0000 0000 0000 0000 0000 0000
00000150: 0000 0000 0000 0000 0000 0000 0000 0000
00000160: 0000 0000 0000 0000 0000 0000 0000 0000
00000170: 0000 0000 0000 0000 0000 0000 0000 0000
00000180: 0000 0000 0000 0000 0000 0000 0000 0000
00000190: 0000 0000 0000 0000 0000 0000 0000 0000
000001a0: 0000 0000 0000 0000 0000 0000 0000 0000
000001b0: 0000 0000 0000 0000 0000 0000 0000 0000
000001c0: 0000 0000 0000 0000 0000 0000 0000 0000
000001d0: 0000 0000 0000 0000 0000 0000 0000 0000
000001e0: 0000 0000 0000 0000 0000 0000 0000 0000
000001f0: 0000 0000 0000 0000 0000 0000 0000 0000
00000200: 0000 0000 0000 0000 0000 0000 0000 0000
00000210: 0000 0000 0000 0000 0000 0000 0000 0000
00000220: 0000 0000 0000 0000 0000 0000 0000 0000
00000230: 0000 0000 0000 0000 0000 0000 0000 0000
00000240: 0000 0000 0000 0000 0000 0000 0000 0000
00000250: 0000 0000 0000 0000 0000 0000 0000 0000
00000260: 0000 0000 0000 0000 0000 0000 0000 0000
00000270: 0000 0000 0000 0000 0000 0000 0000 0000
00000280: 0000 0000 0000 0000 0000 0000 0000 0000
00000290: 0000 0000 0000 0000 0000 0000 0000 0000
000002a0: 0000 0000 0000 0000 0000 0000 0000 0000
000002b0: 0000 0000 0000 0000 0000 0000 0000 0000
000002c0: 0000 0000 0000 0000 0000 0000 0000 0000
000002d0: 0000 0000 0000 0000 0000 0000 0000 0000
000002e0: 0000 0000 0000 0000 0000 0000 0000 0000
000002f0: 0000 0000 0000 0000 0000 0000 0000 0000
00000300: 0000 0000 0000 0000 0000 0000 0000 0000
00000310: 0000 0000 0000 0000 0000 0000 0000 0000
00000320: 0000 0000 0000 0000 0000 0000 0000 0000
00000330: 0000 0000 0000 0000 0000 0000 0000 0000
00000340: 0000 0000 0000 0000 0000 0000 0000 0000
00000350: 0000 0000 0000 0000 0000 0000 0000 0000
00000360: 0000 0000 0000 0000 0000 0000 0000 0000
00000370: 0000 0000 0000 0000 0000 0000 0000 0000
00000380: 0000 0000 0000 0000 0000 0000 0000 0000
00000390: 0000 0000 0000 0000 0000 0000 0000 0000
000003a0: 0000 0000 0000 0000 0000 0000 0000 0000
000003b0: 0000 0000 0000 0000 0000 0000 0000 0000
000003c0: 0000 0000 0000 0000 0000 0000 0000 0000
000003d0: 0000 0000 0000 0000 0000 0000 0000 0000
000003e0: 0000 0000 0000 0000 0000 0000 0000 0000
000003f0: 0000 0000 0000 0000 0000 0000 0000 0000
0.0 0.0 0.0 0.0 0.0 0.0 0.0 0.0
0.0 0.0 0.0 0.0 0.0 0.0 0.0 0.0
0.0 0.0 0.0 0.0 0.0 0.0 0.0 0.0
0.0 0.0 0.0 0.0 0.0 0.0 0.0 0.0
0.0 0.0 0.0 0.0 0.0 0.0 0.0 0.0
0.0 0.0 0.0 0.0 0.0 0.0 0.0 0.0
0.0 0.0 0.0 0.0 0.0 0.0 0.0 0.0
0.0 0.0 0.0 0.0 0.0 0.0 0.0 0.0
0.0 0.0 0.0 0.0 0.0 0.0 0.0 0.0
0.0 0.0 0.0 0.0 0.0 0.0 0.0 0.0
0.0 0.0 0.0 0.0 0.0 0.0 0.0 0.0
0.0 0.0 0.0 0.0 0.0 0.0 0.0 0.0
0.0 0.0 0.0 0.0 0.0 0.0 0.0 0.0
0.0 0.0 0.0 0.0 0.0 0.0 0.0 0.0
0.0 0.0 0.0 0.0 0.0 0.0 0.0 0.0
0.0 0.0 0.0 0.0 0.0 0.0 0.0 0.0
0.0 0.0 0.0 0.0 0.0 0.0 0.0 0.0
0.0 0.0 0.0 0.0 0.0 0.0 0.0 0.0
0.0 0.0 0.0 0.0 0.0 0.0 0.0 0.0
0.0 0.0 0.0 0.0 0.0 0.0 0.0 0.0
0.0 0.0 0.0 0.0 0.0 0.0 0.0 0.0
0.0 0.0 0.0 0.0 0.0 0.0 0.0 0.0
0.0 0.0 0.0 0.0 0.0 0.0 0.0 0.0
0.0 0.0 0.0 0.0 0.0 0.0 0.0 0.0
0.0 0.0 0.0 0.0 0.0 0.0 0.0 0.0
0.0 0.0 0.0 0.0 0.0 0.0 0.0 0.0
0.0 0.0 0.0 0.0 0.0 0.0 0.0 0.0
0.0 0.0 0.0 0.0 0.0 0.0 0.0 0.0
0.0 0.0 0.0 0.0 0.0 0.0 0.0 0.0
0.0 0.0 0.0 0.0 0.0 0.0 0.0 0.0
0.0 0.0 0.0 0.0 0.0 0.0 0.0 0.0
0.0 0.0 0.0 0.0 0.0 0.0 0.0 0.0

action_model._discrete_distribution.branches.0.weight f4 [3, 256]
00000000: 861c 1dbb dabc 273b 6f46 1cbb fd7c 47ba
00000010: d153 1dbb dab8 ab39 5255 023c 85cb e93a
00000020: 164c 23bb f2b4 b8bb e081 b4bb 2ddb 82bb
00000030: 6fe7 d23a a3a3 073b dfcd d3bb 75d3 63bc
00000040: 0b5e b0ba 60b3 54bb 0e6c c1bb d7ed 35ba
00000050: 6b8f 54bb 977e 38bc 8f9a b5bb 0b18 0b3c
00000060: 5053 303b 3ff1 d7bb 9808 283b 565a c23a
00000070: 618f 223b 5d39 dbbb a3e3 2eba 5fe4 c9bb
00000080: afbc 50ba 98e5 85bb 8273 edbb 2d6b 0cbc
00000090: 5b5a dcb7 c8b8 f0ba 72b8 59bb 4ad9 f63b
000000a0: 863f 0ebb 9ea4 873b b66e 883b fa7c 8e3b
000000b0: d784 21bc f7c0 d33b 1359 1abc fdb2 993a
000000c0: 60e3 9bba d94b 05bc 1246 da3b dd61 5fbb
000000d0: e72d 0fbc 93b0 0b3b aa69 703b 5241 f93b
000000e0: 83b5 cabb fa77 a8bb 1cb8 483b 8154 8cb9
000000f0: c51f b3bb 9dd3 533b afea d4ba 72ba ceba
00000100: 9a3f b2bb 64fa bd3b 432b 88bb 5724 ac3a
00000110: c8ed b0bb 8bc1 62bb e4ec 34bc 13f1 fdbb
00000120: dace 7bbc 5eef c6bb e363 b9bb d83c c0bb
00000130: 491d 9fba 35aa 15bc 3755 c83b dc98 313c
00000140: 38d6 71ba 4b84 f8bb 3f2e 16ba d7a2 8c3b
00000150: efbb 503a e2bb 193b 9f3d 84bb 5225 cf3b
00000160: 91f6 8bbb ba1b e5ba 550c 56bb 63fa fc3a
00000170: d45e c0ba 9bf0 eaba 4ee1 02bc bbbb b0bb
00000180: df56 c3bb 97cd b53a 8fd9 bfbb ff58 293c
00000190: 200a f03b c30f 9dbb 4f6c 59bc cc86 b9bb
000001a0: e298 78bb b3c4 29bb ea5d 92bb cd7b 52bb
000001b0: 253f 6d3c da01 48bb 7f48 1c3b b513 60bb
000001c0: ff99 51bc 7063 3abb 0baf 683a 905f 2a3b
000001d0: 1baf c13a 8757 08ba cd48 5e3b a3b7 473b
000001e0: 2b59 52bb 95da db3b 8355 043c 786f d8ba
000001f0: fdba cdba b5c8 f4bb d995 0b3b 7317 13ba
00000200: 59e5 31bc 210c c1bb a37e fe3b 6c93 8c3b
00000210: 97f5 c3b9 feae c239 5137 ccbb dd20 a7bb
00000220: 0d54 09bc 1d9b 113c 0dc1 aabb 7270 f4bb
00000230: 57ef 603b 5b32 963a 73cc 96ba 83c5 07ba
00000240: 8be5 10bb bb89 b33b 9eb1 1c3a ef85 14bb
00000250: 10f0 7f3b c325 1c3c d7e7 ba3b 99b6 25bc
00000260: 5239 80ba 0753 8bbb 8895 45ba cd49 88bb
00000270: 5287 6d3b 1089 cfba 5fe2 603a f8c3 3639
00000280: a3d6 953b ffed 41bb 1d18 2dbb a849 4f3b
00000290: 4759 cf3b 2a55 4fbc 83f5 b1bb db95 b23a
000002a0: 1489 173c f025 5c3a 3a3d 5cbb 1d06 7cbc
000002b0: 0ff5 c43a df63 88ba 9965 86bb d611 85ba
000002c0: bbc6 0abc 5a9c 593b 0feb a93b 0506 b9bb
000002d0: 2728 a7ba cfe7 cabb dd42 473b f349 1d3c
000002e0: bbcb 79bc 44db 0f3c 5717 94bb 52db f13b
000002f0: 7843 00bc 0785 053c afac 583b efdd bf3b
00000300: 2717 85bb 8597 e63a 5ccd b5ba 8132 8d3b
00000310: 7928 8ebb 46af 223c 3595 e03a 3751 083a
00000320: eb93 f43a f723 49bb 27bd 1cbc 8714 16bc
00000330: e81d 7d3b 368a 993b 1103 953b ca0e ff3b
00000340: 3e4a 073b fb77 e6bb b508 cdbb 2887 3dbb
00000350: 0c31 963b 479f b33b 25ea b7bb d313 c63b
00000360: 2282 e6bb af4d dc3a b824 3dbb 62ee 7cbb
00000370: f2eb 4fbb 525b 8ebb 976c d2ba a836 593b
00000380: 7371 2ebc 6fe8 49bc dde8 73bb df2c 7f3b
00000390: c311 b43b fe46 9bbb 2354 c1bb 5e0a 94bb
000003a0: 53a1 313b ebce 933b 7388 a33a b531 f13b
000003b0: 6d32 dd3b f25e f8bb 81d0 203c ad4e 6239
000003c0: 5d03 363a af3c f03b c0fd 46ba bbe4 aebb
000003d0: ed4b 123c 09a5 bd3b 6b25 bcbb 3753 543c
000003e0: c2fa d6bb 2dc0 313c 4d69 e1bb 0470 a43a
000003f0: a5fe 683b de37 ab3a f68a 89bb 03c6 1bbb
-0.00239733 0.0025594742 -0.0023845693 -0.0007609872 -0.0024006257 0.00032753387 0.007954912 0.0017837143
-0.0024917177 -0.0056368047 -0.0055086464 -0.003993413 0.0016090701 0.00206969 -0.0064637507 -0.013905396
-0.0013455761 -0.0032455549 -0.0059027737 -0.0006940043 -0.0032434117 -0.01126065 -0.0055421065 0.008489619
0.0026905127 -0.006590038 0.0025639888 0.0014827948 0.0024804699 -0.006690188 -0.0006671494 -0.006161257
-0.00079626864 -0.0040862076 -0.0072464356 -0.008570475 -2.6268119e-05 -0.0018365616 -0.003322151 0.007533227
-0.0021705343 0.004139497 0.0041635884 0.0043483945 -0.009858332 0.006462212 -0.009420651 0.0011726316
-0.0011893325 -0.008135759 0.006661185 -0.003408543 -0.008738971 0.0021314963 0.0036684074 0.0076066637
-0.0061861887 -0.0051412554 0.0030627316 -0.0002676584 -0.0054664337 0.0032322176 -0.0016244258 -0.0015772118
-0.005439711 0.005797671 -0.004155548 0.0013133389 -0.0053994395 -0.0034600224 -0.011042807 -0.0077496856
-0.0153691415 -0.0060710153 -0.0056576594 -0.005866628 -0.0012139465 -0.009134819 0.006113674 0.010839667
-0.00092253415 -0.00758413 -0.0005728937 0.004291873 0.00079625746 0.0023457934 -0.004035666 0.0063215876
-0.0042713364 -0.0017479577 -0.003266116 0.0019300695 -0.0014676698 -0.0017924489 -0.007988287 -0.005393473
-0.0059612836 0.0013870475 -0.0058547924 0.01033616 0.0073254257 -0.0047931387 -0.013270452 -0.005661821
-0.0037932922 -0.0025904595 -0.004466762 -0.0032117248 0.014480387 -0.0030518682 0.0023846922 -0.0034191434
-0.012793063 -0.0028440617 0.0008876181 0.00259969 0.0014776917 -0.0005201031 0.0033917904 0.0030474446
-0.0032096605 0.0067094066 0.008077028 -0.0016512712 -0.0015695986 -0.007470215 0.0021299033 -0.0005611099
-0.010857903 -0.0058913385 0.007766561 0.004290035 -0.00037376277 0.00037132943 -0.00623218 -0.005100353
-0.008381856 0.00888708 -0.0052110017 -0.0074596936 0.0034322345 0.0011459099 -0.0011505022 -0.0005179273
-0.0022109475 0.0054790652 0.0005977395 -0.0022662838 0.0039053 0.0095304875 0.005703907 -0.010114335
-0.0009782708 -0.004251841 -0.00075372355 -0.0041591884 0.0036243987 -0.0015833694 0.0008578654 0.00017429877
0.004572706 -0.002959132 -0.0026412078 0.0031629596 0.0063277814 -0.012654582 -0.0054308786 0.0013624983
0.009248991 0.0008397987 -0.003360583 -0.015382317 0.0015026646 -0.001040574 -0.004101467 -0.001015241
-0.008470233 0.0033204765 0.005185492 -0.0056464695 -0.0012753055 -0.0061921845 0.0030404844 0.00960015
-0.015246327 0.008780304 -0.004519384 0.0073808813 -0.007828586 0.008149392 0.0033061912 0.005855314
-0.004061598 0.0017592764 -0.0013870406 0.004308999 -0.004338321 0.009929484 0.0017134311 0.000520009
0.0018659806 -0.0030691603 -0.009566582 -0.009160168 0.0038622562 0.0046856655 0.0045474847 0.0077837454
0.0020643617 -0.0070333458 -0.0062571415 -0.002891967 0.0045834836 0.005481634 -0.005612629 0.0060448437
-0.007034556 0.001680782 -0.0028860997 -0.0038594236 -0.0031726328 -0.0043443823 -0.0016054091 0.003314415
-0.010647166 -0.012323483 -0.0037217655 0.0038936657 0.0054952814 -0.0047386875 -0.0058999225 -0.0045178374
0.0027104213 0.0045107505 0.0012476578 0.007360662 0.006750396 -0.0075796777 0.009815336 0.00021582349
0.000694325 0.007331453 -0.0007590912 -0.0053373254 0.008929235 0.005787496 -0.0057417653 0.012959293
-0.0065606544 0.010849041 -0.006879008 0.001254559 0.003555217 0.0013062914 -0.0041974736 -0.0023769147

action_model._discrete_distribution.branches.0.bias f4 [3]
00000000: 0000 0000 0000 0000 0000 0000
0.0 0.0 0.0

action_model._discrete_distribution.branches.1.weight f4 [3, 256]
00000000: 9f7c 883b df57 a63b a3e7 61ba f7e7 febb
00000010: f6ab a3ba 1042 083c 6ac7 11bc 7249 f4ba
00000020: 6f74 45bb 5b2d b13b 8033 893b 6ec5 bebb
00000030: c1e1 bebb 4ebf 38bb 2205 833a 809e fcba
00000040: 4506 d0ba f0cf e63a 8f48 6cbb 184c 903b
00000050: ea0e d7b9 7a5d bfb9 29b4 1c3c 53a8 3dbc
00000060: f61a b53b 98be e3bb ca99 363c 579c 54bc
00000070: fadb bf3a 2a20 723b 484d a93a 6f3d 263c
00000080: 7ab6 693b 89ee b0bb eba1 243c ead7 733a
00000090: bbdb ceba 8ccc 453c 8314 4fba 4b51 a1bb
000000a0: 6529 a9bb 03b6 093c fe3c c4bb c2da 353c
000000b0: 47af 643c ab2f 0bbb 016a 01bc 553f 93bb
000000c0: 0fc2 d3bb 14c1 a9ba 6d19 7a3b 835b 473c
000000d0: 8701 9a3a e90d 1d3b 772d dabb fa42 db3b
000000e0: fec7 20bb 86aa 9dba cdb9 9fbc 02cf e33b
000000f0: e0e9 1abb f508 28bb 8d1c d23b a3df 863b
00000100: b0eb 7e3b 0f2a 67ba 319e cc3a b540 8e3b
00000110: a7f5 283c 7024 5b3b ed93 66bb 9bf0 a53b
00000120: 8759 a5bb 0712 303b 23a6 fa3b 7e5e aa3b
00000130: 53e6 8ebb ed95 2d3c 2bdb 2d3c 201f 24bb
00000140: 953a 483b ed9a f1bb 2b19 f73a bb68 853b
00000150: 2812 443b efb4 ca3b c0ca 663b 0051 dcbb
00000160: c69a a6bb 2327 c13b 8f5b a3ba 80e1 193c
00000170: 37c0 d1bb 610e c93a 63a9 523b 36d1 253b
00000180: 30f5 d33b a114 4bbc 4f8c 703a e79f 133b
00000190: 1183 c33b 1929 10bb 5521 b1bb c914 1b38
000001a0: 616a 3cbb 2a06 423b 5ffe 8fbb 3389 473b
000001b0: e0ab 7ab9 48b9 eabb 77b9 e43b 0f2f a9bb
000001c0: 169f 093c 9425 b7bb 308f e43b 23df 2dbc
000001d0: 23ee ac3b cdc0 c6bb 7fce f53b df0b 22bb
000001e0: 4a50 5eba e830 1abb ae56 43bb bfbd c3bb
000001f0: c2f2 6ebb c539 dc3b 8d52 d8bb 0772 c7bb
00000200: 9de5 8abb 9cfe 443c 1be3 d63b 63f5 9b3b
00000210: 4757 02ba 9a6a 8dbb f7cc 98bb 8f77 143b
00000220: d0d6 8ebc 439a b6bb 0bf6 d73b 2fc3 4a3b
00000230: c3d7 333a 1631 c539 622c 11bc 7acc e33a
00000240: 8872 743b dcff aa3b ab25 eebb d82d cabb
00000250: 35a0 933b 1d7e fbba 9e49 3a3b 470d 433b
00000260: cb0c c03b c781 35bb 8930 2abc 4812 37ba
00000270: 9bd4 bdb9 a81e 3b3b 36e4 a03b 5a27 cabb
00000280: 1081 5bbc c6b9 0ebb 939f 3a3c f30c 95bb
00000290: bf55 f83b f772 94bb fab8 513c d3ee 89bb
000002a0: 0dae 4e3b e543 513c ff58 e838 5a06 9bba
000002b0: e39c f8ba a7c0 57bb bdd3 aabb 45a2 03bc
000002c0: b2d7 b03b 7a1b 56bc 8382 a7bb 2247 42bb
000002d0: b9ef af3a bf4d 1a3b d5e9 b93b eb1b b4bb
000002e0: 8a4c c6ba 2592 e2ba 30bb e73b 6070 8ebb
000002f0: a362 feb9 ab79 54bb 3a27 51ba 9dfd d53b
00000300: 5f4f 303b edfb db39 76d1 4a3b e3ca c0b9
00000310: 2be9 2bbc 293b bebb 6892 adbb a5e1 3c3b
00000320: 7670 bc3b 4b65 80bb cde6 e33b 7d16 a9bb
00000330: 17a1 0fb9 1fae ac3b 3fae 3cbc 8d90 d13b
00000340: d321 55bc 059d 84bb fe48 b93b 53e5 483c
00000350: e904 c63b dbcf 50bc a58a 5abc 204f ff3b
00000360: 7f21 903b 3008 f2ba 5f20 a93b 9a92 9db8
00000370: 38c8 07bc e5bc c0bb bfac 47bc e7aa e03b
00000380: d8dd f9bb 8ae0 173b d5ff 7ab9 4124 0bbc
00000390: dfd3 933a 0ab1 1d3c 8dae f3b8 f607 933b
000003a0: 022e e33a e864 01bb 7b87 fd3a 05b4 b3b9
000003b0: 4b4d 19bb bbd4 913b 633e 9aba 4669 b2ba
000003c0: f8ec aabb 2588 41bb 3c6e 3a3b dde3 a639
000003d0: 0e54 0c3b bfdf a3bb 3798 323c b7e0 7239
000003e0: 9a91 59bc 9b79 21bb 8f40 54bb 2f60 5cbc
000003f0: c39e 57bb def7 1fbc a5e4 00ba 4847 ed3b
0.0041652466 0.005076393 -0.00086175854 -0.007779117 -0.0012487161 0.008316532 -0.008897642 -0.0018637611
-0.0030129214 0.005407018 0.0041870475 -0.0058218753 -0.005825252 -0.0028190198 0.0009996037 -0.0019273311
-0.0015871009 0.0017609578 -0.003605399 0.0044036023 -0.00041019107 -0.00036500004 0.009564438 -0.011575776
0.0055268956 -0.006950211 0.011145065 -0.012976727 0.0014637702 0.003694544 0.0012916708 0.010146483
0.0035661743 -0.0053995294 0.01004837 0.0009301888 -0.0015782038 0.012072694 -0.000789948 -0.004923021
-0.0051624053 0.008405211 -0.005988716 0.011099519 0.013957805 -0.002123813 -0.007898808 -0.0044936338
-0.0064623426 -0.0012951219 0.0038162128 0.012167814 0.0011749723 0.002396459 -0.006658252 0.006691334
-0.0024533267 -0.0012028969 -0.019497776 0.0069521675 -0.0023637936 -0.0025640104 0.006412095 0.004116015
0.0038897805 -0.0008818218 0.001561111 0.00434121 0.010312474 0.0033438466 -0.0035183385 0.005064083
-0.005046073 0.0026866214 0.0076491996 0.0051992526 -0.004360953 0.010594827 0.010611336 -0.0025042966
0.0030552496 -0.007373205 0.0018852105 0.0040713227 0.0029918049 0.0061861197 0.0035216063 -0.006723523
-0.0050843684 0.005894558 -0.00124632 0.009392142 -0.0064010876 0.0015339368 0.003214442 0.0025301701
0.0064684376 -0.012395055 0.0009176181 0.002252573 0.005966552 -0.0021997152 -0.005405585 3.6974237e-05
-0.002874993 0.0029605725 -0.004394337 0.0030446767 -0.00023905886 -0.0071632005 0.006980117 -0.0051630805
0.008399745 -0.0055891965 0.006975077 -0.010612282 0.0052774115 -0.006065464 0.007501423 -0.0024726314
-0.0008480592 -0.0023527686 -0.0029806304 -0.005973547 -0.0036460613 0.006720754 -0.0066016377 -0.006086591
-0.004238798 0.012023594 0.006557835 0.004759477 -0.0004972112 -0.0043156864 -0.0046631056 0.002265427
-0.017436415 -0.0055725886 0.00659061 0.0030939092 0.0006860459 0.0003761134 -0.008860679 0.0017379664
0.0037299711 0.005218489 -0.007267674 -0.006170016 0.004505182 -0.0019187365 0.0028425227 0.0029762553
0.0058609 -0.0027695762 -0.010387548 -0.000698362 -0.00036207293 0.0028552208 0.0049100174 -0.006169242
-0.01339747 -0.002177821 0.0113905845 -0.004548663 0.007578581 -0.0045303064 0.0128004495 -0.0042093783
0.0031536848 0.012772535 0.00011079199 -0.0011827454 -0.0018967654 -0.0032921226 -0.0052132295 -0.008034294
0.0053968066 -0.013068074 -0.0051119938 -0.002964445 0.0013422883 0.0023544875 0.005673627 -0.005496492
-0.0015129012 -0.0017285986 0.007071875 -0.0043468922 -0.00048520145 -0.0032421153 -0.00079785625 0.006530477
0.0026902778 0.00041958634 0.0030947602 -0.00036772256 -0.010492603 -0.0058053923 -0.005296994 0.0028821018
0.005750711 -0.003918325 0.006955004 -0.0051601515 -0.00013697553 0.0052697803 -0.011516153 0.0063954056
-0.013008553 -0.0040470385 0.0056544533 0.012261706 0.006043066 -0.012744869 -0.0133387195 0.007791415
0.0043985243 -0.0018465575 0.0051613296 -7.51365e-05 -0.008287482 -0.005881893 -0.012187182 0.0068563106
-0.007625323 0.0023174607 -0.00023937163 -0.00849253 0.0011278352 0.009624729 -0.000116196556 0.004487033
0.0017332437 -0.0019743983 0.0019342744 -0.00034275666 -0.0023392017 0.0044504083 -0.001176786 -0.0013611696
-0.005216237 -0.0029530611 0.0028447052 0.0003183176 0.0021412405 -0.005001038 0.010900549 0.00023162631
-0.013279343 -0.0024639133 -0.0032387113 -0.013450666 -0.0032901026 -0.009763686 -0.0004916883 0.0072411634

action_model._discrete_distribution.branches.1.bias f4 [3]
00000000: 0000 0000 0000 0000 0000 0000
0.0 0.0 0.0
