results/Run8/Agent.onnx (onnx, 923545 bytes, 19 tensors)

discrete_action_output_shape f4 [1, 6]
3.0 3.0 2.0 2.0 2.0 2.0
00000000: 0000 4040 0000 4040 0000 0040 0000 0040
00000010: 0000 0040 0000 0040

network_body._body_endoder.seq_layers.0.weight f4 [256, 366]
-0.009779993 -0.02692082 0.00893624 0.014626093 -0.03504248 0.05501401 -0.0216397 -0.061326407
-0.016534053 -0.053619307 0.07175168 -0.07663551 -0.00049519865 -0.113772444 0.03953409 -0.033939317
0.0005618791 0.076407716 0.0008097311 0.057923697 0.039732497 -0.071260266 -0.021745995 0.039060384
0.07333849 0.02010843 -0.1038779 -0.026170282 0.0068096304 -0.025629062 -0.079427585 -0.0031746593
0.1181496 -0.024942793 -0.019307837 0.017060427 -0.037385616 -0.07171028 0.040030695 0.057141878
-0.001977125 0.056164116 0.027812937 -0.006962029 0.03007966 0.04392132 -0.18171072 -0.024884034
-0.026009405 0.0427827 0.005056173 0.00020134571 0.040117342 -0.08310954 -0.009297527 0.023266327
-0.05437026 0.089539975 0.038660537 0.015212182 -0.007421152 0.04160788 -0.02647721 -0.11904748
-0.0399071 -0.06543141 0.0005787978 -0.010076472 0.08710597 -0.040532418 0.05290198 0.021398617
-0.00909438 -0.094254546 -0.13228157 -0.032862093 -0.032248758 -0.010970183 0.039823636 0.033974998
0.0593741 -0.023581017 -0.06500221 0.03387369 0.0063645826 -0.022434728 -0.038529675 0.05734587
0.11622853 -0.015806839 -0.07268022 0.025759036 -0.056915253 0.019150913 -0.0963139 -0.021345684
0.0043968144 -0.01883623 -0.005995785 0.04334183 -0.02368711 0.0147284 -0.022369606 -0.021712322
0.025448887 -0.08422842 0.0105584115 -0.05602526 -0.024387091 0.06403549 0.047842517 0.03898042
-0.009615942 0.038471624 -0.033383336 0.061125156 -0.031669863 -0.030662933 0.07776168 0.048991755
0.01657407 0.062311027 0.07558536 -0.056817777 0.008160259 -0.014844409 0.11491489 0.0022129032
0.017355438 -0.007048282 -0.05922721 -0.030286312 -0.005482163 -0.09777973 -0.083804384 -0.04690486
0.009193557 0.09511321 -0.0120959105 -0.02977792 0.04484993 -0.068011686 -0.054820675 0.04566707
0.028797751 -0.0017819122 -0.008784737 0.07887348 0.009855466 0.04193587 -0.05264759 -0.01820808
-0.046762884 -0.0029383197 0.012503393 -0.051086325 -0.0709523 0.043828223 0.01918407 0.0761105
-3.0601877e-05 -0.012551113 0.056673806 0.03111498 -0.032557927 0.017018532 0.0047356817 -0.022167545
-0.015702741 0.08516934 0.037976205 -0.003306208 0.0048269685 -0.017244954 -0.018316206 -0.041212358
0.06902497 0.018944627 -0.04829527 0.067852296 0.019616025 0.056452382 -0.004761816 -0.018237915
0.05417943 -0.037669968 -0.046840455 -0.09147165 -0.004909871 0.09236814 0.06302 0.0078028683
0.08585715 0.093979806 -0.020097425 0.028932095 0.08810682 0.024059463 -0.002783644 -0.0122297555
0.008393471 0.03622763 0.0005487679 0.019472819 0.0135241 -0.08991549 0.07786019 -0.0033109006
-0.07201553 -0.07821899 0.12539859 -0.048866484 0.072641425 0.03958962 0.0075459615 -0.040066816
0.026958428 0.02339295 0.026801752 -0.009968652 -0.08341419 0.035914093 -0.044054415 -0.020398114
-0.045079783 0.048637696 0.03177047 -0.01780632 -0.049531434 -0.045509998 0.109029695 0.082196206
-0.0018828218 -0.092976026 0.05898011 -0.005173679 -0.07520938 -0.061609246 0.01475499 0.004284937
0.091011085 -0.004098416 -0.04095044 -0.0840368 0.081292205 0.10861245 -0.047753844 0.0067520374
-0.005573529 -0.06393966 -0.03832417 0.055089686 0.0701362 -0.114571415 0.020295626 -0.01589984
00000000: 443c 20bc 0d89 dcbc 4f69 123c 48a2 6f3c
00000010: b488 0fbd 5f56 613d bd45 b1bc 6631 7bbd
00000020: 6c72 87bc eb9f 5bbd 8bf2 923d 14f3 9cbd
00000030: 38d0 01ba 8701 e9bd 7fee 213d f403 0bbd
00000040: 114b 133a a67b 9c3d 2244 543a 6641 6d3d
00000050: 8bbe 223d e7f0 91bd a824 b2bc c8fd 1f3d
00000060: 7e32 963d 6fba a43c f0bd d4bd 0f63 d6bc
00000070: 5223 df3b 0af4 d1bc eeaa a2bd f20d 50bb
00000080: 6bf8 f13d d454 ccbc 782b 9ebc 4fc2 8b3c
00000090: a921 19bd d7dc 92bd 3af7 233d 9a0d 6a3d
000000a0: a792 01bb 580c 663d f5d7 e33c bb21 e4bb
000000b0: 9e69 f63c d8e6 333d 6012 3abe 9ad9 cbbc
000000c0: ad11 d5bc ea3c 2f3d 41ae a53b 5420 5339
000000d0: 1552 243d 5635 aabd a854 18bc 0699 be3c
000000e0: 5ab3 5ebd bc60 b73d 835a 1e3d 843c 793c
000000f0: 232d f3bb 066d 2a3d bce6 d8bc 2acf f3bd
00000100: a175 23bd e700 86bd 76ba 173a c917 25bc
00000110: 9d64 b23d 5205 26bd bfaf 583d 274c af3c
00000120: 9800 15bc 8708 c1bd d274 07be 679a 06bd
00000130: 4617 04bd 48bc 33bc 1c1e 233d 5e29 0b3d
00000140: 4232 733d fa2c c1bc e11f 85bd 23bf 0a3d
00000150: fd8d d03b 09c9 b7bc 4bd1 1dbd 81e3 6a3d
00000160: 3909 ee3d 587d 81bc 5ed9 94bd 9d04 d33c
00000170: f81f 69bd 60e2 9c3c 3940 c5bd 25dd aebc
00000180: 2713 903b 704e 9abc 4a78 c4bb 3487 313d
00000190: 780b c2bc 634f 713c 7740 b7bc 0ade b1bc
000001a0: 2f7a d03c f37f acbd 30fd 2c3c be7a 65bd
000001b0: 70c7 c7bc 0a25 833d 84f6 433d efa9 1f3d
000001c0: 2f8c 1dbc 6c94 1d3d f7bc 08bd 5f5e 7a3d
000001d0: 42b8 01bd d530 fbbc 8441 9f3d 94ab 483d
000001e0: 58c6 873c d939 7f3d 7fcc 9a3d c2b9 68bd
000001f0: 9bb2 053c f735 73bc 7f58 eb3d 5b06 113b
00000200: fe2c 8e3c 46f5 e6bb 3b98 72bd 001b f8bc
00000210: b7a3 b3bb bd40 c8bd a2a1 abbd 4f1f 40bd
00000220: 93a0 163c b7ca c23d ed2d 46bc d3f0 f3bc
00000230: 8fb4 373d b649 8bbd a58b 60bd 650d 3b3d
00000240: 43e9 eb3c 0d8f e9ba dced 0fbc 6b88 a13d
00000250: d278 213c f2c4 2b3d 00a5 57bd 1d29 95bc
00000260: 708a 3fbd d390 40bb 08db 4c3c e53f 51bd
00000270: 714f 91bd 3985 333d e927 9d3c d2df 9b3d
00000280: 845a 00b8 2fa3 4dbc cb22 683d d8e4 fe3c
00000290: 765b 05bd 736a 8b3c c72d 9b3b b698 b5bc
000002a0: 09a3 80bc 436d ae3d f08c 1b3d f7ac 58bb
000002b0: 8c2b 9e3b 4a45 8dbc de0b 96bc 4ace 28bd
000002c0: f75c 8d3d c331 9b3c 43d1 45bd 25f6 8a3d
000002d0: c9b1 a03c 9d3a 673d 0209 9cbb ae67 95bc
000002e0: 40eb 5d3d d34b 1abd c7db 3fbd 7d55 bbbd
000002f0: fce2 a0bb 822b bd3d a110 813d 34af ff3b
00000300: e0d5 af3d 7c78 c03d 5ba3 a4bc 0003 ed3c
00000310: 5971 b43d 5a18 c53c cc6d 36bb 505f 48bc
00000320: c584 093c 6c63 143d 31db 0f3a 7685 9f3c
00000330: 3094 5d3c 9d25 b8bd 2a75 9f3d b2fb 58bb
00000340: e17c 93bd 4731 a0bd 7d68 003e 3928 48bd
00000350: 07c5 943d ba28 223d 1d44 f73b 1a1d 24bd
00000360: ecd7 dc3c 92a2 bf3c 598f db3c 8f53 23bc
00000370: 0fd5 aabd a81a 133d 6772 34bd f219 a7bc
00000380: 94a5 38bd 5238 473d c121 023d 8fde 91bc
00000390: 79e1 4abd b168 3abd f64a df3d 7c56 a83d
000003a0: 04c9 f6ba 376a bebd 2195 713d f787 a9bb
000003b0: 6007 9abd fa59 7cbd eabe 713c a868 8c3b
000003c0: 0564 ba3d 014c 86bb a6bb 27bd 7c1b acbd
000003d0: 877c a63d 3470 de3d 8999 43bd 3240 dd3b
000003e0: 26a2 b6bb ccf2 82bd cef9 1cbd b9a5 613d
000003f0: 91a3 8f3d 6ba4 eabd 0343 a63c 6240 82bc

network_body._body_endoder.seq_layers.0.bias f4 [256]
0.0 0.0 0.0 0.0 0.0 0.0 0.0 0.0
0.0 0.0 0.0 0.0 0.0 0.0 0.0 0.0
0.0 0.0 0.0 0.0 0.0 0.0 0.0 0.0
0.0 0.0 0.0 0.0 0.0 0.0 0.0 0.0
0.0 0.0 0.0 0.0 0.0 0.0 0.0 0.0
0.0 0.0 0.0 0.0 0.0 0.0 0.0 0.0
0.0 0.0 0.0 0.0 0.0 0.0 0.0 0.0
0.0 0.0 0.0 0.0 0.0 0.0 0.0 0.0
0.0 0.0 0.0 0.0 0.0 0.0 0.0 0.0
0.0 0.0 0.0 0.0 0.0 0.0 0.0 0.0
0.0 0.0 0.0 0.0 0.0 0.0 0.0 0.0
0.0 0.0 0.0 0.0 0.0 0.0 0.0 0.0
0.0 0.0 0.0 0.0 0.0 0.0 0.0 0.0
0.0 0.0 0.0 0.0 0.0 0.0 0.0 0.0
0.0 0.0 0.0 0.0 0.0 0.0 0.0 0.0
0.0 0.0 0.0 0.0 0.0 0.0 0.0 0.0
0.0 0.0 0.0 0.0 0.0 0.0 0.0 0.0
0.0 0.0 0.0 0.0 0.0 0.0 0.0 0.0
0.0 0.0 0.0 0.0 0.0 0.0 0.0 0.0
0.0 0.0 0.0 0.0 0.0 0.0 0.0 0.0
0.0 0.0 0.0 0.0 0.0 0.0 0.0 0.0
0.0 0.0 0.0 0.0 0.0 0.0 0.0 0.0
0.0 0.0 0.0 0.0 0.0 0.0 0.0 0.0
0.0 0.0 0.0 0.0 0.0 0.0 0.0 0.0
0.0 0.0 0.0 0.0 0.0 0.0 0.0 0.0
0.0 0.0 0.0 0.0 0.0 0.0 0.0 0.0
0.0 0.0 0.0 0.0 0.0 0.0 0.0 0.0
0.0 0.0 0.0 0.0 0.0 0.0 0.0 0.0
0.0 0.0 0.0 0.0 0.0 0.0 0.0 0.0
0.0 0.0 0.0 0.0 0.0 0.0 0.0 0.0
0.0 0.0 0.0 0.0 0.0 0.0 0.0 0.0
0.0 0.0 0.0 0.0 0.0 0.0 0.0 0.0
00000000: 0000 0000 0000 0000 0000 0000 0000 0000
00000010: 0000 0000 0000 0000 0000 0000 0000 0000
00000020: 0000 0000 0000 0000 0000 0000 0000 0000
00000030: 0000 0000 0000 0000 0000 0000 0000 0000
00000040: 0000 0000 0000 0000 0000 0000 0000 0000
00000050: 0000 0000 0000 0000 0000 0000 0000 0000
00000060: 0000 0000 0000 0000 0000 0000 0000 0000
00000070: 0000 0000 0000 0000 0000 0000 0000 0000
00000080: 0000 0000 0000 0000 0000 0000 0000 0000
00000090: 0000 0000 0000 0000 0000 0000 0000 0000
000000a0: 0000 0000 0000 0000 0000 0000 0000 0000
000000b0: 0000 0000 0000 0000 0000 0000 0000 0000
000000c0: 0000 0000 0000 0000 0000 0000 0000 0000
000000d0: 0000 0000 0000 0000 0000 0000 0000 0000
000000e0: 0000 0000 0000 0000 0000 0000 0000 0000
000000f0: 0000 0000 0000 0000 0000 0000 0000 0000
00000100: 0000 0000 0000 0000 0000 0000 0000 0000
00000110: 0000 0000 0000 0000 0000 0000 0000 0000
00000120: 0000 0000 0000 0000 0000 0000 0000 0000
00000130: 0000 0000 0000 0000 0000 0000 0000 0000
00000140: 0000 0000 0000 0000 0000 0000 0000 0000
00000150: 0000 0000 0000 0000 0000 0000 0000 0000
00000160: 0000 0000 0000 0000 0000 0000 0000 0000
00000170: 0000 0000 0000 0000 0000 0000 0000 0000
00000180: 0000 0000 0000 0000 0000 0000 0000 0000
00000190: 0000 0000 0000 0000 0000 0000 0000 0000
000001a0: 0000 0000 0000 0000 0000 0000 0000 0000
000001b0: 0000 0000 0000 0000 0000 0000 0000 0000
000001c0: 0000 0000 0000 0000 0000 0000 0000 0000
000001d0: 0000 0000 0000 0000 0000 0000 0000 0000
000001e0: 0000 0000 0000 0000 0000 0000 0000 0000
000001f0: 0000 0000 0000 0000 0000 0000 0000 0000
00000200: 0000 0000 0000 0000 0000 0000 0000 0000
00000210: 0000 0000 0000 0000 0000 0000 0000 0000
00000220: 0000 0000 0000 0000 0000 0000 0000 0000
00000230: 0000 0000 0000 0000 0000 0000 0000 0000
00000240: 0000 0000 0000 0000 0000 0000 0000 0000
00000250: 0000 0000 0000 0000 0000 0000 0000 0000
00000260: 0000 0000 0000 0000 0000 0000 0000 0000
00000270: 0000 0000 0000 0000 0000 0000 0000 0000
00000280: 0000 0000 0000 0000 0000 0000 0000 0000
00000290: 0000 0000 0000 0000 0000 0000 0000 0000
000002a0: 0000 0000 0000 0000 0000 0000 0000 0000
000002b0: 0000 0000 0000 0000 0000 0000 0000 0000
000002c0: 0000 0000 0000 0000 0000 0000 0000 0000
000002d0: 0000 0000 0000 0000 0000 0000 0000 0000
000002e0: 0000 0000 0000 0000 0000 0000 0000 0000
000002f0: 0000 0000 0000 0000 0000 0000 0000 0000
00000300: 0000 0000 0000 0000 0000 0000 0000 0000
00000310: 0000 0000 0000 0000 0000 0000 0000 0000
00000320: 0000 0000 0000 0000 0000 0000 0000 0000
00000330: 0000 0000 0000 0000 0000 0000 0000 0000
00000340: 0000 0000 0000 0000 0000 0000 0000 0000
00000350: 0000 0000 0000 0000 0000 0000 0000 0000
00000360: 0000 0000 0000 0000 0000 0000 0000 0000
00000370: 0000 0000 0000 0000 0000 0000 0000 0000
00000380: 0000 0000 0000 0000 0000 0000 0000 0000
00000390: 0000 0000 0000 0000 0000 0000 0000 0000
000003a0: 0000 0000 0000 0000 0000 0000 0000 0000
000003b0: 0000 0000 0000 0000 0000 0000 0000 0000
000003c0: 0000 0000 0000 0000 0000 0000 0000 0000
000003d0: 0000 0000 0000 0000 0000 0000 0000 0000
000003e0: 0000 0000 0000 0000 0000 0000 0000 0000
000003f0: 0000 0000 0000 0000 0000 0000 0000 0000

network_body._body_endoder.seq_layers.2.weight f4 [256, 256]
-0.10385901 0.03300331 -0.057509016 0.071694516 -0.008336234 -0.048854638 -0.033131063 0.057811722
0.07690347 -0.13032757 0.03762419 0.06086773 0.026936699 0.025074761 -0.07675436 -0.08664594
-0.10404494 -0.10469291 -0.051708408 -0.026646158 0.040093627 -0.05650609 0.046794876 0.0029402787
0.018340724 0.14685847 0.057891816 -0.036726695 -0.04268837 0.03607725 -0.008144408 0.04467836
0.01804889 0.00995275 0.0018526894 0.035150155 0.022063764 0.06684595 -0.0047918553 0.032957662
0.03915367 -0.08824985 -0.01103406 -0.02770472 -0.009049199 -0.03226018 0.035079625 0.06778002
-0.026012925 0.026085384 0.022289803 -0.06699734 0.012010383 0.015553756 -0.07537392 -0.056339983
-0.0457265 0.05031433 -0.10667595 -0.095838465 -0.044771533 -0.04611984 0.061532516 -0.05893467
0.08343726 -0.13701253 0.027721908 -0.025218628 -0.0058033527 0.01722119 0.090866 0.09350038
-0.015883928 0.010062856 -0.08872372 0.054495476 -0.020181783 -0.14371707 -0.1009225 -0.0406267
0.04578253 0.036867213 -0.063975155 -0.093751915 -0.019218862 0.043743484 -0.055671502 -0.03153429
0.019731145 0.0011650244 -0.18151447 -0.007449342 0.059990477 -0.04409289 0.017340561 -0.041920435
-0.04965331 -0.11137314 0.08129158 -0.053536095 -0.012510902 0.043264385 -0.06479629 0.047513228
0.035669975 0.051794183 -0.05685771 0.06431571 0.10910768 -0.022424378 0.0914339 0.08018683
0.0998394 0.08849032 0.054690666 -0.15202753 -0.06414164 0.088452905 0.03465748 -0.0014248558
-0.04123179 0.06321319 -0.0023902268 0.044778217 0.11118874 -0.02306793 -0.07113974 0.076402724
-0.06476928 -0.057947773 -0.045042917 0.12687388 -0.019304065 -0.05201736 0.0031175877 -0.06957307
0.020660091 0.086552896 0.065753564 0.009790667 0.004761662 0.0831115 0.06322713 -0.027608728
0.016024005 -0.017124003 0.009656827 0.07785875 -0.017717838 0.042332336 -0.092670724 -0.06216676
0.027828358 0.01473912 -0.08286329 0.022990208 -0.068119854 -0.03579509 0.03877618 -0.11068706
-0.15094356 0.045142647 -0.08064348 0.06403828 -0.027894372 0.07346915 0.061372705 -0.02250484
-0.010515393 0.019706883 -0.12996417 0.008334679 -0.09115979 0.09945174 -0.099655285 -0.04472793
0.12406858 -0.02235703 -0.034378283 -0.16982286 -0.071140595 -0.09771248 0.019329594 -0.07081362
0.015571867 -0.051642746 -0.13330378 0.038772378 0.078113176 -0.04292006 0.049564235 0.024689086
-0.0074151987 0.0007429408 -0.08169691 0.019082667 -0.003756632 -0.12195083 -0.023291366 -0.04337705
-0.039127912 0.072224624 0.035881627 0.012068923 -0.008804241 -0.03858752 -0.09044184 -0.030792361
-0.06519162 -0.00193786 -0.10120261 -0.026189769 -0.089696504 0.08325614 0.023189561 0.029768724
0.060445767 0.03212818 -0.020226479 -0.06639416 -0.030415323 -0.038628537 0.01088478 0.027492128
-0.0037430539 -0.030030899 -0.086957976 0.100012295 0.018890174 -0.07066068 0.029203162 -0.08950893
-0.015701786 0.027644567 -0.052911703 0.0019467981 0.07643648 -0.11744309 0.0038707932 -0.046289925
0.017890321 -0.07507047 0.08805879 -0.048521165 0.07680694 -0.13679895 0.10042331 0.042195346
0.0028071438 0.14289483 0.03160663 -0.028790593 0.016660025 -0.044885103 0.016625175 0.120691076
00000000: 08b4 d4bd 7b2e 073d 938e 6bbd 93d4 923d
00000010: b394 08bc cd1b 48bd 70b4 07bd fccb 6c3d
00000020: 917f 9d3d 9774 05be d31b 1a3d 7150 793d
00000030: 5aaa dc3c 9669 cd3c 6431 9dbd 6d73 b1bd
00000040: 8315 d5bd 3d69 d6bd 32cc 53bd 0b49 dabc
00000050: 3739 243d ee72 67bd fcab 3f3d b1b1 403b
00000060: 493f 963c 1162 163e f81f 6d3d bb6e 16bd
00000070: 00da 2ebd bdc5 133d 2070 05bc a800 373d
00000080: 44db 933c dc10 233c f1d5 f23a 9cf9 0f3d
00000090: 11bf b43c 88e6 883d ff04 9dbb 9dfe 063d
000000a0: 995f 203d 56bc b4bd 34c8 34bc 02f5 e2bc
000000b0: 1743 14bc 4023 04bd a7af 0f3d 40d0 8a3d
000000c0: 0f19 d5bc 04b1 d53c 1b99 b63c e735 89bd
000000d0: 33c7 443c 2ed5 7e3c a45d 9abd c1c4 66bd
000000e0: b64b 3bbd 6616 4e3d ec78 dabd f546 c4bd
000000f0: 5b62 37bd 28e8 3cbd 8509 7c3d 7b65 71bd
00000100: 27e1 aa3d 034d 0cbe 0e19 e33c 4c97 cebc
00000110: 0d2a bebb 7413 8d3c f417 ba3d 217d bf3d
00000120: 031f 82bc adde 243c c8b4 b5bd a636 5f3d
00000130: 4454 a5bc 912a 13be 75b0 cebd 2f68 26bd
00000140: 7686 3b3d 1302 173d 6805 83bd 0101 c0bd
00000150: e070 9dbc 5e2c 333d cd07 64bd 1a2a 01bd
00000160: 36a3 a13c bbb3 983a eede 39be 9c19 f4bb
00000170: 93b8 753d bf9a 34bd cb0d 8e3c c3b4 2bbd
00000180: 4561 4bbd 9a17 e4bd 337c a63d aa48 5bbd
00000190: 87fa 4cbc ff35 313d ebb3 84bd 3b9d 423d
000001a0: ae1a 123d 2326 543d a1e3 68bd f4b7 833d
000001b0: d973 df3d 54b3 b7bc b241 bb3d fe38 a43d
000001c0: 9978 cc3d 6a3a b53d 5203 603d 1bad 1bbe
000001d0: b15c 83bd cc26 b53d 00f5 0d3d 3ac2 baba
000001e0: aae2 28bd eb75 813d 5aa5 1cbb 5d69 373d
000001f0: ecb6 e33d f5f8 bcbc b6b1 91bd 0879 9c3d
00000200: c2a5 84bd a55a 6dbd ec7e 38bd 3aeb 013e
00000210: 8f23 9ebc 2810 55bd 7150 4c3b 537c 8ebd
00000220: 5a3f a93c a542 b13d cea9 863d 0969 203c
00000230: b707 9c3b 5d36 aa3d 3a7d 813d b32b e2bc
00000240: c644 833c a347 8cbc ab37 1e3c 6974 9f3d
00000250: 0025 91bc ac64 2d3d 26ca bdbd 93a2 7ebd
00000260: 4cf8 e33c 5a7c 713c 3bb4 a9bd f655 bc3c
00000270: 6c82 8bbd df9d 12bd c6d3 1e3d e6af e2bd
00000280: f390 1abe 7fe7 383d 6928 a5bd 8026 833d
00000290: bd82 e4bc fe76 963d f261 7b3d 125c b8bc
000002a0: c148 2cbc 5470 a13c 5415 05be 2d8e 083c
000002b0: fcb1 babd 5bad cb3d 1218 ccbd a234 37bd
000002c0: ab17 fe3d 1726 b7bc 3ed0 0cbd 0be6 2dbe
000002d0: 29b2 91bd 7b1d c8bd 1959 9e3c bb06 91bd
000002e0: 2521 7f3c 5887 53bd c980 08be c9cf 1e3d
000002f0: cdf9 9f3d f2cc 2fbd de03 4b3d c440 ca3c
00000300: 32fb f2bb eac1 423a b650 a7bd 4153 9c3c
00000310: d431 76bb 5bc1 f9bd 89cd bebc 22ac 31bd
00000320: 9744 20bd 81ea 933d 9df8 123d bbbc 453c
00000330: aa3f 10bc f30d 1ebd 9239 b9bd 4340 fcbc
00000340: 2f83 85bd cbff fdba 5043 cfbd ed8b d6bc
00000350: cdb2 b7bd 3282 aa3d 09f8 bd3c 8add f33c
00000360: fb95 773d d798 033d 00b2 a5bc a9f9 87bd
00000370: 8e29 f9bc f538 1ebd 1456 323c 2c37 e13c
00000380: 064e 75bb 5c03 f6bc 0617 b2bd 3fd3 cc3d
00000390: 91bf 9a3c 8cb6 90bd 783b ef3c 7550 b7bd
000003a0: 08a1 80bc dc76 e23c f1b9 58bd b42b ff3a
000003b0: bb8a 9c3d 0186 f0bd 22ad 7d3b 819a 3dbd
000003c0: b98e 923c 8cbe 99bd 2b58 b43d 21be 46bd
000003d0: f54c 9d3d 0615 0cbe bdaa cd3d 07d5 2c3d
000003e0: 0ff8 373b 0653 123e f475 013d 40da ebbc
000003f0: 9b7a 883c 71d9 37bd 8531 883c e22c f73d

network_body._body_endoder.seq_layers.2.bias f4 [256]
0.0 0.0 0.0 0.0 0.0 0.0 0.0 0.0
0.0 0.0 0.0 0.0 0.0 0.0 0.0 0.0
0.0 0.0 0.0 0.0 0.0 0.0 0.0 0.0
0.0 0.0 0.0 0.0 0.0 0.0 0.0 0.0
0.0 0.0 0.0 0.0 0.0 0.0 0.0 0.0
0.0 0.0 0.0 0.0 0.0 0.0 0.0 0.0
0.0 0.0 0.0 0.0 0.0 0.0 0.0 0.0
0.0 0.0 0.0 0.0 0.0 0.0 0.0 0.0
0.0 0.0 0.0 0.0 0.0 0.0 0.0 0.0
0.0 0.0 0.0 0.0 0.0 0.0 0.0 0.0
0.0 0.0 0.0 0.0 0.0 0.0 0.0 0.0
0.0 0.0 0.0 0.0 0.0 0.0 0.0 0.0
0.0 0.0 0.0 0.0 0.0 0.0 0.0 0.0
0.0 0.0 0.0 0.0 0.0 0.0 0.0 0.0
0.0 0.0 0.0 0.0 0.0 0.0 0.0 0.0
0.0 0.0 0.0 0.0 0.0 0.0 0.0 0.0
0.0 0.0 0.0 0.0 0.0 0.0 0.0 0.0
0.0 0.0 0.0 0.0 0.0 0.0 0.0 0.0
0.0 0.0 0.0 0.0 0.0 0.0 0.0 0.0
0.0 0.0 0.0 0.0 0.0 0.0 0.0 0.0
0.0 0.0 0.0 0.0 0.0 0.0 0.0 0.0
0.0 0.0 0.0 0.0 0.0 0.0 0.0 0.0
0.0 0.0 0.0 0.0 0.0 0.0 0.0 0.0
0.0 0.0 0.0 0.0 0.0 0.0 0.0 0.0
0.0 0.0 0.0 0.0 0.0 0.0 0.0 0.0
0.0 0.0 0.0 0.0 0.0 0.0 0.0 0.0
0.0 0.0 0.0 0.0 0.0 0.0 0.0 0.0
0.0 0.0 0.0 0.0 0.0 0.0 0.0 0.0
0.0 0.0 0.0 0.0 0.0 0.0 0.0 0.0
0.0 0.0 0.0 0.0 0.0 0.0 0.0 0.0
0.0 0.0 0.0 0.0 0.0 0.0 0.0 0.0
0.0 0.0 0.0 0.0 0.0 0.0 0.0 0.0
00000000: 0000 0000 0000 0000 0000 0000 0000 0000
00000010: 0000 0000 0000 0000 0000 0000 0000 0000
00000020: 0000 0000 0000 0000 0000 0000 0000 0000
00000030: 0000 0000 0000 0000 0000 0000 0000 0000
00000040: 0000 0000 0000 0000 0000 0000 0000 0000
00000050: 0000 0000 0000 0000 0000 0000 0000 0000
00000060: 0000 0000 0000 0000 0000 0000 0000 0000
00000070: 0000 0000 0000 0000 0000 0000 0000 0000
00000080: 0000 0000 0000 0000 0000 0000 0000 0000
00000090: 0000 0000 0000 0000 0000 0000 0000 0000
000000a0: 0000 0000 0000 0000 0000 0000 0000 0000
000000b0: 0000 0000 0000 0000 0000 0000 0000 0000
000000c0: 0000 0000 0000 0000 0000 0000 0000 0000
000000d0: 0000 0000 0000 0000 0000 0000 0000 0000
000000e0: 0000 0000 0000 0000 0000 0000 0000 0000
000000f0: 0000 0000 0000 0000 0000 0000 0000 0000
00000100: 0000 0000 0000 0000 0000 0000 0000 0000
00000110: 0000 0000 0000 0000 0000 0000 0000 0000
00000120: 0000 0000 0000 0000 0000 0000 0000 0000
00000130: 0000 0000 0000 0000 0000 0000 0000 0000
00000140: 0000 0000 0000 0000 0000 0000 0000 0000
00000150: 0000 0000 0000 0000 0000 0000 0000 0000
00000160: 0000 0000 0000 0000 0000 0000 0000 0000
00000170: 0000 0000 0000 0000 0000 0000 0000 0000
00000180: 0000 0000 0000 0000 0000 0000 0000 0000
00000190: 0000 0000 0000 0000 0000 0000 0000 0000
000001a0: 0000 0000 0000 0000 0000 0000 0000 0000
000001b0: 0000 0000 0000 0000 0000 0000 0000 0000
000001c0: 0000 0000 0000 0000 0000 0000 0000 0000
000001d0: 0000 0000 0000 0000 0000 0000 0000 0000
000001e0: 0000 0000 0000 0000 0000 0000 0000 0000
000001f0: 0000 0000 0000 0000 0000 0000 0000 0000
00000200: 0000 0000 0000 0000 0000 0000 0000 0000
00000210: 0000 0000 0000 0000 0000 0000 0000 0000
00000220: 0000 0000 0000 0000 0000 0000 0000 0000
00000230: 0000 0000 0000 0000 0000 0000 0000 0000
00000240: 0000 0000 0000 0000 0000 0000 0000 0000
00000250: 0000 0000 0000 0000 0000 0000 0000 0000
00000260: 0000 0000 0000 0000 0000 0000 0000 0000
00000270: 0000 0000 0000 0000 0000 0000 0000 0000
00000280: 0000 0000 0000 0000 0000 0000 0000 0000
00000290: 0000 0000 0000 0000 0000 0000 0000 0000
000002a0: 0000 0000 0000 0000 0000 0000 0000 0000
000002b0: 0000 0000 0000 0000 0000 0000 0000 0000
000002c0: 0000 0000 0000 0000 0000 0000 0000 0000
000002d0: 0000 0000 0000 0000 0000 0000 0000 0000
000002e0: 0000 0000 0000 0000 0000 0000 0000 0000
000002f0: 0000 0000 0000 0000 0000 0000 0000 0000
00000300: 0000 0000 0000 0000 0000 0000 0000 0000
00000310: 0000 0000 0000 0000 0000 0000 0000 0000
00000320: 0000 0000 0000 0000 0000 0000 0000 0000
00000330: 0000 0000 0000 0000 0000 0000 0000 0000
00000340: 0000 0000 0000 0000 0000 0000 0000 0000
00000350: 0000 0000 0000 0000 0000 0000 0000 0000
00000360: 0000 0000 0000 0000 0000 0000 0000 0000
00000370: 0000 0000 0000 0000 0000 0000 0000 0000
00000380: 0000 0000 0000 0000 0000 0000 0000 0000
00000390: 0000 0000 0000 0000 0000 0000 0000 0000
000003a0: 0000 0000 0000 0000 0000 0000 0000 0000
000003b0: 0000 0000 0000 0000 0000 0000 0000 0000
000003c0: 0000 0000 0000 0000 0000 0000 0000 0000
000003d0: 0000 0000 0000 0000 0000 0000 0000 0000
000003e0: 0000 0000 0000 0000 0000 0000 0000 0000
000003f0: 0000 0000 0000 0000 0000 0000 0000 0000

network_body._body_endoder.seq_layers.4.weight f4 [256, 256]
-0.03289922 0.04713227 -0.026621453 -0.0067211897 -0.06255704 0.028802166 0.037140407 0.07427226
0.10454913 0.029761057 -0.08704063 0.044969838 -0.057742268 -0.04133766 -0.020061674 0.06446187
-0.054639466 -0.02828131 -0.06308397 0.07699503 0.0016506563 0.10017854 -0.06749099 -0.13982499
-0.05022372 0.11745876 -0.02918826 0.014901746 0.003574456 0.062663354 0.047951564 0.03079071
-0.107863456 0.05315801 -0.08503833 0.08927304 -0.021022998 -0.079644375 -0.06619532 -0.109159686
-0.078546524 0.1111311 0.10232124 -0.07310994 0.18431586 -0.046749316 0.0033451112 -0.061123412
0.025339797 -0.18236597 0.039925624 -0.027023593 0.025134265 -0.017013496 -0.016312584 -0.006980383
-0.015185179 -0.05217718 0.0126506165 -0.07966103 -0.0063852826 0.15033661 -0.04812139 -0.054411802
-0.02529454 0.016235875 -0.017959207 0.05958261 0.022801884 0.039013635 0.11653969 -0.02559681
-0.027456444 0.040159445 0.031524993 -0.01739353 0.068005815 -0.010067895 -0.018840373 -0.020180823
-0.09414791 -0.048283067 0.021041231 0.086787686 0.03883962 -0.10822929 0.039662734 -0.032146253
-0.002655248 0.077665396 0.046685893 0.042459507 -0.053720605 -0.06590394 0.012364298 0.13111936
-0.025446681 -0.015169389 -0.011108204 0.07027614 0.0048172516 -0.023039844 -0.016169276 -0.026208716
-0.02529935 -0.012641579 -0.10577545 -0.047811568 0.08492841 -0.008964832 0.030470457 0.10489404
-0.08463381 0.09735811 -0.09093838 -0.04055036 0.04244576 0.045114137 0.052882392 0.04156155
-0.011733165 0.116781525 0.057303887 0.06644224 0.055974294 -0.12045819 -0.08783133 -0.12600872
-0.05382039 0.023248414 0.12690681 -0.0013269434 -0.031822167 -0.17250809 0.070510544 0.050933145
0.036079366 -0.008508733 0.011217957 -0.05799154 0.069437005 -0.053233434 -0.11614245 -0.038385443
0.053352106 -0.052069765 -0.019009924 -0.035000645 0.100519866 0.008702669 -0.003381696 -0.07620689
-0.020168306 -0.01390254 -0.053219162 0.052265268 0.0496796 -0.052259482 -0.028415652 -0.017364955
0.0016947779 -0.09463603 0.03300804 0.108144805 0.06761461 -0.011639862 -0.05117214 -0.026925517
0.014307985 0.031776357 0.008014019 -0.05163031 -0.08945216 0.048018984 -0.109907694 0.006565707
0.0025793612 -0.0037908007 0.088539585 -0.030680455 -0.044036824 0.03084643 0.064064674 0.0756499
0.034916747 0.011422257 0.016421935 0.046045892 -0.057817478 0.04950687 0.0220617 -0.059711438
0.024369918 0.039977502 -0.021855654 -0.04863577 0.09872306 -0.01987737 0.06716519 -0.007877612
-0.04457483 0.018770142 -0.06279188 -0.014802821 -0.07722038 0.029795798 -0.017250853 -0.14380741
-0.004485717 0.08505994 0.029265475 0.061256964 -0.07131227 0.09158905 -0.13203998 0.044877507
0.04206301 -0.046315826 0.028795034 -0.055288274 -0.0039994293 -0.00813402 -0.05233387 -0.060279027
0.0028129185 -0.039805807 -0.020047247 -0.02110726 -0.048785962 0.00036715664 0.05116933 -0.025874313
0.026816092 0.0071894517 -0.0014242514 0.055712096 -0.019627502 0.032177903 0.17860135 -0.007155244
-0.037464518 0.066577636 -0.008698235 -0.09797886 0.048854228 -0.049726 0.092731446 0.003748217
-0.011282567 -0.10603383 -0.0015845507 -0.030857515 -0.025127033 0.0025074552 0.04513405 0.05916887
00000000: 55c1 06bd c40d 413d 3c15 dabc 6d3d dcbb
00000010: e81d 80bd 85f2 eb3c 8a20 183d 0e1c 983d
00000020: db1d d63d 76cd f33c 5c42 b2bd 4b32 383d
00000030: 2883 6cbd ae51 29bd 6158 a4bc 9604 843d
00000040: a2cd 5fbd 35ae e7bc 2b32 81bd 92af 9d3d
00000050: d65a d83a 682a cd3d b738 8abd 482e 0fbe
00000060: 63b7 4dbd 388e f03d 381c efbc 7426 743c
00000070: 6c41 6a3b a555 803d dc68 443d cd3c fc3c
00000080: 84e7 dcbd 37bc 593d 9328 aebd c9d4 b63d
00000090: 6c38 acbc 971c a3bd 6991 87bd 1d8f dfbd
000000a0: 00dd a0bd b498 e33d cc8d d13d aaba 95bd
000000b0: 4cbd 3c3e 367c 3fbd a739 5b3b 8b5c 7abd
000000c0: 6895 cf3c 25be 3abe 0d89 233d 9560 ddbc
000000d0: 60e6 cd3c e35f 8bbc f8a1 85bc b2bb e4bb
000000e0: 42cb 78bc bdb7 55bd 8844 4f3c 5225 a3bd
000000f0: a23b d1bb d7f1 193e ef1a 45bd e9de 5ebd
00000100: 7f36 cfbc 1901 853c 301f 93bc e50c 743d
00000110: 04cb ba3c c3cc 1f3d 5cac ee3d 67b0 d1bc
00000120: 56ec e0bc 3b7e 243d 5a20 013d e07c 8ebc
00000130: a246 8b3d d0f3 24bc 2057 9abc 4152 a5bc
00000140: 9fd0 c0bd 77c4 45bd a95e ac3c bebd b13d
00000150: 4b16 1f3d 51a7 ddbd 6475 223d caab 03bd
00000160: ab03 2ebb 090f 9f3d b539 3f3d 05ea 2d3d
00000170: 230a 5cbd a5f8 86bd a093 4a3c 2744 063e
00000180: 8f75 d0bc 0789 78bc 2fff 35bc f0ec 8f3d
00000190: 09da 9d3b 0ebe bcbc 6e75 84bc a9b3 d6bc
000001a0: 9540 cfbc a01e 4fbc cda0 d8bd 10d6 43bd
000001b0: f2ee ad3d 3be1 12bc 2e9d f93c b0d2 d63d
000001c0: 7e54 adbd b063 c73d e73d babd 2218 26bd
000001d0: 9bdb 2d3d 9ac9 383d 359b 583d 723c 2a3d
000001e0: 763c 40bc 272b ef3d 7bb7 6a3d de12 883d
000001f0: 4d45 653d c9b2 f6bd eae0 b3bd 6e08 01be
00000200: c572 5cbd 7573 be3c dcf3 013e d5ec adba
00000210: f657 02bd f6a5 30be d567 903d 469f 503d
00000220: f5c7 133d 3668 0bbc 86cb 373c 8988 6dbd
00000230: fd34 8e3d 4d0b 5abd 18dc edbd 0e3a 1dbd
00000240: bd87 5a3d 1b47 55bd b3ba 9bbc d65c 0fbd
00000250: 5cdd cd3d a495 0e3c 729f 5dbb 5c12 9cbd
00000260: 0138 a5bc 7bc7 63bc 56fc 59bd 1b14 563d
00000270: d67c 4b3d 0a0e 56bd f1c7 e8bc f340 8ebc
00000280: 4f23 de3a 89d0 c1bd 7033 073d 067b dd3d
00000290: 8779 8a3d 1fb5 3ebc e199 51bd e792 dcbc
000002a0: 0a6c 6a3c ed27 023d 3b4d 033c 4e7a 53bd
000002b0: b232 b7bd 8eaf 443d 4917 e1bd 2425 d73b
000002c0: 800a 293b 156f 78bb 3e54 b53d 9455 fbbc
000002d0: f55f 34bd a7b1 fc3c 5734 833d 56ee 9a3d
000002e0: dd04 0f3d 6b24 3b3c 4b87 863c 9e9a 3c3d
000002f0: 05d2 6cbd b7c7 4a3d bdba b43c fb93 74bd
00000300: 6ca3 c73c 73bf 233d a10a b3bc 4d36 47bd
00000310: 512f ca3d ded5 a2bc e78d 893d 1911 01bc
00000320: 1994 36bd d7c3 993c 0799 80bd 8887 72bc
00000330: b825 9ebd 5116 f43c a951 8dbc 4042 13be
00000340: ecfc 92bb e833 ae3d 26be ef3c 95e8 7a3d
00000350: 2b0c 92bd 0a93 bb3d 7d35 07be 7ad1 373d
00000360: 434a 2c3d aab5 3dbd 90e3 eb3c f575 62bd
00000370: a50d 83bb 8d44 05bc 0a5c 56bd 24e7 76bd
00000380: f158 383b 6a0b 23bd 203a a4bc 22e9 acbc
00000390: cad3 47bd ee7e c039 ee96 513d 5ef6 d3bc
000003a0: 6cad db3c 7e95 eb3b f2ad baba 5e32 643d
000003b0: dbc9 a0bc facc 033d 46e3 363e 8976 eabb
000003c0: 6574 19bd db59 883d 0b83 0ebc 24a9 c8bd
000003d0: 5f1b 483d 7dad 4bbd fce9 bd3d a5a4 753b
000003e0: 84da 38bc 4428 d9bd b3b0 cfba e6c8 fcbc
000003f0: 35d7 cdbc 1e54 243b 7bde 383d 0f5b 723d

network_body._body_endoder.seq_layers.4.bias f4 [256]
0.0 0.0 0.0 0.0 0.0 0.0 0.0 0.0
0.0 0.0 0.0 0.0 0.0 0.0 0.0 0.0
0.0 0.0 0.0 0.0 0.0 0.0 0.0 0.0
0.0 0.0 0.0 0.0 0.0 0.0 0.0 0.0
0.0 0.0 0.0 0.0 0.0 0.0 0.0 0.0
0.0 0.0 0.0 0.0 0.0 0.0 0.0 0.0
0.0 0.0 0.0 0.0 0.0 0.0 0.0 0.0
0.0 0.0 0.0 0.0 0.0 0.0 0.0 0.0
0.0 0.0 0.0 0.0 0.0 0.0 0.0 0.0
0.0 0.0 0.0 0.0 0.0 0.0 0.0 0.0
0.0 0.0 0.0 0.0 0.0 0.0 0.0 0.0
0.0 0.0 0.0 0.0 0.0 0.0 0.0 0.0
0.0 0.0 0.0 0.0 0.0 0.0 0.0 0.0
0.0 0.0 0.0 0.0 0.0 0.0 0.0 0.0
0.0 0.0 0.0 0.0 0.0 0.0 0.0 0.0
0.0 0.0 0.0 0.0 0.0 0.0 0.0 0.0
0.0 0.0 0.0 0.0 0.0 0.0 0.0 0.0
0.0 0.0 0.0 0.0 0.0 0.0 0.0 0.0
0.0 0.0 0.0 0.0 0.0 0.0 0.0 0.0
0.0 0.0 0.0 0.0 0.0 0.0 0.0 0.0
0.0 0.0 0.0 0.0 0.0 0.0 0.0 0.0
0.0 0.0 0.0 0.0 0.0 0.0 0.0 0.0
0.0 0.0 0.0 0.0 0.0 0.0 0.0 0.0
0.0 0.0 0.0 0.0 0.0 0.0 0.0 0.0
0.0 0.0 0.0 0.0 0.0 0.0 0.0 0.0
0.0 0.0 0.0 0.0 0.0 0.0 0.0 0.0
0.0 0.0 0.0 0.0 0.0 0.0 0.0 0.0
0.0 0.0 0.0 0.0 0.0 0.0 0.0 0.0
0.0 0.0 0.0 0.0 0.0 0.0 0.0 0.0
0.0 0.0 0.0 0.0 0.0 0.0 0.0 0.0
0.0 0.0 0.0 0.0 0.0 0.0 0.0 0.0
0.0 0.0 0.0 0.0 0.0 0.0 0.0 0.0
00000000: 0000 0000 0000 0000 0000 0000 0000 0000
00000010: 0000 0000 0000 0000 0000 0000 0000 0000
00000020: 0000 0000 0000 0000 0000 0000 0000 0000
00000030: 0000 0000 0000 0000 0000 0000 0000 0000
00000040: 0000 0000 0000 0000 0000 0000 0000 0000
00000050: 0000 0000 0000 0000 0000 0000 0000 0000
00000060: 0000 0000 0000 0000 0000 0000 0000 0000
00000070: 0000 0000 0000 0000 0000 0000 0000 0000
00000080: 0000 0000 0000 0000 0000 0000 0000 0000
00000090: 0000 0000 0000 0000 0000 0000 0000 0000
000000a0: 0000 0000 0000 0000 0000 0000 0000 0000
000000b0: 0000 0000 0000 0000 0000 0000 0000 0000
000000c0: 0000 0000 0000 0000 0000 0000 0000 0000
000000d0: 0000 0000 0000 0000 0000 0000 0000 0000
000000e0: 0000 0000 0000 0000 0000 0000 0000 0000
000000f0: 0000 0000 0000 0000 0000 0000 0000 0000
00000100: 0000 0000 0000 0000 0000 0000 0000 0000
00000110: 0000 0000 0000 0000 0000 0000 0000 0000
00000120: 0000 0000 0000 0000 0000 0000 0000 0000
00000130: 0000 0000 0000 0000 0000 0000 0000 0000
00000140: 0000 0000 0000 0000 0000 0000 0000 0000
00000150: 0000 0000 0000 0000 0000 0000 0000 0000
00000160: 0000 0000 0000 0000 0000 0000 0000 0000
00000170: 0000 0000 0000 0000 0000 0000 0000 0000
00000180: 0000 0000 0000 0000 0000 0000 0000 0000
00000190: 0000 0000 0000 0000 0000 0000 0000 0000
000001a0: 0000 0000 0000 0000 0000 0000 0000 0000
000001b0: 0000 0000 0000 0000 0000 0000 0000 0000
000001c0: 0000 0000 0000 0000 0000 0000 0000 0000
000001d0: 0000 0000 0000 0000 0000 0000 0000 0000
000001e0: 0000 0000 0000 0000 0000 0000 0000 0000
000001f0: 0000 0000 0000 0000 0000 0000 0000 0000
00000200: 0000 0000 0000 0000 0000 0000 0000 0000
00000210: 0000 0000 0000 0000 0000 0000 0000 0000
00000220: 0000 0000 0000 0000 0000 0000 0000 0000
00000230: 0000 0000 0000 0000 0000 0000 0000 0000
00000240: 0000 0000 0000 0000 0000 0000 0000 0000
00000250: 0000 0000 0000 0000 0000 0000 0000 0000
00000260: 0000 0000 0000 0000 0000 0000 0000 0000
00000270: 0000 0000 0000 0000 0000 0000 0000 0000
00000280: 0000 0000 0000 0000 0000 0000 0000 0000
00000290: 0000 0000 0000 0000 0000 0000 0000 0000
000002a0: 0000 0000 0000 0000 0000 0000 0000 0000
000002b0: 0000 0000 0000 0000 0000 0000 0000 0000
000002c0: 0000 0000 0000 0000 0000 0000 0000 0000
000002d0: 0000 0000 0000 0000 0000 0000 0000 0000
000002e0: 0000 0000 0000 0000 0000 0000 0000 0000
000002f0: 0000 0000 0000 0000 0000 0000 0000 0000
00000300: 0000 0000 0000 0000 0000 0000 0000 0000
00000310: 0000 0000 0000 0000 0000 0000 0000 0000
00000320: 0000 0000 0000 0000 0000 0000 0000 0000
00000330: 0000 0000 0000 0000 0000 0000 0000 0000
00000340: 0000 0000 0000 0000 0000 0000 0000 0000
00000350: 0000 0000 0000 0000 0000 0000 0000 0000
00000360: 0000 0000 0000 0000 0000 0000 0000 0000
00000370: 0000 0000 0000 0000 0000 0000 0000 0000
00000380: 0000 0000 0000 0000 0000 0000 0000 0000
00000390: 0000 0000 0000 0000 0000 0000 0000 0000
000003a0: 0000 0000 0000 0000 0000 0000 0000 0000
000003b0: 0000 0000 0000 0000 0000 0000 0000 0000
000003c0: 0000 0000 0000 0000 0000 0000 0000 0000
000003d0: 0000 0000 0000 0000 0000 0000 0000 0000
000003e0: 0000 0000 0000 0000 0000 0000 0000 0000
000003f0: 0000 0000 0000 0000 0000 0000 0000 0000

action_model._discrete_distribution.branches.0.weight f4 [3, 256]
0.007410516 -0.00021255457 0.014603521 -0.007519334 0.0031968926 -0.0031271426 -0.007778798 -0.0003426684
-0.0011712357 0.012275653 -0.0058440734 0.0022005734 0.002624357 0.00013864548 -0.0026170833 0.00051920436
-0.0011040196 0.0007924254 -0.001173028 0.008853914 0.003095351 -0.0018515559 0.005189408 -0.002488704
-0.009272351 -0.0022204805 -0.0038108458 0.0023401598 0.010898619 0.013648859 0.006352982 -0.007679533
0.00024832375 -0.0063195056 0.00032280743 -0.0073389686 -0.0029351742 -0.0037244621 0.0018403756 -0.0018304642
0.00809038 0.005854577 0.0037138618 -0.002719422 -0.004754617 0.011446591 0.0092180325 -0.003373904
-0.015642293 0.006726858 -0.0013250991 -0.0043011433 0.012958354 0.0015009438 0.0076586925 -0.0067810784
-0.007191874 0.0047775507 0.010619172 -0.006082387 0.0023555446 0.0029139973 0.0073380168 0.0060076406
0.005486601 0.0038952448 0.013066332 0.0033804786 -0.01528897 -0.0082566 0.0044314107 -0.008429623
-0.004514697 0.004861089 -0.005484066 0.012368205 0.0010589152 0.005269992 0.010398186 0.00016650296
-0.005455095 -0.0058168215 0.009134355 0.009849272 0.0006193923 0.006987061 0.0013247549 0.009519378
-0.0028242103 -0.008435563 0.00024371 -0.0049188496 0.00526657 -0.0022821994 -0.0034714253 0.012002372
0.00801609 -0.0010231866 -0.0033216178 0.0039497735 -0.006913714 0.0048118103 -0.0037017066 0.002600159
0.002842563 -0.014503822 -0.00884889 -0.0012990524 -1.5569372e-05 0.0046641813 -0.0040373895 -0.0129034845
0.0018371169 0.0005863962 0.005801003 0.006833014 0.0054225726 0.004925382 0.00028309418 -0.0015167135
-0.00016521256 -0.0025771484 -0.006465934 -0.003103769 0.011132464 -0.006607932 -0.0047303257 0.0073881373
0.0034166835 -0.0007186476 -0.0032003503 -0.0042052413 -0.0055381316 -0.003126796 0.003094847 0.004309451
0.010081983 -0.0023929223 -0.005183904 0.00030684512 -0.0012402091 0.013486802 0.0011415592 -0.007885698
-0.0062179263 0.00835434 -0.00117916 -0.0008848805 0.008274217 0.0020181702 -0.00039621233 -0.002682539
-0.0053609493 -0.002699373 -0.0040272935 -0.008635051 -0.0053599025 0.0037381805 -0.007117595 0.013755443
-0.00040890076 0.006324749 -0.0017479351 -0.008650671 -0.015782591 -0.0005271504 0.00870644 -0.0066254595
0.016996361 0.0048441337 -0.0011631848 0.0045528663 -0.008585579 -0.0009394378 0.0032163349 -0.00014385032
-0.009141884 -0.011368341 -0.006917751 -0.0027477616 -0.01325683 -0.0075346576 0.01116163 -0.007577763
-0.0050646896 -0.0065479623 0.009472146 0.01180857 -0.003052362 -0.005218244 -0.0060186693 0.005709538
-0.0060828663 0.0038195506 -0.006600792 0.009266868 -0.008189909 0.0027830945 0.0007968011 0.0054961476
0.0041853446 0.0017576403 0.0028553514 -0.0053361775 -0.008749546 0.008258081 -0.00709491 0.00959418
0.0047838204 0.0058350363 -0.0009569388 -0.008148747 0.0066801272 0.0032382545 0.005571845 -0.0013209983
0.006175893 0.008448248 -0.004313665 0.008419439 0.0030090518 0.0020191716 0.0016061409 0.008250014
0.0070244106 -0.0037452441 -0.0021803244 -0.0060903775 -0.006548355 0.005566384 -0.00027460555 0.0033670855
0.0050446815 -0.0043458827 -0.0036883305 -0.0062715495 -0.000113035334 0.010966015 0.005646065 -0.0043410747
-0.0048054093 -0.008846476 0.0046955827 -0.017567469 0.0077634654 -0.005042609 0.002242815 0.0003161617
0.008140541 0.0048464187 0.0040684226 -0.008867045 0.010035592 0.009439706 -0.012001383 -0.0059803217
00000000: ead3 f23b 2fe1 5eb9 9b43 6f3c bf64 f6bb
00000010: f582 513b bff0 4cbb 4ae5 febb 2da8 b3b9
00000020: 2684 99ba d21f 493c a47f bfbb 7f37 103b
00000030: 67fd 2b3b 5d61 1139 5f83 2bbb 371b 083a
00000040: c0b4 90ba c5ba 4f3a 4ac0 99ba 0210 113c
00000050: 5fdb 4a3b e8af f2ba e90b aa3b 8619 23bb
00000060: 0feb 17bc 7b85 11bb 62bf 79bb 5e5d 193b
00000070: 1f90 323c 779f 5f3c ad2c d03b 98a4 fbbb
00000080: 7331 8239 db13 cfbb 7b3e a939 bb7b f0bb
00000090: 0d5c 40bb 1b16 74bb c238 f13a 30ec efba
000000a0: 838d 043c c0d7 bf3b 4364 733b 5538 32bb
000000b0: 9ecc 9bbb 7b8a 3b3c 3b07 173c b71c 5dbb
000000c0: 4424 80bc fa6c dc3b f3ae adba 9bf0 8cbb
000000d0: 474f 543c 51bb c43a c5f5 fa3b cf33 debb
000000e0: d0a9 ebbb 008d 9c3b 09fc 2d3c c34e c7bb
000000f0: 7b5f 1a3b c3f8 3e3b bf73 f03b bedb c43b
00000100: f2c8 b33b 5d47 7f3b 2b14 563c 058b 5d3b
00000110: 977e 7abc b146 07bc 5e35 913b 671c 0abc
00000120: 06f0 93bb c549 9f3b aeb3 b3bb 03a4 4a3c
00000130: 4ccb 8a3a e6af ac3b 275d 2a3c 4c97 2e39
00000140: a7c0 b2bb 099b bebb 43a8 153c d75e 213c
00000150: b75e 223a b7f3 e43b 66a3 ad3a 2af7 1b3c
00000160: 6316 39bb 5135 0abc 688c 7f39 4d2e a1bb
00000170: 3193 ac3b f490 15bb da80 63bb 99a5 443c
00000180: eb55 033c 721c 86ba 80af 59bb 1a6d 813b
00000190: 708c e2bb 64ac 9d3b 5598 72bb 6e67 2a3b
000001a0: 4b4a 3a3b 70a1 6dbc effa 10bc f744 aaba
000001b0: f99a 82b7 fdd5 983b 144c 84bb 2369 53bc
000001c0: 6acb f03a 62b8 193a 5716 be3b 7ae7 df3b
000001d0: d6af b13b 1965 a13b 426c 9439 76cc c6ba
000001e0: e93c 2db9 60e5 28bb 30e0 d3bb 9a68 4bbb
000001f0: f064 363c 5a87 d8bb d900 9bbb 3018 f23b
00000200: 70ea 5f3b a063 3cba f8bc 51bb 1fcc 89bb
00000210: 3779 b5bb efea 4cbb ebd2 4a3b 4c36 8d3b
00000220: e72e 253c 93d2 1cbb bddd a9bb 0ee0 a039
00000230: 838e a2ba bff7 5c3c 5fa0 953a 0433 01bc
00000240: bfbf cbbb a4e0 083c 0b8e 9aba 53f7 67ba
00000250: 9590 073c 4743 043b b8ba cfb9 89cd 2fbb
00000260: e7aa afbb f7e7 30bb 63f7 83bb 077a 0dbc
00000270: 1fa2 afbb 43fc 743b b73a e9bb 825e 613c
00000280: bb61 d6b9 d73f cf3b f81a e5ba 8bbb 0dbc
00000290: 7e4a 81bc 7730 0aba 75a5 0e3c 621a d9bb
000002a0: f43b 8b3c 8abb 9e3b 0176 98ba 3630 953b
000002b0: 87aa 0cbc 9b44 76ba 25c9 523b 87d6 16b9
000002c0: d7c7 15bc 4742 3abc 4dae e2bb ca13 34bb
000002d0: 2d33 59bc 4ae5 f6bb 45df 363c e24e f8bb
000002e0: b2f5 a5bb 4a90 d6bb 0f31 1b3c bb78 413c
000002f0: 230a 48bb cefd aabb 4238 c5bb 1317 bb3b
00000300: c852 c7bb 6d51 7a3b 754b d8bb 10d4 173c
00000310: f82e 06bc 9464 363b 6be0 503a 0719 b43b
00000320: 3725 893b 9f60 e63a d920 3b3b 1adb aebb
00000330: 415a 0fbc e74c 073c 6b7c e8bb e830 1d3c
00000340: 98c1 9c3b d533 bf3b 13db 7aba 5282 05bc
00000350: f8e4 da3b e538 543b 0694 b63b 5925 adba
00000360: 255f ca3b 856a 0a3c a559 8dbb b0f1 093c
00000370: 8333 453b 1454 043b 2585 d23a 112b 073c
00000380: 072d e63b c572 75bb c6e3 0ebb ca91 c7bb
00000390: 9593 d6bb 3766 b63b eff8 8fb9 52aa 5c3b
000003a0: db4d a53b e867 8ebb ebb7 71bb 9281 cdbb
000003b0: 620d edb8 cdaa 333c a002 b93b 933f 8ebb
000003c0: b276 9dbb cff0 10bc 67dd 993b a7e9 8fbc
000003d0: ab64 fe3b 783c a5bb 31fc 123b 81c2 a539
000003e0: e75f 053c b5ce 9e3b 6750 853b 1547 11bc
000003f0: 536c 243c ffa8 1a3c 73a1 44bc 93f6 c3bb

action_model._discrete_distribution.branches.0.bias f4 [3]
0.0 0.0 0.0
00000000: 0000 0000 0000 0000 0000 0000

action_model._discrete_distribution.branches.1.weight f4 [3, 256]
-0.00054116023 0.0027640762 -0.0032796666 -0.008758547 0.00026898575 0.00074813765 0.001534384 0.0035944644
-0.002239187 0.0014614463 0.007891114 -0.005962565 -0.0044333925 -0.0069031464 -0.005036799 -0.004560936
0.00029081802 -0.00015065646 0.009304782 0.0024218487 -0.0033223995 0.0050490573 0.0034441536 0.0028382135
-0.0054325364 -0.009243695 0.003977375 -0.0040801647 0.0095039075 0.011324829 0.011442063 -0.0026208814
-0.009494687 -0.0011903349 -0.00629413 0.0022371782 0.005031861 -0.009319022 0.0020997794 -0.0048318836
0.00846728 -0.0041344403 -0.0030472854 0.0015717387 0.0011915255 -0.0042702365 -0.0051012007 0.008782676
0.00014767177 0.004864141 0.0013819769 -0.01632992 -0.0059069144 0.0022430888 0.00049997 0.003659221
0.0050550452 -0.0034755778 -0.0052362205 0.004855951 0.004036066 -0.0055106976 -0.0071620652 0.002526968
-0.0053134556 0.0071368464 0.001559976 0.0017498423 0.0040048226 -0.0017804385 -0.0011459878 -0.004499051
0.009899172 -0.0026193012 0.005261229 -0.0056772544 0.0041023344 -0.0011483207 -0.01576067 0.0046477593
0.01186409 -0.009909543 -0.0030144488 0.010371078 0.0064112507 0.0037261674 -0.0013640509 0.003689885
0.002062945 -0.007861349 -0.0035793595 -0.0011809802 0.008482548 0.012466587 -0.002057708 0.0018416025
-0.0010927407 0.0072092707 -0.0023652657 0.013301144 0.00536715 0.00019147623 0.002530604 0.0029717265
0.007405711 -0.0026655428 -0.0070069516 0.00062472926 0.0053788614 -0.0020376453 0.0051723956 0.00030057563
-0.0038147557 -0.0056267804 -0.0016328652 -0.007759999 -0.0015619613 0.0063916794 -0.0077039576 -0.0049055982
0.0036414121 -0.0026547345 -0.00010542652 0.004601712 0.008003792 0.005842201 -3.490315e-05 -0.0071716323
-0.004023441 0.0025844832 -0.0028071739 -0.010328155 0.003020714 -0.0002455372 0.011282848 -0.009955885
-0.0030335158 0.0052405596 -0.00782322 0.0012049099 -0.0012989946 -0.004240806 -0.0029169193 -0.007558395
-0.009743657 0.011378678 -0.0074791196 -0.0036341485 0.011170075 0.007740449 -0.005994476 0.011195431
-0.0038401317 -0.0037108313 -0.001596975 -0.0036138687 0.003932403 -0.0018887811 0.004327176 0.007939717
0.00055251236 -0.00523542 0.0036779696 0.005723445 -0.010892443 0.002217396 -0.0012822555 -0.00970265
-0.007937454 -0.004387591 -0.00588161 -0.00027419344 -0.0045940443 -9.440274e-05 0.008937516 -0.0039099953
0.0055046678 0.0008922118 0.0060271802 -0.0010148551 0.008321596 -0.005970675 -0.0018356271 -0.0027920648
-0.004980918 -0.00658435 -0.0056853737 -0.0049499995 0.006266913 0.002767044 -0.0008977987 0.010685382
-0.007691791 0.016656317 0.012698064 -0.0035091941 -0.0026095118 -0.0073110866 0.006305098 0.004646761
0.010446907 0.0008925618 -0.007818378 -0.0014043328 -0.0042637223 -0.006659834 0.0014599229 0.0019428954
0.0063633905 0.0038215187 0.0021949846 -0.0024894646 0.0051614847 -0.0085345255 -0.009175482 -0.0027973368
-0.004925386 0.011777222 -0.004502578 -0.0005968614 0.0027029603 -0.00010480582 0.00446443 -0.0053305817
-0.0016762301 -0.002425555 -0.006041651 -0.0036217947 0.0037990191 -0.004696099 0.00032261206 0.0049395342
0.003009706 -0.0022145691 0.00688002 -0.007001964 -0.010672286 -0.0028335494 -0.0015274462 -0.002744873
0.0061485083 -0.004256295 0.002334806 -0.00020249365 -0.004265847 0.0014680767 -0.008525136 0.002637753
-0.0065420764 0.003485636 -0.008600054 0.0005756054 -0.0075331624 -0.011728904 -0.0061058947 -0.0051740487
00000000: a6dc 0dba 8125 353b adef 56bb 0280 0fbc
00000010: a806 8d39 ab1e 443a 621d c93a 1b91 6b3b
00000020: 53bf 12bb 008e bf3a bb49 013c 9f61 c3bb
00000030: fe45 91bb ca33 e2bb bb0b a5bb e773 95bb
00000040: ef78 9839 89f9 1db9 1673 183c e1b7 1e3b
00000050: 9dbc 59bb 9072 a53b 4fb7 613b 5201 3a3b
00000060: 6b03 b2bb de72 17bc a454 823b e7b2 85bb
00000070: 47b6 1b3c c78b 393c 7e77 3b3c 18c3 2bbb
00000080: 9b8f 1bbc 0305 9cba fd3e cebb 9f9d 123b
00000090: 4fe2 a43b d0ae 18bc 749c 093b c754 9ebb
000000a0: 59ba 0a3c 337a 87bb f7b4 47bb cd02 ce3a
000000b0: f62c 9c3a 57ed 8bbb f927 a7bb 37e5 0f3c
000000c0: 57d8 1a39 5f63 9f3b 7323 b53a 53c6 85bc
000000d0: ca8e c1bb c900 133b 6b10 033a 8bcf 6f3b
000000e0: cba4 a53b 85c6 63bb 9a94 abbb ab1e 9f3b
000000f0: fa40 843b 1593 b4bb c2af eabb 7d9b 253b
00000100: 7f1c aebb 35dc e93b 1c78 cc3a f75a e53a
00000110: e33a 833b 9a5d e9ba f834 96ba c66c 93bb
00000120: 2330 223c 95a8 2bbb 6366 ac3b 4308 babb
00000130: e06c 863b 4083 96ba 851c 81bc 3b4c 983b
00000140: 9a61 423c a35b 22bc 0f8e 45bb 74eb 293c
00000150: 7815 d23b b732 743b f4c9 b2ba ffd1 713b
00000160: 7932 073b e3cc 00bc b093 6abb 1fcb 9aba
00000170: 63fa 0a3c a840 4c3c 9dda 06bb ed61 f13a
00000180: 4b3a 8fba bf3b ec3b 9302 1bbb 0bed 593c
00000190: ebde af3b 02c7 4839 7dd8 253b 4cc1 423b
000001a0: 9bab f23b 63b0 2ebb 929a e5bb dfc4 233a
000001b0: 2941 b03b 048a 05bb 337d a93b 9496 9d39
000001c0: fb00 7abb db60 b8bb dd05 d6ba 9747 febb
000001d0: b9ba ccba 4b71 d13b 7b71 fcbb 24bf a0bb
000001e0: c2a4 6e3b 0efb 2dbb 6f18 ddb8 f5c9 963b
000001f0: 5622 033c ef6f bf3b f964 12b8 0300 ebbb
00000200: 12d7 83bb 6f60 293b 90f8 37bb 6c37 29bc
00000210: 2cf7 453b 72bb 80b9 b2db 383c 021e 23bc
00000220: f3cd 46bb 00b9 ab3b f72c 00bc 11ee 9d3a
00000230: 0743 aaba 76f6 8abb c929 3fbb 6aac f7bb
00000240: dca3 1fbc a26d 3a3c 6713 f5bb e52a 6ebb
00000250: b102 373c 98a3 fd3b 4f6d c4bb 0b6d 373c
00000260: b8aa 7bbb 6b31 73bb 9751 d1ba a8d6 6cbb
00000270: 63db 803b fa90 f7ba fcca 8d3b 9615 023c
00000280: 7ad6 103a e38d abbb 170a 713b bd8b bb3b
00000290: 3876 32bc bb51 113b 5b11 a8ba ddf7 1ebc
000002a0: 180c 02bc c8c5 8fbb 85ba c0bb 9fc1 8fb9
000002b0: a389 96bb 16fa c5b8 a96e 123c 6b1f 80bb
000002c0: 8060 b43b 52e3 693a a77f c53b e304 85ba
000002d0: 4e57 083c a7a5 c3bb 6d99 f0ba 13fb 36bb
000002e0: f836 a3bb 88c1 d7bb 5f4c babb 9b33 a2bb
000002f0: ad5a cd3b 4b57 353b 405a 6bba be11 2f3c
00000300: 6b0b fcbb d472 883c 8a0b 503c 82fa 65bb
00000310: 5804 2bbb d791 efbb ff9a ce3b db43 983b
00000320: 8129 2b3c cffa 693a a718 00bc 9711 b8ba
00000330: b2b6 8bbb bd3a dabb e25a bf3a c0a8 fe3a
00000340: fd83 d03b 7272 7a3b bbd9 0f3b 4926 23bb
00000350: ac21 a93b 65d4 0bbc c354 16bc 8653 37bb
00000360: 2265 a1bb 40f5 403c 5d8a 93bb b176 1cba
00000370: 2624 313b 32cb dbb8 5a4a 923b 29ac aebb
00000380: f3b4 dbba 0ff6 1ebb 0bf9 c5bb a25b 6dbb
00000390: f7f8 783b bce1 99bb 4224 a939 d1db a13b
000003a0: 7d3e 453b 4e22 11bb ca71 e13b bb70 e5bb
000003b0: d0da 2ebc 12b3 39bb 9734 c8ba 54e3 33bb
000003c0: 6d79 c93b 6478 8bbb 8b03 193b 7a54 54b9
000003d0: 85c8 8bbb 7b6c c03a 03ad 0bbc 27de 2c3b
000003e0: ea5e d6bb 456f 643b 3ee7 0cbc 39e4 163a
000003f0: bfd8 f6bb 972a 40bc f513 c8bb 118b a9bb

action_model._discrete_distribution.branches.1.bias f4 [3]
0.0 0.0 0.0
00000000: 0000 0000 0000 0000 0000 0000
