results/Run7/Agent.onnx (onnx, 923545 bytes, 19 tensors)

discrete_action_output_shape f4 [1, 6]
0	0x40400000	3.0
1	0x40400000	3.0
2	0x40000000	2.0
3	0x40000000	2.0
4	0x40000000	2.0
5	0x40000000	2.0

network_body._body_endoder.seq_layers.0.weight f4 [256, 366]
0	0xbd1f4487	-0.038883712
1	0xbd3d500a	-0.04621891
2	0x3d8a6bc3	0.06758835
3	0x3da77c86	0.08178048
4	0xbc40ba53	-0.011763173
5	0x3cfef289	0.03112151
6	0x3d35b6b5	0.044363696
7	0x3d0fdef7	0.035124745
8	0x3d3a49f2	0.045480676
9	0xbd404662	-0.046942122
10	0x3d337afc	0.04381846
11	0x3de64f15	0.112455525
12	0x3de1af0c	0.11019716
13	0xbd76e2f8	-0.060275048
14	0xbcef02f8	-0.02917622
15	0x3d9665f9	0.073436685
16	0xbcd4667a	-0.02592777
17	0xbd2139c5	-0.039361734
18	0xbd5df77a	-0.05419109
19	0x3d895adc	0.06706783
20	0x3cfa680e	0.030567195
21	0xbd416ccf	-0.04722291
22	0xbcbf1156	-0.023323696
23	0x3e032413	0.1280673
24	0xbb3adb84	-0.002851219
25	0x3da2a134	0.07940903
26	0x3e0039c5	0.12522037
27	0x3db6991b	0.08915921
28	0x3c9d98af	0.019237844
29	0xbc85dae4	-0.016339727
30	0x3cee205c	0.029068165
31	0xbb21903a	-0.0024652616
32	0xbcca09c5	-0.024662862
33	0xbd31ad1e	-0.043377988
34	0x3cea83ac	0.02862724
35	0xbc9b8b49	-0.018987315
36	0x3dc841fe	0.09778212
37	0x3d2fdb7c	0.042933926
38	0xbba13235	-0.004919315
39	0x3c43d018	0.011951469
40	0x3d1d00fc	0.038331017
41	0x3d621406	0.055194877
42	0x3dc74247	0.09729438
43	0x3d14ecec	0.03635876
44	0xbc8c8a6e	-0.017155852
45	0x3d7ad826	0.06124129
46	0xbd5414ca	-0.05177764
47	0x3d1593db	0.03651796
48	0xbc5773bb	-0.013150151
49	0x3cf84d35	0.030310253
50	0xbbf18351	-0.0073703905
51	0x3ca17d1e	0.01971298
52	0xbc20a817	-0.009805701
53	0xbd12b303	-0.03581525
54	0xbd0a48b0	-0.033760726
55	0x3d0496f2	0.032370515
56	0x3db03423	0.08603694
57	0xbb48deb2	-0.0030650315
58	0x3c58d70a	0.013234863
59	0x3d469bc0	0.04848838
60	0x3c836f7c	0.01604437
61	0xbb7664ad	-0.0037596629
62	0xbdca6c80	-0.09883976
63	0x3da8c08a	0.08239849
64	0x3d0856d2	0.033285923
65	0xbd01465a	-0.031561233
66	0xbd621b4f	-0.055201825
67	0xbd39fae0	-0.04540527
68	0x3c9cf2a9	0.019158678
69	0x3c78d849	0.015188285
70	0x3d15a27f	0.03653192
71	0xbc91a7a1	-0.017780127
72	0xbce9aa32	-0.028523538
73	0x3c72d8d3	0.014822203
74	0x3cb711df	0.022347389
75	0xbd7f16d3	-0.062277626
76	0xbcd604aa	-0.02612527
77	0x3ce104ff	0.027468203
78	0x3d09b769	0.03362218
79	0x3cf00e32	0.029303644
80	0xbcf48554	-0.029848732
81	0x3df1da87	0.11809259
82	0x3c09b44d	0.008404803
83	0x3d36f9eb	0.044671934
84	0xbd2a280b	-0.041542094
85	0xbd91f6d8	-0.0712716
86	0x3d207873	0.03917737
87	0x3bc13d50	0.0058972016
88	0x3c37354e	0.011182142
89	0xb92970fa	-0.00016159183
90	0x3d439eac	0.047758743
91	0x3e12abf6	0.1432341
92	0x3da252d2	0.07925953
93	0xbcf1caae	-0.02951559
94	0x3d76bef8	0.060240716
95	0x3d47c14b	0.048768323
96	0xbda8aafb	-0.08235737
97	0x3c304ad0	0.010760024
98	0xbc4be499	-0.012444639
99	0xbbc2c014	-0.0059433077
100	0x3d3b1a39	0.045679305
101	0xbbb100aa	-0.0054016905
102	0x3dd85a6a	0.1056412
103	0xbd591256	-0.052996002
104	0x3d145da6	0.036222123
105	0xbd89ee7c	-0.067349404
106	0x3d249a14	0.040186003
107	0x3be536e9	0.006995071
108	0x3c639f95	0.013893028
109	0x3d419660	0.04726255
110	0x3df8c727	0.1214736
111	0x3dd6c585	0.104868926
112	0xbd432448	-0.047642022
113	0x3c282581	0.010262848
114	0xbc0f32f8	-0.008740179
115	0xbd187e7f	-0.03723001
116	0x3d3f0e9a	0.046644785
117	0xbb4889d1	-0.0030599723
118	0x3ca48cb6	0.020086627
119	0xbc947645	-0.018122802
120	0x3d8bfbea	0.06835158
121	0x3da2fc4e	0.079582796
122	0xbd848fd2	-0.06472744
123	0x3cc89a4c	0.024487637
124	0x3d10e490	0.035374224
125	0x3d8ffb2e	0.070303306
126	0xbdb6da3d	-0.089283444
127	0xbc69e9df	-0.014276951
128	0x3ceac31f	0.028657494
129	0x3d8a77d8	0.0676114
130	0x3c6fd228	0.0146375075
131	0xbd18d0ff	-0.03730869
132	0xbc0d2e1f	-0.008616953
133	0xbc87cac2	-0.016576175
134	0x3bb2ea1c	0.005460037
135	0xbbe27dcb	-0.0069119683
136	0x3da65f84	0.08123687
137	0xbd2c13e7	-0.042011168
138	0x391dffb4	0.00015067944
139	0xbdaadfe4	-0.08343485
140	0x3c46fa0c	0.012144577
141	0x3d1a0182	0.037599094
142	0xbd36816f	-0.04455703
143	0xbc43e1c5	-0.011955683
144	0xbcfed308	-0.031106487
145	0x3ce7d279	0.028298603
146	0xbb99c63a	-0.00469282
147	0xbb6837a5	-0.0035433557
148	0x3d1547a5	0.03644528
149	0xbd999a2f	-0.07500111
150	0xbc632341	-0.013863386
151	0x3d231545	0.039815206
152	0xbcdfc823	-0.027317112
153	0xbc1aa89b	-0.009439613
154	0x3d1f93bc	0.03895925
155	0xbcc55d4c	-0.024092339
156	0x3af9d26d	0.0019059904
157	0x3d29c0f9	0.0414438
158	0xbc22c408	-0.009934433
159	0xbc8b2279	-0.016984211
160	0xbd1285b8	-0.035772055
161	0xbcb71cf7	-0.022352679
162	0x3d504268	0.05084458
163	0xbd840772	-0.064467326
164	0xbd136552	-0.0359853
165	0x3d7878dc	0.060662135
166	0x3d8f57dc	0.0699918
167	0x3d9ca339	0.0764832
168	0x3aa38794	0.0012476319
169	0x3ce6534b	0.028115889
170	0x3e231e81	0.15929605
171	0x3d7a619e	0.06112825
172	0x3d306b2f	0.04307097
173	0xbc3bc9f1	-0.011461721
174	0xbb4ed062	-0.0031557311
175	0x3ce80aeb	0.028325519
176	0xbd042b27	-0.032267716
177	0x3d45e9b6	0.048318587
178	0x3dca494e	0.09877263
179	0x3c811f8f	0.015762119
180	0xbd2bf767	-0.041983988
181	0x3d893c4d	0.067009546
182	0x3c3a9e6b	0.011390309
183	0x3d392af7	0.04520699
184	0x3d8706b9	0.06593079
185	0x3d94a79c	0.072585315
186	0x3d8545b9	0.06507439
187	0xbc420e2c	-0.011844199
188	0xbd4d0f0d	-0.05006318
189	0xbc702a33	-0.014658499
190	0xbd57bd7e	-0.05267095
191	0xbcf3a4b8	-0.02974163
192	0xbcb2a793	-0.021808421
193	0xbd3c684c	-0.045997903
194	0xbc57f0a7	-0.013179935
195	0x3c3316fd	0.010930774
196	0xbd0298b8	-0.031883925
197	0x3d72ef12	0.059310026
198	0x3d81623c	0.06317565
199	0x3ddebb77	0.108756
200	0x3d4b31d4	0.049608067
201	0xbc6d7b0b	-0.014494668
202	0x3cfa5a19	0.03056054
203	0x3d53f147	0.051743772
204	0x3c42330a	0.011852989
205	0x3d9733b8	0.073829114
206	0x3c250db7	0.010074071
207	0xbcc04aa9	-0.0234731
208	0xbba2ef18	-0.00497235
209	0xbb0ee7c9	-0.0021805635
210	0xbcfa6e2a	-0.030570108
211	0xbcfd1995	-0.030895988
212	0xbceda572	-0.029009555
213	0xbd2a85f5	-0.041631658
214	0x3d2b02ce	0.04175072
215	0x3dadacf3	0.08480253
216	0xbd36ac7a	-0.04459808
217	0x3db6b8f4	0.08921996
218	0x3c8a3f87	0.016875995
219	0xbc86ce2b	-0.01645573
220	0xbd530525	-0.051518578
221	0x3cee1448	0.029062405
222	0xbd94c24c	-0.07263622
223	0x3d35ceb8	0.044386595
224	0xbcf993a7	-0.030465914
225	0xbbe1c194	-0.0068895314
226	0x3d1f55ce	0.03890019
227	0xbccee56e	-0.025255885
228	0x3e052a1a	0.13004342
229	0xbe0fd40b	-0.14045732
230	0xbc2ca85f	-0.01053819
231	0x3dd6de3c	0.104916066
232	0x3e08fd8c	0.1337797
233	0x3dd65237	0.104649
234	0xbcea6a85	-0.028615246
235	0xbcb9b729	-0.022670345
236	0x3ca23ab6	0.019803386
237	0xbd3e95fc	-0.046529755
238	0xbd916106	-0.07098584
239	0x3d065511	0.03279597
240	0x3d175135	0.03694268
241	0x3e000d8a	0.12505165
242	0x3d5bca9e	0.053660028
243	0xbcfd54d7	-0.030924244
244	0xbcfb777b	-0.030696621
245	0x3d19fa77	0.037592378
246	0x3db997ba	0.09062143
247	0x39ce3248	0.00039328844
248	0x3d5c6b7e	0.05381345
249	0xbc36d04b	-0.011158059
250	0x3d41fa7f	0.047358032
251	0x3dcf8fde	0.10134862
252	0x3bbea126	0.0058175502
253	0x3cc95390	0.024575979
254	0xbcec1bf0	-0.028821915
255	0xbd9967a8	-0.07490474

network_body._body_endoder.seq_layers.0.bias f4 [256]
0	0x00000000	0.0
1	0x00000000	0.0
2	0x00000000	0.0
3	0x00000000	0.0
4	0x00000000	0.0
5	0x00000000	0.0
6	0x00000000	0.0
7	0x00000000	0.0
8	0x00000000	0.0
9	0x00000000	0.0
10	0x00000000	0.0
11	0x00000000	0.0
12	0x00000000	0.0
13	0x00000000	0.0
14	0x00000000	0.0
15	0x00000000	0.0
16	0x00000000	0.0
17	0x00000000	0.0
18	0x00000000	0.0
19	0x00000000	0.0
20	0x00000000	0.0
21	0x00000000	0.0
22	0x00000000	0.0
23	0x00000000	0.0
24	0x00000000	0.0
25	0x00000000	0.0
26	0x00000000	0.0
27	0x00000000	0.0
28	0x00000000	0.0
29	0x00000000	0.0
30	0x00000000	0.0
31	0x00000000	0.0
32	0x00000000	0.0
33	0x00000000	0.0
34	0x00000000	0.0
35	0x00000000	0.0
36	0x00000000	0.0
37	0x00000000	0.0
38	0x00000000	0.0
39	0x00000000	0.0
40	0x00000000	0.0
41	0x00000000	0.0
42	0x00000000	0.0
43	0x00000000	0.0
44	0x00000000	0.0
45	0x00000000	0.0
46	0x00000000	0.0
47	0x00000000	0.0
48	0x00000000	0.0
49	0x00000000	0.0
50	0x00000000	0.0
51	0x00000000	0.0
52	0x00000000	0.0
53	0x00000000	0.0
54	0x00000000	0.0
55	0x00000000	0.0
56	0x00000000	0.0
57	0x00000000	0.0
58	0x00000000	0.0
59	0x00000000	0.0
60	0x00000000	0.0
61	0x00000000	0.0
62	0x00000000	0.0
63	0x00000000	0.0
64	0x00000000	0.0
65	0x00000000	0.0
66	0x00000000	0.0
67	0x00000000	0.0
68	0x00000000	0.0
69	0x00000000	0.0
70	0x00000000	0.0
71	0x00000000	0.0
72	0x00000000	0.0
73	0x00000000	0.0
74	0x00000000	0.0
75	0x00000000	0.0
76	0x00000000	0.0
77	0x00000000	0.0
78	0x00000000	0.0
79	0x00000000	0.0
80	0x00000000	0.0
81	0x00000000	0.0
82	0x00000000	0.0
83	0x00000000	0.0
84	0x00000000	0.0
85	0x00000000	0.0
86	0x00000000	0.0
87	0x00000000	0.0
88	0x00000000	0.0
89	0x00000000	0.0
90	0x00000000	0.0
91	0x00000000	0.0
92	0x00000000	0.0
93	0x00000000	0.0
94	0x00000000	0.0
95	0x00000000	0.0
96	0x00000000	0.0
97	0x00000000	0.0
98	0x00000000	0.0
99	0x00000000	0.0
100	0x00000000	0.0
101	0x00000000	0.0
102	0x00000000	0.0
103	0x00000000	0.0
104	0x00000000	0.0
105	0x00000000	0.0
106	0x00000000	0.0
107	0x00000000	0.0
108	0x00000000	0.0
109	0x00000000	0.0
110	0x00000000	0.0
111	0x00000000	0.0
112	0x00000000	0.0
113	0x00000000	0.0
114	0x00000000	0.0
115	0x00000000	0.0
116	0x00000000	0.0
117	0x00000000	0.0
118	0x00000000	0.0
119	0x00000000	0.0
120	0x00000000	0.0
121	0x00000000	0.0
122	0x00000000	0.0
123	0x00000000	0.0
124	0x00000000	0.0
125	0x00000000	0.0
126	0x00000000	0.0
127	0x00000000	0.0
128	0x00000000	0.0
129	0x00000000	0.0
130	0x00000000	0.0
131	0x00000000	0.0
132	0x00000000	0.0
133	0x00000000	0.0
134	0x00000000	0.0
135	0x00000000	0.0
136	0x00000000	0.0
137	0x00000000	0.0
138	0x00000000	0.0
139	0x00000000	0.0
140	0x00000000	0.0
141	0x00000000	0.0
142	0x00000000	0.0
143	0x00000000	0.0
144	0x00000000	0.0
145	0x00000000	0.0
146	0x00000000	0.0
147	0x00000000	0.0
148	0x00000000	0.0
149	0x00000000	0.0
150	0x00000000	0.0
151	0x00000000	0.0
152	0x00000000	0.0
153	0x00000000	0.0
154	0x00000000	0.0
155	0x00000000	0.0
156	0x00000000	0.0
157	0x00000000	0.0
158	0x00000000	0.0
159	0x00000000	0.0
160	0x00000000	0.0
161	0x00000000	0.0
162	0x00000000	0.0
163	0x00000000	0.0
164	0x00000000	0.0
165	0x00000000	0.0
166	0x00000000	0.0
167	0x00000000	0.0
168	0x00000000	0.0
169	0x00000000	0.0
170	0x00000000	0.0
171	0x00000000	0.0
172	0x00000000	0.0
173	0x00000000	0.0
174	0x00000000	0.0
175	0x00000000	0.0
176	0x00000000	0.0
177	0x00000000	0.0
178	0x00000000	0.0
179	0x00000000	0.0
180	0x00000000	0.0
181	0x00000000	0.0
182	0x00000000	0.0
183	0x00000000	0.0
184	0x00000000	0.0
185	0x00000000	0.0
186	0x00000000	0.0
187	0x00000000	0.0
188	0x00000000	0.0
189	0x00000000	0.0
190	0x00000000	0.0
191	0x00000000	0.0
192	0x00000000	0.0
193	0x00000000	0.0
194	0x00000000	0.0
195	0x00000000	0.0
196	0x00000000	0.0
197	0x00000000	0.0
198	0x00000000	0.0
199	0x00000000	0.0
200	0x00000000	0.0
201	0x00000000	0.0
202	0x00000000	0.0
203	0x00000000	0.0
204	0x00000000	0.0
205	0x00000000	0.0
206	0x00000000	0.0
207	0x00000000	0.0
208	0x00000000	0.0
209	0x00000000	0.0
210	0x00000000	0.0
211	0x00000000	0.0
212	0x00000000	0.0
213	0x00000000	0.0
214	0x00000000	0.0
215	0x00000000	0.0
216	0x00000000	0.0
217	0x00000000	0.0
218	0x00000000	0.0
219	0x00000000	0.0
220	0x00000000	0.0
221	0x00000000	0.0
222	0x00000000	0.0
223	0x00000000	0.0
224	0x00000000	0.0
225	0x00000000	0.0
226	0x00000000	0.0
227	0x00000000	0.0
228	0x00000000	0.0
229	0x00000000	0.0
230	0x00000000	0.0
231	0x00000000	0.0
232	0x00000000	0.0
233	0x00000000	0.0
234	0x00000000	0.0
235	0x00000000	0.0
236	0x00000000	0.0
237	0x00000000	0.0
238	0x00000000	0.0
239	0x00000000	0.0
240	0x00000000	0.0
241	0x00000000	0.0
242	0x00000000	0.0
243	0x00000000	0.0
244	0x00000000	0.0
245	0x00000000	0.0
246	0x00000000	0.0
247	0x00000000	0.0
248	0x00000000	0.0
249	0x00000000	0.0
250	0x00000000	0.0
251	0x00000000	0.0
252	0x00000000	0.0
253	0x00000000	0.0
254	0x00000000	0.0
255	0x00000000	0.0

network_body._body_endoder.seq_layers.2.weight f4 [256, 256]
0	0x3df8bd8c	0.12145528
1	0x3da57dba	0.08080621
2	0xbcd9c83e	-0.02658474
3	0xbc724597	-0.014787099
4	0xbd2e4846	-0.042549394
5	0xbd8995d9	-0.06718034
6	0x3d6244ad	0.055241276
7	0x3c718fbe	0.014743743
8	0x3c85f6e8	0.016353086
9	0xbe294ef5	-0.16534026
10	0xbbc6c1b3	-0.006065571
11	0x3b044162	0.0020180573
12	0xbccfd156	-0.025368374
13	0x3d9c3540	0.07627344
14	0xbc71cbea	-0.01475809
15	0x3c459443	0.012059274
16	0xbd6ff8ce	-0.058586888
17	0x3ba6f37e	0.0050949445
18	0xbd12654d	-0.03574114
19	0x3abfa53a	0.0014621385
20	0xbd930e5e	-0.07180475
21	0xbd1fb3f1	-0.038989965
22	0x3d40f1ad	0.04710548
23	0x3cd19f17	0.025588555
24	0xbd22feaa	-0.039793648
25	0xbd592cba	-0.05302117
26	0x3d4962ef	0.049166616
27	0x3d72e10b	0.05929665
28	0xbd0af5cc	-0.033925816
29	0x3deb26cb	0.114820085
30	0x3d792ab9	0.06083176
31	0xbb2379e3	-0.0024944476
32	0x3d3c53fa	0.045978524
33	0xbd28c86f	-0.041206773
34	0x3d1f1b80	0.038844585
35	0x3cd6671c	0.026172213
36	0x3d99c5cf	0.07508432
37	0xbdf922ab	-0.121648155
38	0x3c56d3a5	0.013111983
39	0x3c1773fb	0.0092439605
40	0x3dd22642	0.10261203
41	0xbd43ffbf	-0.04785132
42	0xbd9eacea	-0.077478245
43	0xbd84bf6c	-0.06481823
44	0x3db30291	0.08740724
45	0xbb33dd7e	-0.0027445252
46	0x3d772c42	0.060344942
47	0xbb00d155	-0.0019656022
48	0xbd3c98d4	-0.046044186
49	0x3c7885aa	0.015168587
50	0xbe1d5778	-0.15365398
51	0xbd2a30ad	-0.041550327
52	0xbdd1f8ae	-0.1025251
53	0xbdd80bd7	-0.10549133
54	0xbd3af379	-0.04564235
55	0x3e055022	0.1301885
56	0x3e0d7914	0.13815719
57	0x3de4616e	0.11151396
58	0x3acab7c8	0.0015466148
59	0x3cf9cb0c	0.030492328
60	0x3d755d02	0.059903152
61	0xbd00e2b9	-0.03146622
62	0xbd8e320f	-0.06943142
63	0xbd1c8fe8	-0.038223177
64	0x3c2f3311	0.0106933275
65	0x3c881b5e	0.016614612
66	0x3dad56b9	0.08463807
67	0xbd5b0463	-0.05347098
68	0xbdcd663f	-0.100292675
69	0xbd925181	-0.07144452
70	0xbc95218a	-0.01820447
71	0x3d098c13	0.03358085
72	0xbc81988a	-0.015819807
73	0x3e2c0fd4	0.16802913
74	0xbbcad1c9	-0.006189559
75	0x3cbab19a	0.022789765
76	0x3d2b1a8c	0.041773364
77	0x3d5b4c11	0.05353934
78	0xbd5085a2	-0.050908692
79	0xbd44897e	-0.047982685
80	0xbd5e3cd7	-0.05425724
81	0xbd496b85	-0.049174804
82	0x3da27f59	0.07934446
83	0x3dc44578	0.095835626
84	0xbd9a19eb	-0.07524475
85	0x3dc982fd	0.09839437
86	0x3c843c85	0.01614214
87	0xbd2eb2aa	-0.042650856
88	0xbdde643d	-0.10858963
89	0xbd9e58e8	-0.07731801
90	0xbd860822	-0.0654452
91	0xbc9e95ea	-0.019358594
92	0x3c67183c	0.014104899
93	0xbd3f2827	-0.04666915
94	0xbd87ff33	-0.06640472
95	0xbd9db68d	-0.077008344
96	0xbcbcc422	-0.023042742
97	0xbc138991	-0.009004966
98	0x3c7bb953	0.015364009
99	0xbd78a339	-0.060702536
100	0xbdc46c42	-0.09590961
101	0x3db36cc1	0.087609775
102	0x3cb2670a	0.021777648
103	0xbd8c8478	-0.06861204
104	0xbd32e6c4	-0.043677106
105	0x3b3d7acd	0.0028912306
106	0xbc3797cc	-0.011205625
107	0x3d38a4b3	0.045078944
108	0x3c2b95d5	0.010472734
109	0x3b800882	0.003907264
110	0x3b85bc15	0.004081259
111	0x3d75b434	0.05998631
112	0x3daf4995	0.085589565
113	0xbc358991	-0.011080162
114	0xbcfd5ab2	-0.030927036
115	0x3dad0526	0.084482476
116	0x3d1fba86	0.038996242
117	0xbd8849fd	-0.06654737
118	0x3b2c0b67	0.0026251914
119	0x3cb8c6cb	0.02255573
120	0x3dad5455	0.08463351
121	0x3d994fc7	0.074859194
122	0x3d834e05	0.064113654
123	0xbd9761d0	-0.07391703
124	0xbd8156de	-0.06315397
125	0x3daafe99	0.08349342
126	0x3c798f68	0.015231945
127	0xbd4e4393	-0.050357413
128	0x3cdab7b7	0.02669893
129	0xbad95100	-0.0016579926
130	0x3da93511	0.08262075
131	0x3c9f1e64	0.019423671
132	0x3c676ea3	0.014125499
133	0x3c6791b0	0.014133856
134	0xbd572bb4	-0.052531913
135	0xbdd4b985	-0.103869475
136	0xbc39beb6	-0.011336973
137	0xbcbe0576	-0.023195963
138	0x3dd5b9f6	0.1043586
139	0x3d22faa3	0.039789807
140	0xbd905922	-0.07048251
141	0xbd88c169	-0.06677515
142	0x3be7582f	0.007060073
143	0xbce6d5a4	-0.028178044
144	0x3e0a2ece	0.13494417
145	0xbd086bc5	-0.033305902
146	0xbc7c1f86	-0.015388375
147	0x3d1269ff	0.035745617
148	0x3b2ccd9b	0.0026367668
149	0xbcd172ca	-0.025567431
150	0xbd0562e1	-0.032565
151	0x3d2886b8	0.041144103
152	0xbda77366	-0.081763074
153	0xbda8644c	-0.08222255
154	0xbb701d87	-0.0036638693
155	0xbc379824	-0.011205707
156	0xbcf49c17	-0.029859586
157	0xbd2a17bf	-0.041526552
158	0xbbdb8563	-0.0066992505
159	0x3d00ab29	0.03141323
160	0x3d57b662	0.05266417
161	0x3c376e99	0.011195802
162	0x3d81d67d	0.063397385
163	0x39e065fe	0.000428006
164	0x3d3a4b3c	0.045481905
165	0xbcda3c13	-0.026639974
166	0x3cd9571d	0.026530797
167	0x3d744792	0.059638567
168	0x3de1b773	0.11021318
169	0xbda745a3	-0.08167579
170	0x3d1a9388	0.037738353
171	0xbd267d1b	-0.040646654
172	0xbda82597	-0.08210295
173	0xbd6ee142	-0.05832029
174	0xbd6acd21	-0.057324532
175	0xbd327cd0	-0.04357606
176	0xbe083629	-0.1330191
177	0xbd84ccdf	-0.064843886
178	0xbd85cfaf	-0.06533753
179	0xbdc45f49	-0.09588487
180	0xbd4e5252	-0.050371476
181	0x3be09bcc	0.00685451
182	0xbd44568e	-0.047934107
183	0xbda97d6f	-0.08275878
184	0x3c732c55	0.014842113
185	0x3d9df134	0.077120215
186	0x3da001ba	0.07812829
187	0x3dbac529	0.091196366
188	0xbc02b32e	-0.00797729
189	0xbd4e526d	-0.050371576
190	0x3d2a77f9	0.04161832
191	0xbe42e7fc	-0.19033808
192	0xbd118b99	-0.03553352
193	0x3cef3c1f	0.029203473
194	0x3c38288d	0.011240137
195	0xbc1a1839	-0.009405189
196	0xbd28b92e	-0.041192226
197	0xbccbdffc	-0.024887078
198	0xbd306d3c	-0.043072924
199	0xbbaa3c5e	-0.0051951846
200	0xbcd27d30	-0.02569446
201	0x3d6e3716	0.058158003
202	0x3c1941c0	0.009354055
203	0x3d222838	0.039589137
204	0x3ced7214	0.02898506
205	0xbd088a1c	-0.033334836
206	0x3dc3395e	0.09532426
207	0xbdd9a31c	-0.10626814
208	0xbdc09d20	-0.09404969
209	0xbd8c39c6	-0.06846957
210	0xbd12f7cf	-0.03588086
211	0x3c2b209d	0.010444787
212	0xbdbade51	-0.09124435
213	0x3c0e8325	0.0086982595
214	0xbd7c815c	-0.061646804
215	0xbc2554d3	-0.010091024
216	0x3b9f12e1	0.0048545455
217	0xbdb95ea3	-0.09051254
218	0x3d14ed7c	0.036359295
219	0xbce97374	-0.028497435
220	0x3d8635df	0.06553244
221	0xbd425538	-0.047444552
222	0xbd16c84e	-0.03681212
223	0x3cb77fa8	0.022399738
224	0x3d07c78f	0.0331493
225	0x3d885e13	0.06658568
226	0xbd3e53c9	-0.046466623
227	0xbdd515f2	-0.10404576
228	0x3e22513f	0.15851305
229	0x3df9af25	0.12191609
230	0x3d0dc3bf	0.034610506
231	0x3d671bde	0.05642306
232	0xbd861371	-0.06546677
233	0x3b9f2dc7	0.004857752
234	0xbd72787e	-0.05919694
235	0x3da45702	0.08024408
236	0xbdc3c0b8	-0.095582426
237	0xbc579f6e	-0.01316057
238	0x3cc2ed72	0.023794863
239	0x3d4dd44e	0.050251298
240	0xbd374d16	-0.04475125
241	0x3d38bd55	0.045102436
242	0xbd847762	-0.06468083
243	0xbd44be6a	-0.048033156
244	0x3db0b742	0.08628704
245	0x3d4b6082	0.049652584
246	0x3dd7f7e4	0.10545328
247	0xbd803414	-0.06259933
248	0xbd3c9091	-0.046036307
249	0x3c861fe9	0.016372638
250	0x3cf81302	0.030282501
251	0xbd5ba9de	-0.053628795
252	0x3de46ac7	0.11153179
253	0xbd42af37	-0.04753038
254	0xbc115b1e	-0.008871822
255	0x3d81246a	0.063057736

network_body._body_endoder.seq_layers.2.bias f4 [256]
0	0x00000000	0.0
1	0x00000000	0.0
2	0x00000000	0.0
3	0x00000000	0.0
4	0x00000000	0.0
5	0x00000000	0.0
6	0x00000000	0.0
7	0x00000000	0.0
8	0x00000000	0.0
9	0x00000000	0.0
10	0x00000000	0.0
11	0x00000000	0.0
12	0x00000000	0.0
13	0x00000000	0.0
14	0x00000000	0.0
15	0x00000000	0.0
16	0x00000000	0.0
17	0x00000000	0.0
18	0x00000000	0.0
19	0x00000000	0.0
20	0x00000000	0.0
21	0x00000000	0.0
22	0x00000000	0.0
23	0x00000000	0.0
24	0x00000000	0.0
25	0x00000000	0.0
26	0x00000000	0.0
27	0x00000000	0.0
28	0x00000000	0.0
29	0x00000000	0.0
30	0x00000000	0.0
31	0x00000000	0.0
32	0x00000000	0.0
33	0x00000000	0.0
34	0x00000000	0.0
35	0x00000000	0.0
36	0x00000000	0.0
37	0x00000000	0.0
38	0x00000000	0.0
39	0x00000000	0.0
40	0x00000000	0.0
41	0x00000000	0.0
42	0x00000000	0.0
43	0x00000000	0.0
44	0x00000000	0.0
45	0x00000000	0.0
46	0x00000000	0.0
47	0x00000000	0.0
48	0x00000000	0.0
49	0x00000000	0.0
50	0x00000000	0.0
51	0x00000000	0.0
52	0x00000000	0.0
53	0x00000000	0.0
54	0x00000000	0.0
55	0x00000000	0.0
56	0x00000000	0.0
57	0x00000000	0.0
58	0x00000000	0.0
59	0x00000000	0.0
60	0x00000000	0.0
61	0x00000000	0.0
62	0x00000000	0.0
63	0x00000000	0.0
64	0x00000000	0.0
65	0x00000000	0.0
66	0x00000000	0.0
67	0x00000000	0.0
68	0x00000000	0.0
69	0x00000000	0.0
70	0x00000000	0.0
71	0x00000000	0.0
72	0x00000000	0.0
73	0x00000000	0.0
74	0x00000000	0.0
75	0x00000000	0.0
76	0x00000000	0.0
77	0x00000000	0.0
78	0x00000000	0.0
79	0x00000000	0.0
80	0x00000000	0.0
81	0x00000000	0.0
82	0x00000000	0.0
83	0x00000000	0.0
84	0x00000000	0.0
85	0x00000000	0.0
86	0x00000000	0.0
87	0x00000000	0.0
88	0x00000000	0.0
89	0x00000000	0.0
90	0x00000000	0.0
91	0x00000000	0.0
92	0x00000000	0.0
93	0x00000000	0.0
94	0x00000000	0.0
95	0x00000000	0.0
96	0x00000000	0.0
97	0x00000000	0.0
98	0x00000000	0.0
99	0x00000000	0.0
100	0x00000000	0.0
101	0x00000000	0.0
102	0x00000000	0.0
103	0x00000000	0.0
104	0x00000000	0.0
105	0x00000000	0.0
106	0x00000000	0.0
107	0x00000000	0.0
108	0x00000000	0.0
109	0x00000000	0.0
110	0x00000000	0.0
111	0x00000000	0.0
112	0x00000000	0.0
113	0x00000000	0.0
114	0x00000000	0.0
115	0x00000000	0.0
116	0x00000000	0.0
117	0x00000000	0.0
118	0x00000000	0.0
119	0x00000000	0.0
120	0x00000000	0.0
121	0x00000000	0.0
122	0x00000000	0.0
123	0x00000000	0.0
124	0x00000000	0.0
125	0x00000000	0.0
126	0x00000000	0.0
127	0x00000000	0.0
128	0x00000000	0.0
129	0x00000000	0.0
130	0x00000000	0.0
131	0x00000000	0.0
132	0x00000000	0.0
133	0x00000000	0.0
134	0x00000000	0.0
135	0x00000000	0.0
136	0x00000000	0.0
137	0x00000000	0.0
138	0x00000000	0.0
139	0x00000000	0.0
140	0x00000000	0.0
141	0x00000000	0.0
142	0x00000000	0.0
143	0x00000000	0.0
144	0x00000000	0.0
145	0x00000000	0.0
146	0x00000000	0.0
147	0x00000000	0.0
148	0x00000000	0.0
149	0x00000000	0.0
150	0x00000000	0.0
151	0x00000000	0.0
152	0x00000000	0.0
153	0x00000000	0.0
154	0x00000000	0.0
155	0x00000000	0.0
156	0x00000000	0.0
157	0x00000000	0.0
158	0x00000000	0.0
159	0x00000000	0.0
160	0x00000000	0.0
161	0x00000000	0.0
162	0x00000000	0.0
163	0x00000000	0.0
164	0x00000000	0.0
165	0x00000000	0.0
166	0x00000000	0.0
167	0x00000000	0.0
168	0x00000000	0.0
169	0x00000000	0.0
170	0x00000000	0.0
171	0x00000000	0.0
172	0x00000000	0.0
173	0x00000000	0.0
174	0x00000000	0.0
175	0x00000000	0.0
176	0x00000000	0.0
177	0x00000000	0.0
178	0x00000000	0.0
179	0x00000000	0.0
180	0x00000000	0.0
181	0x00000000	0.0
182	0x00000000	0.0
183	0x00000000	0.0
184	0x00000000	0.0
185	0x00000000	0.0
186	0x00000000	0.0
187	0x00000000	0.0
188	0x00000000	0.0
189	0x00000000	0.0
190	0x00000000	0.0
191	0x00000000	0.0
192	0x00000000	0.0
193	0x00000000	0.0
194	0x00000000	0.0
195	0x00000000	0.0
196	0x00000000	0.0
197	0x00000000	0.0
198	0x00000000	0.0
199	0x00000000	0.0
200	0x00000000	0.0
201	0x00000000	0.0
202	0x00000000	0.0
203	0x00000000	0.0
204	0x00000000	0.0
205	0x00000000	0.0
206	0x00000000	0.0
207	0x00000000	0.0
208	0x00000000	0.0
209	0x00000000	0.0
210	0x00000000	0.0
211	0x00000000	0.0
212	0x00000000	0.0
213	0x00000000	0.0
214	0x00000000	0.0
215	0x00000000	0.0
216	0x00000000	0.0
217	0x00000000	0.0
218	0x00000000	0.0
219	0x00000000	0.0
220	0x00000000	0.0
221	0x00000000	0.0
222	0x00000000	0.0
223	0x00000000	0.0
224	0x00000000	0.0
225	0x00000000	0.0
226	0x00000000	0.0
227	0x00000000	0.0
228	0x00000000	0.0
229	0x00000000	0.0
230	0x00000000	0.0
231	0x00000000	0.0
232	0x00000000	0.0
233	0x00000000	0.0
234	0x00000000	0.0
235	0x00000000	0.0
236	0x00000000	0.0
237	0x00000000	0.0
238	0x00000000	0.0
239	0x00000000	0.0
240	0x00000000	0.0
241	0x00000000	0.0
242	0x00000000	0.0
243	0x00000000	0.0
244	0x00000000	0.0
245	0x00000000	0.0
246	0x00000000	0.0
247	0x00000000	0.0
248	0x00000000	0.0
249	0x00000000	0.0
250	0x00000000	0.0
251	0x00000000	0.0
252	0x00000000	0.0
253	0x00000000	0.0
254	0x00000000	0.0
255	0x00000000	0.0

network_body._body_endoder.seq_layers.4.weight f4 [256, 256]
0	0x3d841722	0.06449725
1	0x3bd93e19	0.006629717
2	0x3d4febc7	0.050761964
3	0xbdb0c964	-0.08632162
4	0xbd067cc7	-0.03283384
5	0x3cc716a6	0.024302792
6	0x3bbb4b00	0.005715728
7	0xbe050bee	-0.12992832
8	0x3dac9db5	0.08428518
9	0xbd2db3be	-0.042407744
10	0x3d8fdd18	0.07024592
11	0xbc640d51	-0.0139191905
12	0x3d8139df	0.06309866
13	0xbc27bc8b	-0.010237823
14	0xbc276e9f	-0.010219245
15	0xbd24a853	-0.04019959
16	0xbbb535b8	-0.0055300854
17	0xbc5ba2e2	-0.0134055335
18	0xbd95272d	-0.07282863
19	0xbcbac5a9	-0.02279933
20	0xbae00574	-0.0017091469
21	0x3d6d4303	0.057925235
22	0x3d5a8fd7	0.053359833
23	0x3c9f3df8	0.019438729
24	0x3db77c1f	0.08959221
25	0xbc924d34	-0.017859079
26	0x3d893375	0.06699268
27	0x3d766941	0.06015897
28	0x3d80f470	0.06296623
29	0xbcc6a50a	-0.024248619
30	0x3c39160c	0.01129676
31	0x3d53e52d	0.05173223
32	0x3bf964f7	0.007610913
33	0xbcbb8760	-0.0228917
34	0x3c8e61df	0.017380653
35	0xbd27c8fa	-0.04096315
36	0x3de5e659	0.11225576
37	0x3d25608a	0.04037527
38	0xbd91eebd	-0.07125614
39	0xbbf4fd3d	-0.0074764774
40	0x3c7d5c0d	0.015463841
41	0x3d11f13e	0.035630457
42	0x3bf60fb5	0.0075091966
43	0x3dbc2fd5	0.09188811
44	0xbd73d7fa	-0.059532143
45	0x3d8191a6	0.06326608
46	0x3be65e39	0.007030275
47	0x3da0c01f	0.07849144
48	0x3c3c0652	0.011476116
49	0x3c71d38d	0.01475991
50	0xbd1dd57f	-0.038533684
51	0xbd45db90	-0.048305094
52	0xbda95493	-0.082680844
53	0xbad6a552	-0.0016376174
54	0x3d0eb41e	0.034839742
55	0x3c7cc0d5	0.015426834
56	0x3d8ceaef	0.068807475
57	0xbd3c90e3	-0.046036612
58	0xbc4c8f5b	-0.0124853505
59	0xbcaaea9e	-0.020863827
60	0xbd3970bc	-0.045273528
61	0xbda7f347	-0.08200698
62	0xbccf52ea	-0.025308091
63	0xbd53e938	-0.051736087
64	0xbdb0d621	-0.08634592
65	0x3d3a5107	0.04548743
66	0x3db0ab75	0.08626453
67	0xbcd295c2	-0.025706176
68	0xbdaa25b5	-0.08307973
69	0x3d7bab18	0.061442465
70	0x3cac1392	0.021005426
71	0xbb62d87c	-0.0034613898
72	0xbd81a546	-0.063303515
73	0xbde1eb94	-0.11031261
74	0x3deeec23	0.11666133
75	0xbd33f764	-0.043937102
76	0x3d3e357a	0.046437718
77	0xbc81ddf0	-0.015852898
78	0x3d626cef	0.05527967
79	0x3c948543	0.01812995
80	0xbdaad878	-0.083420694
81	0xbcec5084	-0.028846987
82	0xbc27a53b	-0.010232265
83	0xbd297c54	-0.041378334
84	0x3d28bb23	0.041194092
85	0x3d1b3d5c	0.037900314
86	0xbd7f6725	-0.062354226
87	0xbcf55af3	-0.029950595
88	0xbc3a8cf3	-0.011386144
89	0xbd120889	-0.03565267
90	0x3dffebe7	0.12496167
91	0xbd3b82f5	-0.045779187
92	0xbd10f7cd	-0.03539257
93	0xbda03c3a	-0.07823987
94	0x3d8027c6	0.06257586
95	0x3cc4eb22	0.024037901
96	0x3d61d5c1	0.055135492
97	0xbd2b40d1	-0.04180986
98	0xbca3cd83	-0.019995457
99	0xbd2c6b67	-0.042094614
100	0x3ca36178	0.019943938
101	0x3cddfeb1	0.027098985
102	0x3d2f57f9	0.042808507
103	0x3d9ed4c7	0.07755428
104	0x3d17ecd1	0.03709108
105	0x3e37b47b	0.17939942
106	0xbd9b60df	-0.07586836
107	0xbc42a861	-0.011880965
108	0x3d5d34dc	0.05400549
109	0xbddbd64e	-0.10734235
110	0x3d7530b9	0.05986092
111	0xbd32448c	-0.043522403
112	0xbc3cabc4	-0.0115155615
113	0xbd4027ef	-0.046913084
114	0xbc77c7a5	-0.015123283
115	0xbb9abd1f	-0.004722252
116	0xbc7ebc43	-0.015547815
117	0x3d96cd68	0.07363397
118	0x3c115b94	0.008871932
119	0xbdae4d02	-0.08510782
120	0x3d1d6a04	0.038431183
121	0x39707f5f	0.00022935633
122	0x3d5409f7	0.051767316
123	0xb9584933	-0.00020626634
124	0xbca64636	-0.020297151
125	0xbdc0de43	-0.09417393
126	0x3d013bee	0.031551294
127	0xbd868953	-0.06569161
128	0x3cd723cc	0.026262186
129	0xbc15e801	-0.009149552
130	0xbd8ea666	-0.06965332
131	0x3de09f30	0.109678626
132	0x3c5dd2ef	0.01353906
133	0x3d0e00ae	0.034668617
134	0x3b6768a6	0.0035310178
135	0xbc3422f2	-0.01099466
136	0xbdaf5c31	-0.08562506
137	0xba01e3f8	-0.00049549295
138	0xbd2fc291	-0.042910162
139	0xbd0c1d80	-0.03420782
140	0x3c057ce0	0.008147448
141	0x3dc3f6af	0.095685355
142	0x3cec49a3	0.028843706
143	0xbdd3c4ab	-0.10340246
144	0x3c7dba91	0.015486375
145	0x3c3a7be2	0.011382075
146	0x3b7e0134	0.0038758041
147	0x3dec3e14	0.11535278
148	0xbbdb0721	-0.0066841994
149	0x3d79e962	0.061013587
150	0xbdab955f	-0.083781
151	0x3b8c8d72	0.0042893225
152	0x3de6cde4	0.11269739
153	0x3cda34fc	0.026636593
154	0xbcc5ee3f	-0.024161456
155	0x3d950c8d	0.072777845
156	0x3ccc757c	0.024958365
157	0x3c70ee29	0.014705219
158	0x3dc02bcb	0.09383353
159	0xbdbaf809	-0.0912934
160	0xbcaff029	-0.021476822
161	0xbd1b7b7f	-0.037959572
162	0xbd42ef7c	-0.04759167
163	0xbbadfd9a	-0.0053097727
164	0xbd409929	-0.047021065
165	0x3c34b8ac	0.011030357
166	0x3cd6f473	0.02623961
167	0x3b87fecc	0.004150247
168	0xbcd107a2	-0.025516335
169	0xbcc72a9b	-0.024312308
170	0x3da6c15f	0.08142351
171	0x3c82534c	0.01590886
172	0x3d3c3c93	0.045956206
173	0xbded7f37	-0.1159653
174	0xbd7dfa1d	-0.062006105
175	0xbcb0c4fc	-0.021578304
176	0x3c21fd6e	0.0098870825
177	0x3c58ef3d	0.013240633
178	0xbdee425a	-0.11633749
179	0xbdb68090	-0.0891124
180	0xbd97fc29	-0.074211426
181	0xbc6bb7f6	-0.014387121
182	0x3da04a73	0.078267
183	0xbd3b8348	-0.045779496
184	0xbcdf6904	-0.027271755
185	0xbc5e9753	-0.013585883
186	0x3d92c4f8	0.07166475
187	0xbd1438d0	-0.036186993
188	0x3c983284	0.018578775
189	0xbc7ae8ad	-0.015314263
190	0x3d4df687	0.050283935
191	0x3da378c0	0.079820156
192	0x3c7c622c	0.015404265
193	0xbc706117	-0.0146715855
194	0x3c530cd9	0.012881481
195	0x3c2c2714	0.010507364
196	0xbd7a48a1	-0.06110442
197	0x3af6bc45	0.0018824419
198	0xbd89a45f	-0.067208044
199	0xbc1cb2a5	-0.009564077
200	0xbc83afc5	-0.016075024
201	0x3d78474a	0.06061486
202	0xbc8c9db9	-0.017165052
203	0x3da3581e	0.079757914
204	0xbde0fa3a	-0.10985227
205	0x3c878e22	0.016547266
206	0x3c80defb	0.015731325
207	0xbe118b19	-0.14213218
208	0x3cc1a864	0.023639865
209	0xbd8dea05	-0.06929401
210	0x3d40628b	0.046968978
211	0xbc0c5bfc	-0.008566853
212	0x3cbd55f6	0.023112278
213	0x3c7d8a88	0.015474923
214	0x3d95a2c0	0.07306433
215	0x3d1312c6	0.035906576
216	0x3ab9afdc	0.001416679
217	0x3b4fcdf6	0.0031708456
218	0xbceb5bb5	-0.028730253
219	0xbdb1123f	-0.08646058
220	0xbe2487e8	-0.16067469
221	0x3d46042d	0.048343826
222	0xbbe97cdc	-0.00712548
223	0xbd77c7eb	-0.06049339
224	0xbbbb6943	-0.0057193353
225	0x3cc8dd47	0.024519576
226	0xbd2251fb	-0.039628964
227	0xbd86923f	-0.06570863
228	0x3bd485d3	0.0064856797
229	0x3caea58e	0.021319177
230	0xbd80ac0e	-0.06282817
231	0x3d812415	0.0630571
232	0xbda339b2	-0.07969989
233	0x3d1be886	0.03806355
234	0xbc5ecb79	-0.013598316
235	0xbc0dcb37	-0.008654407
236	0x3d921233	0.071323775
237	0xbc85e678	-0.016345248
238	0x3d145a5f	0.036218997
239	0x3d9a5669	0.07536013
240	0xbd4fc1fe	-0.050722115
241	0xbb1694d6	-0.0022976897
242	0xbcdbde38	-0.02683936
243	0xbe15ef83	-0.14642148
244	0x3e0588f9	0.13040532
245	0xbe2f0932	-0.17093351
246	0xbc70ff18	-0.014709257
247	0x3dabe071	0.08392418
248	0x3d08c77e	0.033393376
249	0x3d5e5323	0.054278504
250	0x3d8bef27	0.06832724
251	0xbd629972	-0.055322118
252	0x3d647545	0.0557759
253	0x3d4d2ccf	0.05009156
254	0xbe08a484	-0.13344008
255	0xbb3b5c85	-0.0028589081

network_body._body_endoder.seq_layers.4.bias f4 [256]
0	0x00000000	0.0
1	0x00000000	0.0
2	0x00000000	0.0
3	0x00000000	0.0
4	0x00000000	0.0
5	0x00000000	0.0
6	0x00000000	0.0
7	0x00000000	0.0
8	0x00000000	0.0
9	0x00000000	0.0
10	0x00000000	0.0
11	0x00000000	0.0
12	0x00000000	0.0
13	0x00000000	0.0
14	0x00000000	0.0
15	0x00000000	0.0
16	0x00000000	0.0
17	0x00000000	0.0
18	0x00000000	0.0
19	0x00000000	0.0
20	0x00000000	0.0
21	0x00000000	0.0
22	0x00000000	0.0
23	0x00000000	0.0
24	0x00000000	0.0
25	0x00000000	0.0
26	0x00000000	0.0
27	0x00000000	0.0
28	0x00000000	0.0
29	0x00000000	0.0
30	0x00000000	0.0
31	0x00000000	0.0
32	0x00000000	0.0
33	0x00000000	0.0
34	0x00000000	0.0
35	0x00000000	0.0
36	0x00000000	0.0
37	0x00000000	0.0
38	0x00000000	0.0
39	0x00000000	0.0
40	0x00000000	0.0
41	0x00000000	0.0
42	0x00000000	0.0
43	0x00000000	0.0
44	0x00000000	0.0
45	0x00000000	0.0
46	0x00000000	0.0
47	0x00000000	0.0
48	0x00000000	0.0
49	0x00000000	0.0
50	0x00000000	0.0
51	0x00000000	0.0
52	0x00000000	0.0
53	0x00000000	0.0
54	0x00000000	0.0
55	0x00000000	0.0
56	0x00000000	0.0
57	0x00000000	0.0
58	0x00000000	0.0
59	0x00000000	0.0
60	0x00000000	0.0
61	0x00000000	0.0
62	0x00000000	0.0
63	0x00000000	0.0
64	0x00000000	0.0
65	0x00000000	0.0
66	0x00000000	0.0
67	0x00000000	0.0
68	0x00000000	0.0
69	0x00000000	0.0
70	0x00000000	0.0
71	0x00000000	0.0
72	0x00000000	0.0
73	0x00000000	0.0
74	0x00000000	0.0
75	0x00000000	0.0
76	0x00000000	0.0
77	0x00000000	0.0
78	0x00000000	0.0
79	0x00000000	0.0
80	0x00000000	0.0
81	0x00000000	0.0
82	0x00000000	0.0
83	0x00000000	0.0
84	0x00000000	0.0
85	0x00000000	0.0
86	0x00000000	0.0
87	0x00000000	0.0
88	0x00000000	0.0
89	0x00000000	0.0
90	0x00000000	0.0
91	0x00000000	0.0
92	0x00000000	0.0
93	0x00000000	0.0
94	0x00000000	0.0
95	0x00000000	0.0
96	0x00000000	0.0
97	0x00000000	0.0
98	0x00000000	0.0
99	0x00000000	0.0
100	0x00000000	0.0
101	0x00000000	0.0
102	0x00000000	0.0
103	0x00000000	0.0
104	0x00000000	0.0
105	0x00000000	0.0
106	0x00000000	0.0
107	0x00000000	0.0
108	0x00000000	0.0
109	0x00000000	0.0
110	0x00000000	0.0
111	0x00000000	0.0
112	0x00000000	0.0
113	0x00000000	0.0
114	0x00000000	0.0
115	0x00000000	0.0
116	0x00000000	0.0
117	0x00000000	0.0
118	0x00000000	0.0
119	0x00000000	0.0
120	0x00000000	0.0
121	0x00000000	0.0
122	0x00000000	0.0
123	0x00000000	0.0
124	0x00000000	0.0
125	0x00000000	0.0
126	0x00000000	0.0
127	0x00000000	0.0
128	0x00000000	0.0
129	0x00000000	0.0
130	0x00000000	0.0
131	0x00000000	0.0
132	0x00000000	0.0
133	0x00000000	0.0
134	0x00000000	0.0
135	0x00000000	0.0
136	0x00000000	0.0
137	0x00000000	0.0
138	0x00000000	0.0
139	0x00000000	0.0
140	0x00000000	0.0
141	0x00000000	0.0
142	0x00000000	0.0
143	0x00000000	0.0
144	0x00000000	0.0
145	0x00000000	0.0
146	0x00000000	0.0
147	0x00000000	0.0
148	0x00000000	0.0
149	0x00000000	0.0
150	0x00000000	0.0
151	0x00000000	0.0
152	0x00000000	0.0
153	0x00000000	0.0
154	0x00000000	0.0
155	0x00000000	0.0
156	0x00000000	0.0
157	0x00000000	0.0
158	0x00000000	0.0
159	0x00000000	0.0
160	0x00000000	0.0
161	0x00000000	0.0
162	0x00000000	0.0
163	0x00000000	0.0
164	0x00000000	0.0
165	0x00000000	0.0
166	0x00000000	0.0
167	0x00000000	0.0
168	0x00000000	0.0
169	0x00000000	0.0
170	0x00000000	0.0
171	0x00000000	0.0
172	0x00000000	0.0
173	0x00000000	0.0
174	0x00000000	0.0
175	0x00000000	0.0
176	0x00000000	0.0
177	0x00000000	0.0
178	0x00000000	0.0
179	0x00000000	0.0
180	0x00000000	0.0
181	0x00000000	0.0
182	0x00000000	0.0
183	0x00000000	0.0
184	0x00000000	0.0
185	0x00000000	0.0
186	0x00000000	0.0
187	0x00000000	0.0
188	0x00000000	0.0
189	0x00000000	0.0
190	0x00000000	0.0
191	0x00000000	0.0
192	0x00000000	0.0
193	0x00000000	0.0
194	0x00000000	0.0
195	0x00000000	0.0
196	0x00000000	0.0
197	0x00000000	0.0
198	0x00000000	0.0
199	0x00000000	0.0
200	0x00000000	0.0
201	0x00000000	0.0
202	0x00000000	0.0
203	0x00000000	0.0
204	0x00000000	0.0
205	0x00000000	0.0
206	0x00000000	0.0
207	0x00000000	0.0
208	0x00000000	0.0
209	0x00000000	0.0
210	0x00000000	0.0
211	0x00000000	0.0
212	0x00000000	0.0
213	0x00000000	0.0
214	0x00000000	0.0
215	0x00000000	0.0
216	0x00000000	0.0
217	0x00000000	0.0
218	0x00000000	0.0
219	0x00000000	0.0
220	0x00000000	0.0
221	0x00000000	0.0
222	0x00000000	0.0
223	0x00000000	0.0
224	0x00000000	0.0
225	0x00000000	0.0
226	0x00000000	0.0
227	0x00000000	0.0
228	0x00000000	0.0
229	0x00000000	0.0
230	0x00000000	0.0
231	0x00000000	0.0
232	0x00000000	0.0
233	0x00000000	0.0
234	0x00000000	0.0
235	0x00000000	0.0
236	0x00000000	0.0
237	0x00000000	0.0
238	0x00000000	0.0
239	0x00000000	0.0
240	0x00000000	0.0
241	0x00000000	0.0
242	0x00000000	0.0
243	0x00000000	0.0
244	0x00000000	0.0
245	0x00000000	0.0
246	0x00000000	0.0
247	0x00000000	0.0
248	0x00000000	0.0
249	0x00000000	0.0
250	0x00000000	0.0
251	0x00000000	0.0
252	0x00000000	0.0
253	0x00000000	0.0
254	0x00000000	0.0
255	0x00000000	0.0

action_model._discrete_distribution.branches.0.weight f4 [3, 256]
0	0x3c2baff4	0.010478962
1	0x3a025524	0.00049717934
2	0x3ba1e7d3	0.0049409657
3	0xbc2b3502	-0.01044965
4	0x3aab6b4e	0.0013078244
5	0xbb4ecd4a	-0.0031555467
6	0x3b8b6d6c	0.0042549875
7	0xbb6bd86d	-0.0035987154
8	0xbb0af266	-0.002120161
9	0xbb877e81	-0.0041349535
10	0xba504070	-0.0007944172
11	0xbb630f32	-0.0034646508
12	0xbba3965f	-0.004992291
13	0x3c288a01	0.010286809
14	0xbb044635	-0.0020183448
15	0xbb912a88	-0.004430119
16	0xbb9fff36	-0.0048827184
17	0xbbf3710b	-0.0074292473
18	0xbbddbcb8	-0.006766882
19	0x398afc53	0.00026509407
20	0xbc098c68	-0.008395292
21	0x3beee030	0.007289909
22	0xbc2f1680	-0.010686517
23	0xbc187f6c	-0.0093077235
24	0xba953bc2	-0.0011385607
25	0x3a9c4c18	0.0011924533
26	0xbbb8fda9	-0.005645473
27	0xbc1674a8	-0.009183086
28	0xbb8ee847	-0.0043611857
29	0x3b94f0b6	0.0045452965
30	0xbc032c9f	-0.008006244
31	0x3b9a560e	0.0047099655
32	0xba90d04a	-0.0011048403
33	0xbc257cf8	-0.010100596
34	0x3b9d59de	0.004801973
35	0xbb4f1fc7	-0.0031604634
36	0x3b8effe3	0.004364
37	0x3b03ed53	0.002013047
38	0x3ad3e22a	0.0016165425
39	0xbbc5e497	-0.006039213
40	0xba27e3e9	-0.00064045057
41	0x3a9078f5	0.0011022376
42	0xbb0de667	-0.0021652223
43	0x3c46c1cb	0.012131165
44	0xbb0db02c	-0.00216199
45	0x3b5f5ee5	0.003408366
46	0xbb6d41b0	-0.0036202483
47	0x3bf50abf	0.0074780877
48	0xbb998f4b	-0.0046862713
49	0x3a118e06	0.0005552474
50	0xbc1019bd	-0.008795199
51	0x3b8505fe	0.004059552
52	0x3baa8126	0.005203384
53	0xbc2a4b5b	-0.010393943
54	0x3b7d36fd	0.0038637512
55	0xbb40eb3a	-0.002943708
56	0x3c31264f	0.010812356
57	0x3bb1f656	0.005430977
58	0xbbe340ad	-0.0069352
59	0xbb205527	-0.0024464817
60	0xbb6a239b	-0.003572679
61	0xbbc4d9ea	-0.0060074227
62	0xbc23245b	-0.009957398
63	0x3b0bbc3c	0.0021321913
64	0xbbf3ae52	-0.007436552
65	0xbbdfdc6f	-0.0068316977
66	0xbb0a3672	-0.002108958
67	0xbc3e51bd	-0.011616168
68	0x3b683683	0.0035432882
69	0xbaa8bd0f	-0.0012873727
70	0xbb53eec8	-0.003233837
71	0x3b94313b	0.0045224703
72	0xbbd7efe5	-0.006589877
73	0x3b159f3b	0.0022830504
74	0x3b90eecd	0.0044229985
75	0x3b80e9c8	0.003934119
76	0xbbb80eac	-0.0056169834
77	0xbbed67fd	-0.0072450624
78	0x390ad64d	0.00013240539
79	0x3a6d2c58	0.000904744
80	0x3c0dcef3	0.008655298
81	0x3bdc52e5	0.006723749
82	0x3ba0c6ce	0.004906512
83	0xbb8d7313	-0.0043166964
84	0xb9cd76cb	-0.00039189155
85	0x3bfd80b2	0.007736289
86	0x3ae13347	0.001718142
87	0x3b8c3d51	0.0042797704
88	0xbbbf90f6	-0.005846138
89	0x3c110258	0.008850656
90	0x3b8cd7fd	0.0042982087
91	0x3b4cd3da	0.0031254203
92	0xbc127940	-0.008940041
93	0xbb1b6be7	-0.0023715438
94	0x3bce64a5	0.006298619
95	0xbbb407f6	-0.005494113
96	0x39dfe807	0.00042706748
97	0x3b8b67be	0.0042543104
98	0x3b0f55d5	0.0021871228
99	0xbb831d8b	-0.0040013245
100	0x3bb9e7e2	0.0056733945
101	0xbbcf12d3	-0.0063193827
102	0x3b03761f	0.002005942
103	0xbbd15df7	-0.0063893753
104	0xbbe4a147	-0.0069772336
105	0xbadc105a	-0.0016789541
106	0xba00f563	-0.0004919378
107	0xb960dc93	-0.00021444475
108	0xbb9e6e62	-0.004834936
109	0x3c0cc177	0.0085910475
110	0x39f56b6d	0.0004681008
111	0xbb60b922	-0.0034290035
112	0x3c21c6a3	0.009874019
113	0xbb07c566	-0.0020717024
114	0xbbe3ee98	-0.006955933
115	0xbb27f0fd	-0.0025625818
116	0x3b82aa53	0.0039875894
117	0x3b3ec92b	0.0029111605
118	0x3b5ae35d	0.003339968
119	0x398d4f3d	0.00026952653
120	0xbbb43e83	-0.005500616
121	0x3bcd008a	0.006256168
122	0x3b90b340	0.0044158995
123	0xbc2d8426	-0.010590589
124	0xbc28033b	-0.010254676
125	0x3b594d28	0.003315756
126	0xbb9cbd40	-0.0047833025
127	0xbb23a29d	-0.0024968751
128	0xb945a373	-0.00018848274
129	0xba62aa3a	-0.00086465816
130	0x3bbb1f77	0.005710538
131	0xbc214e7d	-0.009845373
132	0xbb88d8d1	-0.004176237
133	0x3bbaa2cb	0.005695676
134	0xbc289aae	-0.010290785
135	0x3b935b0b	0.004496937
136	0x3a71f080	0.00092292577
137	0xba5c9d7d	-0.00084158016
138	0x3bea3da3	0.007148461
139	0x3b961ac9	0.0045808298
140	0xbba2678b	-0.004956191
141	0x3c25e9d1	0.010126547
142	0x3baddbf9	0.005305764
143	0xbbbea5ff	-0.005818128
144	0xbc108604	-0.008821014
145	0x3bd14205	0.006386044
146	0x3b95c3af	0.0045704464
147	0x3b85f89f	0.004088476
148	0x3b806837	0.0039186734
149	0xbc3c1e7b	-0.0114818765
150	0x3bd08eb2	0.006364667
151	0xbb44ef7a	-0.0030049966
152	0x3b4b1369	0.003098691
153	0x3a9709e6	0.0011523336
154	0xbbc1c04a	-0.005912815
155	0xbb51d903	-0.0032020218
156	0x3b82e191	0.003994175
157	0xbb9f8c36	-0.0048690094
158	0xbb8d23ab	-0.0043072305
159	0xbbbaf019	-0.0057048914
160	0xbafb57cd	-0.0019175947
161	0xbb1040d6	-0.0022011301
162	0xbb91dcd7	-0.004451375
163	0x38374b6c	4.3700842e-05
164	0xb8292bcf	-4.033354e-05
165	0xbb53775b	-0.0032267186
166	0xba4afe82	-0.0007743613
167	0x3b8bce2d	0.0042665214
168	0xbacc6cfb	-0.0015596444
169	0xbaac65e9	-0.001315293
170	0xbc514b75	-0.012774338
171	0xbb909e44	-0.004413398
172	0xbb134a2d	-0.0022474632
173	0x3c453c51	0.012038306
174	0xbc404436	-0.011735013
175	0xbbeb8040	-0.0071869195
176	0xbc3be286	-0.011467582
177	0x3b0626cf	0.002046991
178	0xbbc1e6e3	-0.0059174164
179	0x3bfab885	0.007651391
180	0x3b3b94ec	0.00286227
181	0xbbeb52a7	-0.007181484
182	0x3b382aef	0.0028101762
183	0x3c352e66	0.0110584255
184	0x3c03a267	0.008034325
185	0xb9096e37	-0.00013106396
186	0xbbc84bd2	-0.006112554
187	0xbc0934ab	-0.008374373
188	0x3b185c1c	0.002324826
189	0x3bbecf33	0.00582304
190	0x3b8228bf	0.0039721425
191	0x3bb904a7	0.0056463066
192	0x3b4b6aa0	0.0031038895
193	0xbaee83c0	-0.0018197224
194	0xbbaeaeae	-0.005330882
195	0x3bc6b7b2	0.0060643787
196	0x3adeb15a	0.0016990111
197	0xbbc6bbc3	-0.0060648634
198	0x3c304acb	0.0107600195
199	0xbbb920e6	-0.0056496738
200	0xbb828ffe	-0.0039844504
201	0x3c6634a3	0.0140506355
202	0x3c08b240	0.008343279
203	0x39dbc563	0.00041918
204	0xbaa1d9e3	-0.001234826
205	0x3c6e48eb	0.014543752
206	0xbb3051d8	-0.0026904251
207	0xbb515acd	-0.003194499
208	0x3ad33a53	0.0016115404
209	0x3b08dd0a	0.0020883703
210	0x3b9167c3	0.004437418
211	0x39917e84	0.00027750817
212	0x3a992a27	0.0011685536
213	0xbaaf5f78	-0.0013379892
214	0xbc27bac3	-0.010237399
215	0xbb64fa18	-0.0034939107
216	0xbbb01bd2	-0.00537441
217	0x3b724460	0.0036967024
218	0x3bc70293	0.006073305
219	0xbbc3d861	-0.005976722
220	0xb7c5b033	-2.356628e-05
221	0xbc2eda2a	-0.010672132
222	0x3b0dab9c	0.002161718
223	0x3bcb971f	0.0062130834
224	0x3c130c25	0.008975063
225	0xbb8fbed6	-0.004386763
226	0xbadcd007	-0.0016846665
227	0x3bcc2f2f	0.0062312107
228	0x3b8a4833	0.0042200326
229	0x3c0b8574	0.008515704
230	0xbafc8a70	-0.0019267332
231	0x3b71a40f	0.0036871468
232	0xbc2c9d7d	-0.010535595
233	0x3b0dc792	0.0021633846
234	0xbb6531c5	-0.0034972292
235	0x3b8a31f8	0.0042173825
236	0x3b12450f	0.0022318994
237	0x3c0fef6a	0.008785108
238	0x3c8113e3	0.015756553
239	0xbb730f8a	-0.003708812
240	0xba87b9a4	-0.0010355008
241	0x3bf56f3b	0.0074900663
242	0xbbd772dd	-0.006574972
243	0x3b8b4caf	0.0042510848
244	0xbb7d89fa	-0.0038686977
245	0xbaa769ac	-0.0012772582
246	0x3882f223	6.2439845e-05
247	0x38bce941	9.0079855e-05
248	0x3c3e4b02	0.011614563
249	0xbbc4d824	-0.0060072113
250	0x3a7a7a62	0.00095549796
251	0xbb6f3962	-0.0036502709
252	0xbb10f66b	-0.0022119533
253	0xbb06c330	-0.0020563118
254	0x3b1cf46d	0.00239494
255	0x3bc1d8db	0.0059157438

action_model._discrete_distribution.branches.0.bias f4 [3]
0	0x00000000	0.0
1	0x00000000	0.0
2	0x00000000	0.0

action_model._discrete_distribution.branches.1.weight f4 [3, 256]
0	0x3b04273e	0.0020164992
1	0x3bb498b3	0.005511367
2	0xbb68b1ca	-0.003550636
3	0xbb001791	-0.0019545297
4	0xbbab0f81	-0.005220354
5	0xba9703f5	-0.0011521565
6	0xbb16649c	-0.0022948151
7	0x3bcd29ff	0.00626111
8	0x3b968b9c	0.0045942795
9	0xbbf02d7a	-0.00732964
10	0x3c5a3bf7	0.013319961
11	0xbbac8b1c	-0.0052656066
12	0xb82f20ae	-4.1753687e-05
13	0x3be290b0	0.0069142208
14	0xba068d34	-0.0005132735
15	0xbb1f8993	-0.0024343475
16	0x3bb61342	0.005556495
17	0x3b2114e1	0.0024579095
18	0xbb48fe50	-0.003066916
19	0x3ba242ad	0.004951796
20	0xbc5350d8	-0.012897693
21	0xbbffb6f7	-0.0078037935
22	0xbabbce72	-0.0014328493
23	0x3b6986ed	0.00356334
24	0x3be90bcb	0.0071120015
25	0x3be9631b	0.00712241
26	0x3ba186a6	0.0049293814
27	0x3c1bc6da	0.009507859
28	0xbb0efae6	-0.0021817028
29	0xb9d0df1d	-0.00039839084
30	0x3c116532	0.0088742245
31	0xbbbcafa8	-0.0057582445
32	0xbbae95c0	-0.00532791
33	0x39178d7e	0.00014453192
34	0xbbc6b00a	-0.006063466
35	0xbb099aee	-0.0020996886
36	0xbac81490	-0.0015264917
37	0xbc14bc28	-0.009078063
38	0xba9ee7bc	-0.0012123506
39	0xbc5298ed	-0.012853843
40	0xbb966f89	-0.0045909327
41	0x3b0928b1	0.0020928795
42	0xbbebb2b2	-0.007192933
43	0x3be08ec5	0.006852957
44	0xbaf4ef63	-0.0018687065
45	0xbc7ae99f	-0.015314489
46	0x3ae57578	0.0017506322
47	0x3b310d0d	0.0027015836
48	0xbbbf9b47	-0.005847368
49	0x3c1114d3	0.008855063
50	0xbc2e9b27	-0.010657108
51	0x3c177871	0.009245024
52	0x3bae5017	0.005319606
53	0x3b6e9d9a	0.0036409856
54	0xbc12d314	-0.008961458
55	0x3b0e55f0	0.0021718703
56	0xbb2b2ea3	-0.0026120327
57	0xbbd4dfc3	-0.006496401
58	0x3c392380	0.011299968
59	0x3c06d9e3	0.008230659
60	0x3b92f9e3	0.004485355
61	0xbaf27780	-0.0018498749
62	0xbb8109f8	-0.003937956
63	0xb8ee6d67	-0.00011369102
64	0xbbb4eb1e	-0.005521192
65	0x3b94efa7	0.0045451703
66	0x37cdbcff	2.4525913e-05
67	0xbb9af10f	-0.0047284435
68	0xbbe8de28	-0.007106561
69	0xbb4887d3	-0.0030598536
70	0xbb4574cc	-0.003012943
71	0x3bd3ddf5	0.0064656683
72	0x3a92a729	0.0011188734
73	0xbc3ee38b	-0.01165093
74	0xba037af7	-0.00050155766
75	0xbbcaab5c	-0.0061849784
76	0xbc49d088	-0.012317784
77	0xbb6e0e92	-0.0036324603
78	0xbb9c99fd	-0.004779099
79	0xbc0f6b1f	-0.008753567
80	0xbbc30ed4	-0.0059526954
81	0xbb282b1b	-0.0025660458
82	0xbb4dceeb	-0.003140385
83	0xbb9209db	-0.0044567413
84	0xb8ea4fe2	-0.00011172869
85	0x3be3299a	0.0069324495
86	0xbb91a67f	-0.0044448967
87	0x3c51d4f3	0.012807119
88	0xbb12967c	-0.0022367528
89	0x3ad32fcf	0.001611227
90	0xb8b003f9	-8.393074e-05
91	0xbb184e3c	-0.002323999
92	0x3b1f3273	0.0024291545
93	0x3b08091f	0.002075739
94	0x3b22cdc8	0.0024841893
95	0x3b118b10	0.0022208132
96	0x3a9be30f	0.001189323
97	0xb94b9fe7	-0.00019419157
98	0x3ae863dd	0.0017729957
99	0xbb1abf2e	-0.0023612487
100	0xbad95687	-0.0016581573
101	0xba99420b	-0.0011692656
102	0x39ad6725	0.0003307398
103	0x3b19ab40	0.002344802
104	0xbac01983	-0.0014656041
105	0xbc1bc22c	-0.009506743
106	0x3b8822a8	0.004154522
107	0x3c373c43	0.011183801
108	0x3c0c867a	0.008576984
109	0x3c3d69aa	0.011560837
110	0x3c04cdf8	0.008105747
111	0xbc23f3d2	-0.010006862
112	0xbbb4bcd6	-0.005515675
113	0xbc118997	-0.008882902
114	0xba8c7e77	-0.0010718842
115	0x3b527508	0.0032113213
116	0x3b8fe384	0.0043911356
117	0x3aea4b45	0.0017875215
118	0x39b5724e	0.00034608174
119	0xbc2616a9	-0.010137239
120	0xbb0b34e6	-0.0021241247
121	0xbad4a828	-0.0016224431
122	0xbbf3a873	-0.007435852
123	0xbbb03194	-0.005377004
124	0x3b47f19e	0.0030509005
125	0xbad0ab25	-0.0015920146
126	0x3b234a1f	0.0024916006
127	0x3b9a1ba3	0.0047030016
128	0xbb653715	-0.0034975458
129	0x3c3d49b4	0.011553217
130	0xbbd4eaa8	-0.0064977
131	0x3b8104ec	0.0039373543
132	0xbb523170	-0.0032072924
133	0x3b7536ca	0.003741669
134	0x3b69a9b3	0.0035654127
135	0xbc5ed6b8	-0.013600998
136	0x3bc8c889	0.0061274213
137	0x3bf1b7a3	0.0073766275
138	0xbb7c08e0	-0.0038457438
139	0xbbc52dea	-0.0060174363
140	0x3bc32bec	0.0059561636
141	0xbbab342f	-0.0052247266
142	0x3bfefc05	0.007781508
143	0x3afb2c6a	0.0019163017
144	0xbbd10cca	-0.0063796984
145	0x3b883c7b	0.0041576005
146	0x3b883f9d	0.004157974
147	0xb999e823	-0.0002935539
148	0x39c8d1f1	0.0003830339
149	0xbb2573ff	-0.002524614
150	0xbb261fc2	-0.002534852
151	0xbb05046c	-0.0020296825
152	0x3955960a	0.00020369157
153	0x3b6bc468	0.0035975222
154	0x3bd62335	0.0065349587
155	0xbb9c92cb	-0.0047782413
156	0xbc467157	-0.012111983
157	0x3bc136c7	0.0058964225
158	0xbc1bed9e	-0.009517102
159	0x3b5a9d67	0.003335798
160	0x3abd72fa	0.0014453821
161	0x3ba8bf16	0.0051497323
162	0xba6a58f3	-0.0008939646
163	0x3b68b658	0.0035509076
164	0xbc9772d7	-0.018487377
165	0xbbe274bb	-0.006910888
166	0xb9990988	-0.00029189535
167	0x39859401	0.00025478008
168	0x39e36253	0.0004337007
169	0xbc01fed1	-0.007934288
170	0x3bb595d6	0.0055415435
171	0xbb4e698a	-0.0031496012
172	0x3ae715c7	0.0017630392
173	0x3b34bdbf	0.0027578918
174	0x3c08be37	0.008346132
175	0x398da720	0.00027018134
176	0x3bf6ca0a	0.007531409
177	0xbc480cad	-0.012210053
178	0x3bace78c	0.005276626
179	0x3b8761ac	0.0041315164
180	0xb982b093	-0.0002492709
181	0xbb78d4a2	-0.0037968536
182	0xba91fd75	-0.0011138158
183	0x3b18751f	0.002326317
184	0x3ac8b2ea	0.001531211
185	0x3b1942c0	0.0023385733
186	0x3bc31e59	0.0059545455
187	0x3a09549f	0.0005238745
188	0xba3a1f97	-0.0007100044
189	0x3a8b268a	0.0010616344
190	0xbb9c885e	-0.0047769984
191	0x3acd6cf5	0.001567273
192	0x3b339d18	0.0027406868
193	0xbbffcb1d	-0.0078061954
194	0xbb872720	-0.004124537
195	0xb9b5c6a9	-0.00034671024
196	0xba0c7f19	-0.0005359515
197	0xbb63b66b	-0.003474618
198	0x3b46cd38	0.0030334722
199	0xbc6e547a	-0.014546508
200	0x3b43b795	0.0029864062
201	0xbc8c3fcc	-0.017120264
202	0x3b660047	0.003509538
203	0x3ad05bad	0.0015896462
204	0x3c004990	0.007830039
205	0x3bf469c7	0.0074588987
206	0xbade1712	-0.0016944131
207	0x3ba2cc41	0.0049681966
208	0x3bcdb49f	0.006277635
209	0x3b554e62	0.003254794
210	0x3b882476	0.004154737
211	0xbad87c10	-0.0016516466
212	0xb991a87a	-0.0002778208
213	0x3c7295f8	0.014806263
214	0x3c147683	0.0090614585
215	0xb6ce885f	-6.155154e-06
216	0xbae4638a	-0.0017424684
217	0xbbd58dc0	-0.006517142
218	0xbc137e01	-0.00900221
219	0x3bb59d29	0.0055424166
220	0xbc0a24bd	-0.008431611
221	0x3c407076	0.011745563
222	0x380c8b53	3.3508357e-05
223	0x3c1d8d7a	0.00961625
224	0xbbc0f015	-0.005887995
225	0x3c294038	0.010330252
226	0x3b1f1cb9	0.0024278595
227	0xbc616618	-0.013757251
228	0x3c67caad	0.014147443
229	0x3c0a4713	0.008439797
230	0x3ac6e836	0.0015175405
231	0xba2042ec	-0.0006113488
232	0xbc33114d	-0.010929418
233	0x3c024ddd	0.007953134
234	0xbc777a38	-0.015104823
235	0xbb79eb13	-0.00381345
236	0x3b863b54	0.004096428
237	0xbb46982c	-0.0030303104
238	0x3afc8bd3	0.0019267745
239	0x3a7b51b3	0.0009587064
240	0x3b15f2a3	0.0022880218
241	0x3aa0f763	0.0012280758
242	0x3b86b832	0.0041113133
243	0xbc427a51	-0.011869983
244	0xbc82d950	-0.015972763
245	0x3ba7f763	0.0051259263
246	0xbade63d0	-0.0016967002
247	0x3ba38f39	0.0049914387
248	0x3c16e9d3	0.0092110215
249	0x3c0b11d0	0.008488134
250	0x3b54deba	0.0032481388
251	0xbb8cfb3c	-0.0043024104
252	0xba5dea2d	-0.0008465376
253	0xbbb4f7eb	-0.005522718
254	0xbc0d84af	-0.008637591
255	0xbb49c23b	-0.0030785936

action_model._discrete_distribution.branches.1.bias f4 [3]
0	0x00000000	0.0
1	0x00000000	0.0
2	0x00000000	0.0
