Assets/Resources/GigaChadGPT/BestAgent1.onnx (onnx, 923540 bytes, 19 tensors)

action_model._discrete_distribution.branches.0.bias f4 [3]
0	0x3bb7cac4	0.0056088883
1	0xbb9150ed	-0.004434696
2	0xbb7f92cb	-0.0038997408

action_model._discrete_distribution.branches.0.weight f4 [3, 256]
0	0x3c7e35c8	0.015515752
1	0xbb89c02f	-0.0042038183
2	0xbacfb841	-0.0015847759
3	0xbbcce16a	-0.0062524574
4	0x3c14f43e	0.009091435
5	0xbb83c2ef	-0.0040210406
6	0x3c958594	0.018252172
7	0x3bf38e67	0.007432747
8	0xbb581b0a	-0.00329751
9	0x3cb5b706	0.022181999
10	0xbbb65367	-0.0055641416
11	0x3c0cb078	0.008586995
12	0xbc03ec8d	-0.008052004
13	0xbb480f1c	-0.0030526584
14	0xbc9ad454	-0.018900074
15	0xbc7c07b1	-0.015382693
16	0x3c6d16ef	0.0144708
17	0x3c3fb805	0.0117015885
18	0x3aab6c7c	0.0013078596
19	0x3c081565	0.008305882
20	0xb9d413d1	-0.00040450555
21	0x3b693980	0.0035587251
22	0x3c4568e1	0.012048931
23	0x3c31ccb2	0.010852026
24	0x3b9cd9d9	0.0047867117
25	0x3bb7514d	0.0055944086
26	0x3c260429	0.010132828
27	0xbbfc5f80	-0.007701814
28	0x3c62fa9f	0.013853698
29	0xbbdbae59	-0.0067041335
30	0xbbf1ca29	-0.0073788357
31	0xbbf8fb3a	-0.007598308
32	0x3b9211be	0.0044576814
33	0xbc02a90a	-0.007974872
34	0xbc357b14	-0.011076707
35	0x3c111c85	0.008856897
36	0xbc632787	-0.0138644045
37	0x3b686c3c	0.0035464903
38	0x3c24aae4	0.010050509
39	0xbc583a65	-0.013197516
40	0xbc83c470	-0.01608488
41	0x3b9c799e	0.00477524
42	0xbb9db22c	-0.0048124995
43	0xba47701e	-0.00076079543
44	0xbc68ada2	-0.014201554
45	0x3b184dac	0.0023239655
46	0x3c829ca2	0.015943829
47	0x3a16364d	0.00057301373
48	0x3b391319	0.0028240143
49	0x3b9d6b5a	0.004804057
50	0xbc053ddd	-0.008132425
51	0x3b9f46aa	0.0048607187
52	0xbaf442a4	-0.0018635583
53	0xbb44c25b	-0.0030023071
54	0x3b897a1c	0.004195465
55	0x3ba3410d	0.00498212
56	0xbb53afff	-0.0032300947
57	0xbb5503af	-0.0032503416
58	0xbc3de6c3	-0.011590662
59	0xbb47754f	-0.0030434912
60	0xbbbfcbe1	-0.0058531617
61	0xbab73a51	-0.0013979172
62	0x3ba3ec50	0.005002536
63	0xba389adc	-0.0007042119
64	0x3a5f1734	0.00085102324
65	0xb957924c	-0.00020558498
66	0xbb658468	-0.0035021547
67	0x3b147c5e	0.0022657136
68	0xbc0ce8de	-0.008600442
69	0x3a0e20b7	0.0005421745
70	0xbbe8fd4d	-0.007110274
71	0x3c075b3d	0.008261499
72	0x3c3c747f	0.011502384
73	0xbb92ea44	-0.004483493
74	0x3adda9bd	0.0016911548
75	0xbb5a5b51	-0.003331859
76	0x3b952b08	0.004552249
77	0xbc0e2001	-0.0086746225
78	0x3bcea36e	0.0063061034
79	0xbbd48d05	-0.0064865374
80	0x3c0bf7ad	0.008542937
81	0x3c053f05	0.008132701
82	0xb934ef49	-0.00017255278
83	0x3b3a7f5e	0.0028457264
84	0x3b2af4c8	0.0026085842
85	0x3b71f054	0.0036916928
86	0xba0fcf5b	-0.00054859155
87	0xbb8eaabb	-0.0043538488
88	0x3b55bfbd	0.0032615506
89	0xbaee756a	-0.0018192951
90	0x3bfd834c	0.007736599
91	0x3c8398e7	0.01606412
92	0xbb9d916a	-0.0048085945
93	0x3b26cff8	0.002545355
94	0xbc3e7597	-0.011624715
95	0x3c1cbae7	0.009566045
96	0x39753175	0.00023383445
97	0xbbdaf883	-0.006682457
98	0x3c142cb2	0.009043859
99	0x3a77f8e7	0.00094593916
100	0x3c665eb7	0.014060668
101	0x3b3d3551	0.002887089
102	0xbb34d5c5	-0.0027593237
103	0xbb60c046	-0.0034294291
104	0xbc3b8df0	-0.011447415
105	0x3b9bb55d	0.004751845
106	0x3c0903ae	0.008362694
107	0x3c87efc1	0.016593816
108	0x3ac5d196	0.0015092369
109	0xbcc58896	-0.02411298
110	0x3b10e0b7	0.0022106597
111	0x3c7f559b	0.015584375
112	0x3be2f09a	0.0069256546
113	0x3baeb42a	0.005331536
114	0x3aeffeb5	0.0018310162
115	0x3c2099ab	0.009802262
116	0x3ca22716	0.019794028
117	0xba6e39b7	-0.00090875797
118	0xbadce5a8	-0.0016853111
119	0x3c54228e	0.012947692
120	0x3b620366	0.003448689
121	0xbba974d7	-0.005171399
122	0x3c3fc9c7	0.011705822
123	0x3b2380ad	0.0024948523
124	0xbbf7faac	-0.007567724
125	0xbc01dd0c	-0.007926237
126	0x3af920cc	0.0019006967
127	0x3a716e6f	0.00092098763
128	0x3c468972	0.01211773
129	0xbbc8309d	-0.006109311
130	0x3b882c01	0.0041556363
131	0xbb8bbe75	-0.0042646476
132	0x3ab465ac	0.0013763211
133	0x39d3a8fa	0.00040370954
134	0xbc17e95e	-0.009271948
135	0xbc37e912	-0.011225002
136	0x3c80b07d	0.015709156
137	0x3a2c6a04	0.0006577077
138	0xbc45e2e2	-0.012078019
139	0xbb936ff6	-0.004499431
140	0xbb462eb4	-0.003024024
141	0x3c8db9ff	0.017300604
142	0x3c3489c4	0.011019174
143	0x3af82b09	0.0018933724
144	0xbc2917fc	-0.01032066
145	0xbb098976	-0.0020986474
146	0x3c8597ee	0.016307797
147	0x3c2324c1	0.009957493
148	0xbaa69135	-0.001270807
149	0x3ac5d904	0.0015094583
150	0xbcc901d7	-0.02453701
151	0xbbd55756	-0.0065106554
152	0xbb4631e6	-0.0030242144
153	0x3bdcbe48	0.0067365505
154	0x3c4754aa	0.012166182
155	0x3c01188e	0.007879389
156	0xbbc898e9	-0.006121744
157	0x3c20583a	0.00978666
158	0x3baf1b91	0.0053438623
159	0x3c840219	0.016114281
160	0x3bce538f	0.006296582
161	0x3a085732	0.00052009814
162	0x3bbf65d0	0.0058409944
163	0x3c8074fd	0.015680784
164	0xbc2e9bcc	-0.010657262
165	0xbbd916f8	-0.0066250525
166	0x3b041d33	0.0020159006
167	0x3806eec0	3.2170443e-05
168	0xbc6ab6eb	-0.014325838
169	0xbcb81b5a	-0.02247398
170	0x3b6d556b	0.0036214243
171	0xbc0862df	-0.008324354
172	0x3c3d2796	0.011545083
173	0xbb356378	-0.0027677696
174	0xbbe2842d	-0.0069127292
175	0x3b9b0b3a	0.004731563
176	0xbbaf7f12	-0.005355724
177	0x3b98257b	0.00464314
178	0xbba049a9	-0.0048915935
179	0xbb0c0319	-0.002136415
180	0x3b167405	0.0022957337
181	0x3bf367c2	0.0074281404
182	0x3c0822e3	0.008309099
183	0x3b4fb254	0.0031691985
184	0x3c15ebf5	0.009150495
185	0xbc08c068	-0.0083466545
186	0x3babbbbd	0.005240886
187	0x3b8f3158	0.004369896
188	0x3c367afd	0.011137721
189	0xbc39ca9b	-0.011339809
190	0x3aa066b3	0.0012237638
191	0x3bb41356	0.005495469
192	0xbc007cbb	-0.007842238
193	0x3be23f77	0.0069045383
194	0xbc5a4eaa	-0.013324419
195	0x3bc9d4c1	0.0061593954
196	0xbac200c5	-0.0014801255
197	0x3ae56bf0	0.0017503481
198	0xbb8ec27d	-0.004356681
199	0xba650a35	-0.00087371777
200	0xbc759488	-0.014989026
201	0x3b19c358	0.0023462381
202	0xb9911b84	-0.00027677056
203	0x3aeebf8d	0.0018215046
204	0x3c14200b	0.009040843
205	0x3c387c5c	0.011260118
206	0xbb8b80a4	-0.0042572785
207	0x3b48af5f	0.0030622107
208	0xbb7100a5	-0.0036774066
209	0x3c11ce29	0.00889925
210	0x3c113bbf	0.008864342
211	0xbc19aff7	-0.009380332
212	0xbc2c8528	-0.010529794
213	0x3ab92640	0.0014125779
214	0xbc637226	-0.013882196
215	0x3c24d9e6	0.010061717
216	0x3b3185a5	0.0027087715
217	0xbbcbf72d	-0.006224534
218	0xbc02fc13	-0.0079946695
219	0x3c7b3c70	0.015334234
220	0x3b6c5ac0	0.0036064833
221	0xbb6ea45b	-0.0036413881
222	0x3bbe21a7	0.0058023515
223	0xbc193f86	-0.009353524
224	0x3b7ee114	0.0038891481
225	0x3c3c3c87	0.01148904
226	0x3ab06e4e	0.0013460608
227	0x3a88b74d	0.0010430604
228	0x3bbd2bda	0.00577305
229	0xbb3446be	-0.0027507986
230	0x3bb0c629	0.0053947163
231	0x3b49772a	0.0030741193
232	0xba997a54	-0.001170943
233	0x3c1102e6	0.008850789
234	0xbc13ff6e	-0.009033067
235	0x3bafbf6a	0.0053633945
236	0xbb7992f4	-0.0038081976
237	0x3c454dbc	0.012042459
238	0xbbde45de	-0.006783231
239	0xbc9fe656	-0.019519012
240	0x3c08a742	0.008340659
241	0x3bade13a	0.00530639
242	0x3c39919f	0.011326223
243	0x3c323957	0.010877929
244	0xba219dc8	-0.0006165174
245	0x3c1cad95	0.00956287
246	0xba1b6f4b	-0.00059293647
247	0x3c37f121	0.011226923
248	0x3c1f782f	0.009733244
249	0x3b22573e	0.0024771239
250	0xbb8eab6c	-0.004353931
251	0xbbb79ca0	-0.005603388
252	0x3bfd52b3	0.007730806
253	0x3ba68549	0.005081807
254	0xb8fa8fca	-0.00011947712
255	0xbc33343a	-0.010937745

action_model._discrete_distribution.branches.1.bias f4 [3]
0	0x3bb2ef90	0.005460687
1	0xbb2e884f	-0.002663154
2	0xbbb87d6b	-0.0056301854

action_model._discrete_distribution.branches.1.weight f4 [3, 256]
0	0x3c5cf282	0.013485553
1	0x3c189670	0.009313211
2	0xbc410d11	-0.0117829
3	0xbbf94225	-0.007606762
4	0x3c2182ec	0.009857874
5	0xbbad418a	-0.005287354
6	0xbb65ca4c	-0.0035063205
7	0xbb8d491a	-0.004311693
8	0x39b6ea53	0.0003488833
9	0xbbbd632f	-0.005779646
10	0xbb5ea30d	-0.0033971698
11	0x3c6355e5	0.013875459
12	0xbc0296cd	-0.007970524
13	0xbc4131d6	-0.011791667
14	0xbc247f7f	-0.010040163
15	0xbbe5abf9	-0.007009026
16	0x3a646573	0.0008712627
17	0x3b8c9bee	0.004291049
18	0xbaa61603	-0.0012671355
19	0x3bbfdf95	0.0058555105
20	0xba897cd5	-0.0010489473
21	0xbc275631	-0.010213421
22	0x3ba50670	0.005036168
23	0xbb26714f	-0.0025397127
24	0x3c1bcd2b	0.009509365
25	0x3b820361	0.003967688
26	0x3c4d9e51	0.012549953
27	0x3bd668e7	0.006543267
28	0xbc41c950	-0.011827782
29	0xbc2c7085	-0.010524874
30	0xbba50aaa	-0.0050366716
31	0x3c3d925e	0.011570541
32	0x3b4ab7db	0.003093234
33	0xbcd95a25	-0.026532242
34	0xbca2e4ff	-0.019884584
35	0x3c3473f3	0.011013973
36	0xbbdecd45	-0.0067993724
37	0xbc015f48	-0.007896252
38	0x3c482a2d	0.012217087
39	0x3c580302	0.013184311
40	0x3bf9f272	0.0076277787
41	0x3bda6efc	0.0066660624
42	0xbb83a9ac	-0.004018029
43	0xba942768	-0.0011303248
44	0x3a714c03	0.0009204747
45	0x3b0c32d0	0.0021392591
46	0x3c04c581	0.008103729
47	0x3a99161f	0.0011679566
48	0xbaf9e604	-0.0019065742
49	0xbb9f8b30	-0.0048688874
50	0xbbaae6f9	-0.0052155224
51	0xbc2abe2f	-0.01042132
52	0xbc1984d2	-0.009370046
53	0x3bc09fe8	0.0058784373
54	0xbb9358e0	-0.0044966787
55	0xb9a12240	-0.0003073383
56	0xbbab3ba6	-0.0052256165
57	0x3b107a33	0.0022045493
58	0xba600758	-0.0008546016
59	0xbb57016a	-0.003280724
60	0x3b89040c	0.0041813906
61	0xb927f767	-0.00016018526
62	0x3c0618ed	0.008184654
63	0x3c72f101	0.014827968
64	0x3c1fb07a	0.009746665
65	0x3aa4137e	0.0012518016
66	0x3b773838	0.0037722718
67	0x3c01c305	0.007920031
68	0xbbeef7e1	-0.007292733
69	0x3b3263b6	0.0027220077
70	0xbb414174	-0.0029488476
71	0xbb0ab643	-0.0021165765
72	0x3c657bce	0.014006568
73	0xbc3d5727	-0.011556423
74	0x3bbd7790	0.005782075
75	0x3b5119c6	0.0031906231
76	0xbbb6ebc5	-0.005582305
77	0xbc33be4b	-0.010970662
78	0x3c2a7313	0.010403412
79	0xbb2cc1c7	-0.0026360617
80	0x3c0febcc	0.008784246
81	0xbb3060d8	-0.0026913192
82	0x3c3b8f50	0.011447743
83	0x38374830	4.369783e-05
84	0x3c97c3e2	0.018526021
85	0xba369a01	-0.00069656974
86	0xbc0b7676	-0.00851213
87	0xba848843	-0.001011141
88	0x3bdf4d82	0.0068146596
89	0xbc0d9ee8	-0.008643843
90	0x3c106c05	0.008814816
91	0x3aeb1326	0.0017934784
92	0x3c017140	0.007900536
93	0xbbbd1cee	-0.005771271
94	0xbcc3b4b7	-0.023889882
95	0x3bca4422	0.006172673
96	0x3c370996	0.011171719
97	0xbb1a4697	-0.002354061
98	0xbb58c9bd	-0.003307923
99	0xbb57f1d1	-0.003295053
100	0x3c0b2871	0.008493529
101	0x3a075182	0.0005161987
102	0x3c8696a5	0.016429255
103	0x3b9c69ab	0.004773339
104	0x3a8efb07	0.0010908552
105	0x3c2da477	0.0105982935
106	0xbc35bf42	-0.011092963
107	0x3bb24025	0.0054397755
108	0x3c991905	0.018688688
109	0xbc9a01fc	-0.018799774
110	0x3b9bc43a	0.0047536166
111	0x3c0914f6	0.008366814
112	0x3b724565	0.0036967632
113	0x3c52a2f0	0.01285623
114	0xba6a0c8b	-0.00089282606
115	0x3b0bad80	0.002131313
116	0x3be28ac3	0.0069135143
117	0x3b14e7cf	0.0022721177
118	0xbc056f78	-0.008144252
119	0xb988aa6c	-0.00026066916
120	0xbc16f296	-0.00921311
121	0xbc352ed2	-0.011058526
122	0x3c178ced	0.009249908
123	0x3c25b54e	0.010114027
124	0xbc2c0009	-0.010498055
125	0x3a3bdd58	0.00071664667
126	0x3c8266c3	0.015918141
127	0x3c3e4f40	0.011615574
128	0x3c0cfcd2	0.008605199
129	0x3a528a73	0.0008031495
130	0xbb1c7dff	-0.002387881
131	0xbb50354b	-0.0031770046
132	0x3b922484	0.0044599194
133	0x3a88afbc	0.001042835
134	0xbacff962	-0.0015867169
135	0xbbf3e918	-0.0074435584
136	0xbbbe2ec9	-0.005803917
137	0x3c570efa	0.013126129
138	0x3bba2cb3	0.005681598
139	0xbaf69ecf	-0.0018815639
140	0xbbe44a87	-0.006966892
141	0x3bdf3e25	0.006812828
142	0xb9c75fd0	-0.00038027624
143	0x3c56f137	0.013119034
144	0xba4d224b	-0.00078252394
145	0xbca76f24	-0.020438738
146	0x397c6d01	0.000240732
147	0xbbcefec4	-0.0063169915
148	0x3b85ff3b	0.0040892637
149	0x3c842959	0.016132997
150	0xbca173c9	-0.019708531
151	0xbba3ea38	-0.0050022863
152	0xba9356aa	-0.0011241038
153	0x3bb5af90	0.0055446103
154	0x3c352f49	0.011058637
155	0x3bdb7261	0.0066969846
156	0x3ca5bf3e	0.020232793
157	0x3c897850	0.016781002
158	0xbc06bfca	-0.008224437
159	0x3ba8c1d4	0.0051500592
160	0x3b014848	0.001972692
161	0x3abf6e2b	0.0014604976
162	0x3c15ca6a	0.009142498
163	0x3bb85a92	0.005626031
164	0x3b1a5a33	0.0023552298
165	0xb840fbb4	-4.6010784e-05
166	0xba8b91d5	-0.001064832
167	0x3b802f9c	0.0039119255
168	0xbc2b4fb4	-0.010456014
169	0x3c1fabcc	0.009745549
170	0x3c2102d4	0.009827334
171	0x3b32d85b	0.0027289602
172	0xbc241ded	-0.0100169005
173	0x3b9e1f65	0.00482552
174	0x3c88fe91	0.01672295
175	0x3b925bdc	0.004466517
176	0x3c6d68cc	0.014490318
177	0x3b02a0da	0.00199323
178	0x3c09002a	0.0083618555
179	0x3b57818d	0.0032883615
180	0xbb085064	-0.002079987
181	0x3b546530	0.0032408945
182	0xbb795ef8	-0.003805099
183	0x3bbfa54c	0.0058485623
184	0x39424548	0.00018527091
185	0xbba769bd	-0.0051090405
186	0xbbfe504d	-0.0077610374
187	0xbbc785f8	-0.0060889684
188	0xbc160244	-0.009155814
189	0xbc6af801	-0.014341355
190	0x3b999809	0.0046873135
191	0xba9d60e1	-0.0012007022
192	0xbb7452e9	-0.0037280864
193	0x3beb9502	0.007189394
194	0xb9ebbe8e	-0.00044964667
195	0x3a1340fb	0.0005617288
196	0x3c0049fc	0.007830139
197	0x3a6735af	0.000881995
198	0xbaff29a2	-0.0019467364
199	0xbbf2b8cc	-0.0074072834
200	0xbae80c0e	-0.0017703788
201	0x3b0b4681	0.002125174
202	0xbc03a41b	-0.008034731
203	0x3b8c06c6	0.0042732684
204	0x3c3d648d	0.011559618
205	0x3c64bb2a	0.013960639
206	0xba73d78a	-0.0009301832
207	0xbb1ef4a7	-0.002425471
208	0xbaaf122b	-0.0013356855
209	0xbbfa2e06	-0.007634881
210	0x3c1527d4	0.009103734
211	0xbae9cfc3	-0.0017838407
212	0x3b8e9cd6	0.0043521924
213	0x3c05736b	0.008145194
214	0xbbb7e8f2	-0.005612486
215	0x3be95c04	0.007121565
216	0xbb84d829	-0.0040540886
217	0xbbebc62e	-0.0071952557
218	0x3c812199	0.01576309
219	0xbc5f9745	-0.013646905
220	0xbad0d771	-0.0015933347
221	0xbc031232	-0.007999944
222	0x3bda07c4	0.0066537578
223	0xbb779d54	-0.0037782984
224	0xbb89b338	-0.0042022727
225	0xbb9f95b7	-0.0048701423
226	0x3caec97f	0.021336315
227	0x3adca6c0	0.0016834363
228	0x3c16774b	0.009183715
229	0xbc44269d	-0.011972097
230	0x3c1c0829	0.00952343
231	0xba4079aa	-0.0007342348
232	0xbaf41505	-0.0018621987
233	0xba8d34e0	-0.0010773204
234	0xbc76bc81	-0.015059591
235	0xbb9acb20	-0.0047239214
236	0xbcba89f4	-0.02277086
237	0x3b8e7c0c	0.0043482836
238	0x3c4024a3	0.011727485
239	0x3c33d1ab	0.010975282
240	0x3b486cc7	0.0030582414
241	0x3bd5f473	0.0065293848
242	0xbaebc2a5	-0.0017987086
243	0x3ac08fa5	0.0014691247
244	0xbc4da26c	-0.012550931
245	0x3c1e2270	0.009651765
246	0x3baf2343	0.0053447797
247	0xbbb6cb4a	-0.005578433
248	0x3c09d49e	0.008412508
249	0xbb933278	-0.0044921003
250	0x3c119f63	0.008888098
251	0x3b3ea3e3	0.0029089383
252	0x3bdf770f	0.006819613
253	0xb93681e6	-0.00017405263
254	0xbb997ca5	-0.0046840482
255	0xbc833937	-0.016018493

action_model._discrete_distribution.branches.2.bias f4 [2]
0	0x3b8f367b	0.0043705082
1	0xbb8f3678	-0.004370507

action_model._discrete_distribution.branches.2.weight f4 [2, 256]
0	0xbb300944	-0.0026860991
1	0x3b2cbc90	0.002635751
2	0xbc10adc0	-0.008830488
3	0xbba37fce	-0.0049896007
4	0x3c090302	0.0083625335
5	0x3b001f35	0.001954985
6	0x3c0d44b1	0.008622334
7	0x3b9f3217	0.004858266
8	0xbc1b3c18	-0.009474777
9	0xbb2a26aa	-0.0025962987
10	0xbc2c6e53	-0.01052435
11	0x3a47880a	0.0007611519
12	0x3b87abb9	0.004140344
13	0x3c35ec18	0.011103652
14	0xba4f9045	-0.0007917921
15	0xbb20bc3e	-0.0024526264
16	0x3c28f13a	0.010311419
17	0x3b3371b6	0.002738101
18	0x3b3d5e84	0.0028895447
19	0x3bbee404	0.0058255214
20	0xbc20d505	-0.009816413
21	0x3ab66297	0.001391488
22	0xbb3886bb	-0.0028156477
23	0xba823ef7	-0.0009936978
24	0xbc0e182b	-0.008672754
25	0x3c24c30a	0.010056267
26	0x3bae2983	0.005315007
27	0xbca9122a	-0.020638544
28	0xbb3f2de6	-0.0029171645
29	0xbc50b424	-0.012738261
30	0xbcc8844f	-0.024477152
31	0x3be56953	0.007001081
32	0x3c0ff4c4	0.008786384
33	0xbbc83acd	-0.006110525
34	0x3badf1a8	0.0053083487
35	0x3c4ea26d	0.0126119675
36	0xbbb39108	-0.0054799356
37	0x3a6799bb	0.00088348583
38	0x3c31a996	0.010843655
39	0xba6ba217	-0.0008988692
40	0xba88562a	-0.0010401655
41	0x3c2ec6b0	0.010667488
42	0xbb8ce279	-0.0042994586
43	0x3c009fcb	0.007850598
44	0x3c13e7fe	0.009027479
45	0x3bbd45f1	0.00577616
46	0x3c0d55d2	0.008626418
47	0x3ba05fcc	0.0048942324
48	0x3bc3851f	0.005966797
49	0x3a46024d	0.00075534434
50	0x3c5bda56	0.013418755
51	0xbb9291fd	-0.0044729696
52	0xbbd51199	-0.006502342
53	0x3c4913b5	0.012272765
54	0x3c007aac	0.007841747
55	0x3bcdfd92	0.0062863315
56	0xbbbc6b2b	-0.00575008
57	0xbc04bedd	-0.008102146
58	0x3b59ab2b	0.0033213596
59	0x3c2e26bf	0.010629355
60	0x3b452e76	0.0030087507
61	0x3bb93eef	0.005653254
62	0x3a9a34f8	0.0011765053
63	0x3c3cb1c2	0.01151699
64	0xbc99efd4	-0.018791117
65	0x3c0e259f	0.008675962
66	0xbc0c3417	-0.008557341
67	0x3b3dad7b	0.0028942514
68	0x3b8d2bbb	0.0043081916
69	0xbca82746	-0.02052654
70	0x3c2d6088	0.010582097
71	0xbbe30af6	-0.006928797
72	0xbb4739cd	-0.0030399442
73	0x3bd7829e	0.00657685
74	0x3c08ec7b	0.008357163
75	0xbbbced2d	-0.0057655782
76	0xbbb2fa63	-0.0054619773
77	0xbb5a77d6	-0.0033335588
78	0x3c314fee	0.010822279
79	0x3c314546	0.010819739
80	0x3b8b33f2	0.0042481357
81	0x3bc5cd51	0.0060364385
82	0xbbe660b7	-0.0070305723
83	0xbbb2e02e	-0.005458853
84	0x3b94160f	0.004519231
85	0x3c16a378	0.009194247
86	0x3b4bfead	0.003112714
87	0xbae6dcad	-0.0017613374
88	0x3ad3f3e5	0.0016170709
89	0xb9f65fb1	-0.00046992072
90	0xbb282665	-0.002565765
91	0xbb5f1db7	-0.003404481
92	0x3c656550	0.014001206
93	0x3b9f9a52	0.0048706913
94	0x3a0cadd7	0.00053664803
95	0x3ba6fd09	0.005096082
96	0x3c0ed6f6	0.008718243
97	0xbb42fde5	-0.0029753384
98	0x3a755be0	0.0009359699
99	0x3be73938	0.0070563816
100	0x3c584b35	0.0132015245
101	0xbad32c6a	-0.0016111259
102	0x3c27d15c	0.010242786
103	0xbbdb3568	-0.006689716
104	0xbba3e21a	-0.0050013186
105	0x3c2c17f3	0.010503757
106	0xbb87648f	-0.0041318606
107	0x3bec20f6	0.0072060777
108	0x3c45c077	0.012069813
109	0x3a210bde	0.0006143431
110	0xbb2372f6	-0.0024940348
111	0x3c33fde5	0.010985826
112	0xba022732	-0.0004964947
113	0xbac442b9	-0.0014973498
114	0xbbd4a365	-0.0064892047
115	0x3c9b0c31	0.018926712
116	0x3b31a696	0.002710735
117	0xbb458155	-0.0030136902
118	0x3b0024ca	0.0019553178
119	0x3c090c6c	0.008364778
120	0x3af7e2b7	0.0018912171
121	0x3b1fc0d7	0.0024376416
122	0xbbd45b00	-0.0064805746
123	0x3c552471	0.013009177
124	0xbc63a6f7	-0.013894788
125	0xbc44d2b2	-0.012013124
126	0x3c8d3a17	0.017239613
127	0x3c1af755	0.009458383
128	0x3c0ada7a	0.00847494
129	0x3bf3797b	0.007430253
130	0x3b6ce633	0.0036147952
131	0x3bfba387	0.007679406
132	0x3b58b4f5	0.0033066843
133	0x3b3d4900	0.0028882623
134	0xbbbc27a1	-0.005742029
135	0x3c181109	0.009281405
136	0xbb19128f	-0.002335701
137	0x3c1d9207	0.009617335
138	0xbc1d0adb	-0.009585108
139	0x3b4c6c15	0.0031192352
140	0xbc7c1d41	-0.015387834
141	0x3ca05a22	0.019574229
142	0x3c7952cd	0.015217495
143	0x3c6c67da	0.014429057
144	0x3c0e205f	0.00867471
145	0x3bb83b0b	0.005622273
146	0x3ad315ea	0.0016104553
147	0x3c487e47	0.012237138
148	0xbb6f7e93	-0.003654395
149	0x3ae22a25	0.0017254992
150	0xbba83c16	-0.005134116
151	0xbbfa0224	-0.0076296497
152	0xbc344918	-0.011003755
153	0x3b51b6d2	0.0031999839
154	0x3ab1cb86	0.0013564683
155	0xbbc77a66	-0.006087589
156	0x3c136041	0.008995117
157	0x3b4dff05	0.003143252
158	0xb913f27d	-0.00014109346
159	0x3b8e84de	0.004349335
160	0x3b86a26f	0.004108719
161	0x3bc471ef	0.0059950273
162	0xbbb855d8	-0.0056254677
163	0x3c3d1fc2	0.011543216
164	0xbc234e45	-0.009967391
165	0xbc88b033	-0.01668558
166	0xbaceca3d	-0.0015776824
167	0x3c06bcce	0.0082237255
168	0x3bc0c0cd	0.0058823586
169	0xbbeff273	-0.0073226034
170	0x3c34a1c4	0.011024896
171	0xb9f54456	-0.00046780956
172	0x3c20ba17	0.009809992
173	0xbacae89d	-0.0015480701
174	0xbc59dfe1	-0.013298006
175	0x3b013f87	0.0019721703
176	0x3a3daf04	0.0007235857
177	0x3baddbcd	0.0053057433
178	0xbb88b8aa	-0.0041724043
179	0x3aa3a12b	0.0012483945
180	0xb908befa	-0.00013041115
181	0xbbf9969f	-0.0076168324
182	0x3b080cc1	0.0020759555
183	0xb95470cd	-0.00020259917
184	0x3a4536b8	0.00075231073
185	0xbbf83abf	-0.0075753625
186	0x3b8fec8a	0.0043922113
187	0xbc5370ee	-0.0129053425
188	0xbc26e17b	-0.010185595
189	0x3abcfb06	0.0014418073
190	0x3b839976	0.0040160967
191	0xbb50fa0a	-0.0031887316
192	0xbbaf1b80	-0.0053438544
193	0xbc1c23ed	-0.00953005
194	0xbbc9f04b	-0.0061626784
195	0xba1589e5	-0.0005704447
196	0x3c8d8cef	0.017279116
197	0xba9407dd	-0.0011293847
198	0x3c9833a6	0.018579315
199	0xbc832a24	-0.016011305
200	0xbc0936c5	-0.0083748745
201	0x3b2f6003	0.0026760108
202	0xbaf64dbc	-0.0018791477
203	0x3b0a8e37	0.0021141896
204	0x3c0baad7	0.008524618
205	0x3b1fe99d	0.002440072
206	0xbb73856b	-0.003715838
207	0x3b2011e4	0.0024424726
208	0x3bc64fb3	0.0060519814
209	0xbc03390f	-0.008009209
210	0x3b13e51f	0.0022566987
211	0xbb356286	-0.0027677133
212	0xbc869309	-0.016427534
213	0x3b5e76c1	0.0033945295
214	0x39d65395	0.00040879534
215	0x3bf4d35c	0.007471485
216	0x3c6c1653	0.014409619
217	0x3be9a7d2	0.0071306014
218	0xbc1ed412	-0.009694116
219	0x3a182c8a	0.00058049767
220	0xbc157631	-0.009122417
221	0xbb177a8e	-0.002311382
222	0xba9c9060	-0.0011944883
223	0xb9e8621f	-0.00044323594
224	0xbc019ec0	-0.007911384
225	0xbb01aacd	-0.0019785643
226	0x39d37ee8	0.0004033961
227	0xbbf61027	-0.0075092497
228	0x3c06046f	0.008179768
229	0x3bd5d239	0.0065253046
230	0xbb8d4258	-0.0043108873
231	0xbbc892ec	-0.00612103
232	0x3bd4db5a	0.0064958753
233	0x3c63da97	0.013907096
234	0xbc1fca36	-0.009752801
235	0x3c0b32f2	0.008496033
236	0x39c481ef	0.0003748084
237	0x3c6661b6	0.014061382
238	0x3c1c0a0f	0.0095238825
239	0xbbd834f6	-0.0065981103
240	0x3a9f63e2	0.0012160505
241	0xbc48aaa9	-0.01224772
242	0x3a83cdd2	0.0010055846
243	0x3ba3a4cf	0.004994012
244	0x3b703538	0.0036652815
245	0xbbd428b9	-0.006474581
246	0x3c0d24c7	0.008614725
247	0x3cbde024	0.023178168
248	0x3c29022d	0.01031546
249	0x3becacad	0.007222733
250	0xbc298a19	-0.010347866
251	0x3af54362	0.0018712098
252	0xbc77d938	-0.015127473
253	0x3a94a352	0.0011340177
254	0x3bc825ff	0.006108045
255	0xbbeb02a8	-0.0071719475

action_model._discrete_distribution.branches.3.bias f4 [2]
0	0xb66927e0	-3.4742916e-06
1	0x36692cc0	3.4745754e-06

action_model._discrete_distribution.branches.3.weight f4 [2, 256]
0	0xbbcc7a4e	-0.006240166
1	0xbc8771cc	-0.016533755
2	0xbb9c4d06	-0.004769924
3	0xbb49f152	-0.0030814004
4	0xbbc5f4b4	-0.006041134
5	0x3b1f8bf4	0.0024344893
6	0xbb7da2de	-0.0038701813
7	0x3b00e394	0.0019666897
8	0x3b860a4b	0.0040905825
9	0x3c30513c	0.010761555
10	0x3c3998de	0.01132795
11	0x3af93f53	0.0019016064
12	0xbb84267a	-0.004032907
13	0xbbbe6811	-0.0058107455
14	0x3baf8c3f	0.005357295
15	0x3ba1b46f	0.0049348394
16	0xb7997dc0	-1.8297578e-05
17	0xbb69c98a	-0.0035673105
18	0xbb049456	-0.0020230017
19	0x3b66ffcd	0.0035247684
20	0xbc58be07	-0.0132289
21	0x3bf606fa	0.007508156
22	0xbbdc6b52	-0.0067266608
23	0x3ca32647	0.019915713
24	0x3c078f9b	0.008273984
25	0xbb422e02	-0.0029629474
26	0xbb7ee1a7	-0.0038891823
27	0x3c19345c	0.009350862
28	0xba2ebf29	-0.00066660583
29	0x3cab0eb4	0.020881034
30	0x3b496ac5	0.0030733806
31	0x3b886fa3	0.0041636988
32	0xbb9e100a	-0.0048236893
33	0xbc36ab09	-0.011149176
34	0x3c6ef271	0.01458417
35	0x3c17f4fd	0.009274718
36	0x3a61c318	0.000861214
37	0x3c2efc69	0.010680296
38	0xbad2a68e	-0.0016071366
39	0xbb83418a	-0.0040056156
40	0x3b7d7b74	0.003867832
41	0x3bdffa80	0.006835282
42	0xbbf4e190	-0.007473178
43	0x3b60b971	0.003429022
44	0xbbe234ab	-0.006903251
45	0xbb0654b5	-0.0020497267
46	0xbaee17cc	-0.0018165051
47	0x3c18d5dd	0.009328333
48	0x3c0bb2a3	0.008526477
49	0xb980ea1b	-0.00024588485
50	0x3be9870a	0.0071266936
51	0xbc8f2ca0	-0.017477334
52	0x3b700265	0.003662252
53	0x3c13a68f	0.009011879
54	0xbb9bac1c	-0.0047507416
55	0xba80e35c	-0.0009833383
56	0x3a1057cf	0.00055062486
57	0x3ad3f62f	0.0016171391
58	0x3c314a59	0.0108209485
59	0x3c89cd1f	0.016821442
60	0x3c52eedb	0.01287433
61	0xbb8cf2fb	-0.0043014265
62	0xbba821dd	-0.00513099
63	0xbb7318f6	-0.0037093735
64	0xbc909f63	-0.017654127
65	0xbc0d69bd	-0.008631167
66	0x3c3c7c8c	0.011504304
67	0x3b36aae3	0.0027872853
68	0x3b91944c	0.004442727
69	0x3a4f85bc	0.00079163513
70	0x3c01d1f8	0.007923596
71	0x3b9897a9	0.004656751
72	0xbae96106	-0.0017805404
73	0xbbe29086	-0.006914201
74	0xbc124b49	-0.008929082
75	0xbc29a438	-0.010354094
76	0xbae3b6b6	-0.0017373178
77	0xbadd6bdf	-0.001689311
78	0x3c9d9348	0.019235268
79	0x3b2901ea	0.0025788494
80	0xbb73fe22	-0.0037230332
81	0xba8cfe49	-0.0010756935
82	0x3b4de50c	0.003141704
83	0xbc87a1ad	-0.016556585
84	0xbb2f2ee6	-0.0026730835
85	0xb9147ec9	-0.00014161611
86	0xbaf179bf	-0.0018423124
87	0xbbc79666	-0.006090927
88	0xbab9b5a0	-0.0014168508
89	0xbb275882	-0.0025534933
90	0x3b133d55	0.0022466977
91	0xbb5f1c74	-0.003404406
92	0x3b8df9ff	0.0043327804
93	0x3a9f5bd7	0.0012158108
94	0x3b1aea88	0.0023638327
95	0x3b9616e0	0.0045803636
96	0xbc725878	-0.0147916
97	0xbc73f3b0	-0.014889643
98	0xbc0458a0	-0.0080777705
99	0xb84e9a38	-4.9257855e-05
100	0xbb68d65e	-0.0035528163
101	0x3ba7b7a8	0.005118329
102	0x3b88640d	0.0041623176
103	0xbbdd78d9	-0.006758791
104	0x3b4effba	0.003158553
105	0xbc48b816	-0.012250921
106	0x3baa464b	0.005196368
107	0x3ae7e1f0	0.0017691236
108	0x3b903e3c	0.00440195
109	0x3b975de5	0.0046193474
110	0x3af8ddaa	0.001898696
111	0xbbfdcb94	-0.0077452157
112	0x37c885bc	2.3904133e-05
113	0xbb2c73dd	-0.0026314177
114	0xbaed5ae3	-0.0018108751
115	0xba8d88ce	-0.0010798217
116	0x3bca04d8	0.006165128
117	0xbb93dc28	-0.0045123287
118	0xbcb249fb	-0.021763792
119	0xbba879ef	-0.0051414887
120	0x3be6b687	0.007040802
121	0xbc54663e	-0.01296383
122	0xbb819e05	-0.003955605
123	0xbb8cb3a4	-0.004293876
124	0xbb131aa4	-0.00224463
125	0xbad35d27	-0.0016125784
126	0x3bb06a90	0.005383797
127	0x3c482e7d	0.012218115
128	0x3ba51d60	0.005038902
129	0x3a191c4a	0.0005840702
130	0xbba64fb0	-0.0050754175
131	0xbbc7917c	-0.006090341
132	0xbb830dbf	-0.0039994414
133	0x3b6df36e	0.0036308425
134	0x3b152620	0.002275832
135	0x3c6e9ad7	0.014563284
136	0xba92b574	-0.0011192993
137	0x3c5cad97	0.013469121
138	0xbbb545f6	-0.0055320216
139	0x3c319d22	0.010840686
140	0x3be5b1ba	0.007009712
141	0x3c5868ad	0.01320855
142	0xbc03cf18	-0.0080449805
143	0x3ad609cb	0.0016329823
144	0x3c7da2e3	0.01548073
145	0xbc1522d4	-0.009102542
146	0x3b5941f2	0.0033150879
147	0x3b20fddc	0.0024565374
148	0x3ac40853	0.0014956094
149	0xbb021744	-0.0019850293
150	0xba4a4d83	-0.00077172386
151	0x3bb7b62d	0.005606434
152	0x3b0ca88c	0.0021462766
153	0xb84df15d	-4.9100596e-05
154	0xbb7191c0	-0.0036860555
155	0xbb189a14	-0.0023285197
156	0xbbb1eb78	-0.0054296814
157	0x3ad2d70c	0.0016085817
158	0x3ab3113e	0.0013661755
159	0x3c17ce87	0.009265549
160	0x3b9870ca	0.0046521174
161	0xbc0badec	-0.008525353
162	0xb9aea020	-0.0003330717
163	0x3ba3650d	0.0049864114
164	0xbb12c84a	-0.0022397214
165	0x3ba88e92	0.005143949
166	0xbb780050	-0.0037841983
167	0x3b601eb9	0.0034198
168	0x3b50f051	0.003188152
169	0xbb3406f4	-0.0027469965
170	0xbb4e7050	-0.003150005
171	0x3bfd3ea7	0.007728416
172	0x3bc1e755	0.0059174695
173	0x3c256428	0.01009468
174	0x3b704114	0.0036659883
175	0xba81dec3	-0.0009908307
176	0xbc35c3a9	-0.011094012
177	0xbc13b947	-0.0090163415
178	0x3b2258bf	0.0024772135
179	0xbc0d49f2	-0.008623587
180	0xbc0739d0	-0.00825353
181	0xbb008bb1	-0.0019614513
182	0x3bc3f84a	0.005980526
183	0xbb208f80	-0.0024499595
184	0xbb96073b	-0.0045784987
185	0xbc032a66	-0.008005714
186	0x3a499e50	0.0007691132
187	0xbb9cd33f	-0.0047859247
188	0xbb250763	-0.0025181405
189	0x3c151fff	0.009101867
190	0x3b8d8b81	0.0043196087
191	0x3b139f9d	0.0022525557
192	0xbc15c01b	-0.00914004
193	0xbc0b6945	-0.008508985
194	0x3b1b92e5	0.002373868
195	0x3af83591	0.0018936862
196	0x3b05c6e5	0.002041274
197	0xbb0a992a	-0.0021148422
198	0x3c5a59c8	0.01332707
199	0xbb875f65	-0.004131245
200	0x3bc81fb0	0.006107293
201	0x3b7e9e8d	0.0038851828
202	0xb92b4890	-0.00016334862
203	0x3bb5030b	0.0055240444
204	0xbaedd42e	-0.00181449
205	0xbbf0eda3	-0.0073525473
206	0x3bef640c	0.0073056277
207	0xbc02e954	-0.0079902
208	0x3b8ff91c	0.00439371
209	0xbb6287f1	-0.003456589
210	0x3be2c3cb	0.006920313
211	0x37d3e010	2.5257497e-05
212	0xbbca1635	-0.006167198
213	0xbb1afcb4	-0.0023649158
214	0x3adc6f2d	0.0016817801
215	0x3c2d9cb5	0.010596444
216	0xbbaecdda	-0.005334598
217	0xbadbb795	-0.0016763086
218	0xba8b0c7f	-0.0010608583
219	0x3c854b2b	0.016271194
220	0xbbdb81dd	-0.0066988305
221	0x3a1ec0b2	0.00060559355
222	0xbac67662	-0.0015141482
223	0xbbc40f1a	-0.0059832456
224	0xba8aef54	-0.001059989
225	0xbb85be4c	-0.004081523
226	0xbc8cbb82	-0.017179254
227	0x3bf15614	0.0073649976
228	0xbb2475e5	-0.0025094685
229	0xbc890cf0	-0.016729802
230	0x39cce6a4	0.00039081753
231	0x3c3bf158	0.011471115
232	0xbabbb08e	-0.0014319585
233	0xbaf7bbeb	-0.0018900608
234	0xbb393a78	-0.002826361
235	0xbb00b49f	-0.0019638909
236	0x3c39428d	0.011307371
237	0x3c35ef47	0.011104411
238	0xbc0e8cb8	-0.008700542
239	0xbc13d7d2	-0.009023624
240	0xbbf0030b	-0.0073245815
241	0xbc089a75	-0.008337607
242	0x3c31de4b	0.010856221
243	0xbbe14beb	-0.006875505
244	0x3b779ae5	0.0037781533
245	0xbbeb0f5f	-0.0071734632
246	0x3c825c00	0.01591301
247	0xbacf0668	-0.0015794756
248	0x3c17d750	0.009267643
249	0xbba7f071	-0.0051250984
250	0x3bb1c224	0.0054247547
251	0xbc1d2895	-0.009592195
252	0xbad7bfa0	-0.0016460307
253	0x3b08fb04	0.002090157
254	0x3b2f4ff3	0.0026750534
255	0xbbc5bd29	-0.0060345125

action_model._discrete_distribution.branches.4.bias f4 [2]
0	0x3a76cc86	0.00094146316
1	0xba76cc75	-0.0009414622

action_model._discrete_distribution.branches.4.weight f4 [2, 256]
0	0xbbf9b6e4	-0.007620679
1	0xbc103a9c	-0.008803036
2	0xbbfad20c	-0.007654434
3	0x3c1c1177	0.009525648
4	0xbc01a9a1	-0.007913978
5	0xbb89be1e	-0.004203572
6	0xbb6e3b84	-0.0036351392
7	0x3bbf32bd	0.005834906
8	0xbbfef50a	-0.007780676
9	0xbabb77a0	-0.0014302619
10	0x3b9a4c02	0.004708768
11	0xbbd23855	-0.0064154067
12	0xbc4215a5	-0.011845981
13	0xbba4f03c	-0.005033521
14	0xb97d049b	-0.00024129676
15	0x3bd4e268	0.0064967163
16	0x3c8406bc	0.016116492
17	0xbc82177f	-0.015880344
18	0xbc267f2b	-0.010162155
19	0xbb42fb98	-0.0029752012
20	0xbc024078	-0.007949941
21	0xbb55826b	-0.0032578956
22	0x3c024be6	0.007952666
23	0xbb684b57	-0.0035445297
24	0xba5cbad2	-0.00084201724
25	0xbc24436e	-0.010025842
26	0x3c054683	0.008134487
27	0xbaf9dee9	-0.0019063625
28	0xbc4070fc	-0.011745688
29	0xbb60f42f	-0.0034325232
30	0x3b4f3fa5	0.0031623628
31	0x3b3593f4	0.0027706595
32	0x3be22afa	0.006902096
33	0x3bd545f7	0.0065085846
34	0xbbd841e7	-0.006599653
35	0xbb8e0005	-0.0043334984
36	0xbab7f862	-0.0014035816
37	0xba3c4557	-0.00071819633
38	0x3c3a3553	0.011365253
39	0x3c411b53	0.0117863
40	0xbbba3a40	-0.0056832135
41	0xbbae0349	-0.00531045
42	0x3adf7cda	0.0017050758
43	0x3c2e492e	0.010637565
44	0xbbd62f91	-0.006536432
45	0xbbbd20a9	-0.0057717157
46	0xbb9577b6	-0.00456139
47	0x3b1ce6f4	0.002394137
48	0xbbe3b923	-0.0069495603
49	0x3b893117	0.00418676
50	0x3b3f544c	0.0029194532
51	0x3bbd25f5	0.005772347
52	0xbc23c4d4	-0.009995658
53	0x3b83c336	0.0040210737
54	0x3c042944	0.008066479
55	0xb9736c1c	-0.0002321456
56	0xbb6e6342	-0.003637508
57	0x3c1f4a97	0.009722373
58	0xbaee71f4	-0.001819192
59	0xbc4d6f30	-0.012538716
60	0x3b370048	0.0027923752
61	0xbba552ed	-0.005045286
62	0xb96c7f3e	-0.00022554115
63	0xbc2cb10a	-0.010540256
64	0x3c7e7c10	0.0155325085
65	0xbc180aad	-0.009279889
66	0x3b8f2bfe	0.004369258
67	0x3bbd2101	0.0057717566
68	0x3ab29f8e	0.0013627873
69	0xbbfed862	-0.0077772597
70	0x3a44f013	0.00075125805
71	0xbb672cd6	-0.0035274527
72	0x3b5bb7e4	0.0033526355
73	0x3b7a3183	0.0038176484
74	0x3b5fe047	0.003416078
75	0xbb5f404d	-0.0034065426
76	0x3a64bc14	0.00087255356
77	0x3c24b678	0.01005327
78	0xbcb0d0e4	-0.021583982
79	0xbb356758	-0.0027680006
80	0x3c4f3224	0.012646232
81	0xbc2e9fac	-0.010658186
82	0x3bec7553	0.0072161346
83	0x3a9a4d8b	0.0011772377
84	0x3a076f94	0.0005166468
85	0xbc2cef20	-0.010555059
86	0x3c0529ee	0.008127673
87	0x3a6d4c3e	0.00090521935
88	0x3b343284	0.002749593
89	0x3b978bda	0.004624826
90	0xbc105e5e	-0.008811561
91	0x3b6d6e28	0.0036228988
92	0xbb83ce8e	-0.004022426
93	0x3c8123ba	0.015764106
94	0x3c00a9fb	0.0078530265
95	0xba85f43c	-0.0010219882
96	0xb8f350cb	-0.00011602192
97	0xbb980f9e	-0.0046405336
98	0x3b298dd2	0.0025871885
99	0xbaf622ab	-0.0018778642
100	0xbbb4ed51	-0.0055214544
101	0xbb84bc3a	-0.0040507587
102	0x3bb99295	0.005663226
103	0xbcc713a9	-0.024301367
104	0xb9bdd78e	-0.0003620949
105	0xbb8707a6	-0.004120785
106	0xbaced6f1	-0.001578061
107	0xbb559f2f	-0.0032596102
108	0x3afa23f2	0.0019084199
109	0x3bea52a3	0.0071509643
110	0xbbb5bac3	-0.0055459454
111	0x3c4a0a64	0.012331579
112	0x3bbcbe18	0.0057599656
113	0x39d7935a	0.0004111778
114	0x3b2abd75	0.0026052867
115	0xb9017d46	-0.00012349067
116	0xbc079400	-0.008275032
117	0xbbd60b02	-0.006532074
118	0xbc14b84a	-0.009077141
119	0x3c07fce7	0.008300043
120	0x3afd6baa	0.0019334455
121	0xbbfa80ec	-0.007644763
122	0xbc2118c4	-0.009832565
123	0x391a6012	0.00014722373
124	0x3c9d02fe	0.019166466
125	0xbc4f9862	-0.012670608
126	0x3c6380a7	0.013885654
127	0xbc44c70b	-0.012010346
128	0xbb0a18e4	-0.0021071965
129	0x3c804187	0.015656246
130	0xbbca7c30	-0.006179355
131	0x3b80fc72	0.003936344
132	0xbc7857b2	-0.015157627
133	0x39be6d53	0.00036321077
134	0x3add7d27	0.001689826
135	0xbb810ae4	-0.003938066
136	0x3c1c5e2d	0.009543938
137	0xbb60e9c2	-0.0034319018
138	0x3c339fe9	0.0109634185
139	0x3c3f7efc	0.01168799
140	0xba424805	-0.00074112444
141	0xbc44da66	-0.012014961
142	0x3b60f91f	0.0034328175
143	0xbb4732ae	-0.0030395198
144	0x3b8bb022	0.00426294
145	0x3bcb858c	0.0062109884
146	0xbae45221	-0.0017419496
147	0x3bbab01f	0.005697265
148	0x39f0199e	0.00045795453
149	0x3afccbd4	0.001928682
150	0x3c7f68ab	0.01558892
151	0x3c06dd88	0.008231528
152	0x3b5dad82	0.0033825343
153	0xbc2a9c0f	-0.010413184
154	0x3ae5aa41	0.0017522053
155	0xbb84fe4d	-0.0040586353
156	0x3c66cd0d	0.014086974
157	0xbae8715a	-0.0017733977
158	0x3bf98b07	0.0076154503
159	0xbb4f1e7e	-0.0031603868
160	0x3b02d527	0.0019963474
161	0x39987f5e	0.00029086595
162	0x3bdf3e6c	0.006812861
163	0xbc0d4660	-0.008622736
164	0x3bf2d4a8	0.0074106045
165	0x3ba5134c	0.0050377008
166	0x38414315	4.607726e-05
167	0xbb7c912b	-0.0038538675
168	0x3a8df014	0.0010828995
169	0x3b7543e2	0.0037424495
170	0x3bd356c1	0.006449551
171	0x3c059a80	0.008154511
172	0xbb9978cb	-0.004683589
173	0xbb8de60e	-0.004330403
174	0x3ae009e3	0.001709279
175	0xbb0aabab	-0.002115945
176	0xbc19c5eb	-0.009385566
177	0x3b21f8bf	0.0024714915
178	0xbbd6ac1d	-0.006551279
179	0xbb111ed7	-0.0022143626
180	0x3c7e80be	0.015533624
181	0x3a39062d	0.000705811
182	0xbb9e6dfc	-0.0048348885
183	0xbb8c0625	-0.0042731934
184	0x3c369d3b	0.011145885
185	0x3c057951	0.0081466
186	0xba555c82	-0.000813909
187	0x3c96e57c	0.018419974
188	0x3a8a5030	0.0010552462
189	0xbc0eff50	-0.008727863
190	0xb9a80a03	-0.00032050916
191	0x39a584b5	0.00031570127
192	0x3b8f4a35	0.00437286
193	0x3c2e1ce2	0.010627003
194	0x3c350970	0.011049613
195	0xbbf93126	-0.007604736
196	0x3ca1465c	0.01968687
197	0xb979d113	-0.00023824377
198	0x3cc23856	0.023708504
199	0x3c32f624	0.010922942
200	0xbbc634e3	-0.006048785
201	0x3ba4e201	0.0050318246
202	0x3b5d147b	0.003373413
203	0xbc386baa	-0.011256138
204	0x3b4d0c2d	0.0031287775
205	0x3bc7d946	0.006098899
206	0xbc2bac3e	-0.010478077
207	0x3c57efa4	0.013179693
208	0x3bf3022f	0.007416032
209	0x3c98d435	0.018655876
210	0xbc833eb5	-0.016021112
211	0xbb6f7efd	-0.0036544197
212	0x3bf0e327	0.0073512974
213	0x3be980f9	0.0071259704
214	0xbb54d165	-0.0032473442
215	0xbb22ac91	-0.0024822096
216	0xbbb805dc	-0.005615933
217	0x3be93de5	0.007117974
218	0xbc058294	-0.008148808
219	0xbb416165	-0.0029507515
220	0xbbf32d43	-0.007421167
221	0x3c30e9e6	0.010797953
222	0xbc1d62ca	-0.009606073
223	0x3bab9287	0.0052359733
224	0xbb41fd1d	-0.002960033
225	0x3a365696	0.00069556513
226	0x3c18a0db	0.009315695
227	0x3c04c7d6	0.008104285
228	0xbc2c1d85	-0.010505085
229	0x3c1ae014	0.009452838
230	0xbbc65085	-0.006052079
231	0xbc1add70	-0.009452209
232	0x3c2159b4	0.009848047
233	0x3ad8f35d	0.001655202
234	0xbbd21856	-0.0064115925
235	0x3ba9c1ce	0.005180574
236	0x3cacb4e2	0.021082345
237	0xbc7d9871	-0.015478239
238	0x3baae8d2	0.0052157426
239	0x3bf91157	0.007600944
240	0x3bd06bdb	0.0063605136
241	0x3bdf7dbb	0.006820408
242	0xbc1e0a54	-0.009646017
243	0x3b55f32d	0.0032646165
244	0xbb667ca6	-0.003516951
245	0x3aec1634	0.0018011988
246	0xbb25b5be	-0.0025285329
247	0xbbd1b309	-0.0063995165
248	0xbb050a20	-0.0020300224
249	0x3bcef3b8	0.0063156746
250	0xb6a82d10	-5.012036e-06
251	0x3c3d9e00	0.011573315
252	0x3a924be1	0.001116153
253	0x3a877072	0.0010333194
254	0x3aa4e453	0.0012580253
255	0x3b2a6b5e	0.0026003937

action_model._discrete_distribution.branches.5.bias f4 [2]
0	0x3b591b78	0.0033127945
1	0xbb591b76	-0.003312794

action_model._discrete_distribution.branches.5.weight f4 [2, 256]
0	0x3c3a4108	0.011368044
1	0xbad0650c	-0.0015899255
2	0xbc0f1d47	-0.008735008
3	0xbbebf432	-0.007200741
4	0x3c90008f	0.017578391
5	0xbc131782	-0.008977773
6	0x3baf5afb	0.005351422
7	0xbc0c9ecd	-0.008582783
8	0x3b1fc50c	0.0024378924
9	0xbc1c819e	-0.0095523875
10	0x3ac06b6d	0.0014680453
11	0xbac439fa	-0.0014970892
12	0xbbeb101d	-0.0071735517
13	0x3c4e5eb9	0.012595826
14	0xbca2970e	-0.01984742
15	0xbbbca899	-0.005757403
16	0x3b41529d	0.0029498704
17	0x3bc38a49	0.0059674126
18	0x3bb4cfdd	0.0055179433
19	0x3ab68842	0.0013926106
20	0xba9b7b37	-0.0011862282
21	0x3aa4e8f4	0.0012581632
22	0xbba20c4c	-0.0049453136
23	0xbb48e0f3	-0.0030651658
24	0x3c4eb66f	0.012616738
25	0x3aea0098	0.001785296
26	0xba6299b9	-0.0008644122
27	0xbaccf8aa	-0.0015638073
28	0xbbe4b0b3	-0.006979072
29	0xbcb2e328	-0.021836832
30	0xbbbd702e	-0.005781195
31	0xbae586e1	-0.001751151
32	0x3bb8175c	0.005618019
33	0x3c206612	0.00978996
34	0x3c7e7707	0.015531308
35	0x3b712459	0.0036795347
36	0xbb1e7d2d	-0.0024183497
37	0x3b086dc5	0.002081738
38	0x3c0cd649	0.008596011
39	0x3c18bdf8	0.009322636
40	0x3bcc72b4	0.0062392596
41	0x3cabcb10	0.020970851
42	0x3bba4a63	0.005685137
43	0x3c5c6f2b	0.013454239
44	0x3c8f6f48	0.017509118
45	0x39e9054e	0.00044445175
46	0xbc08b77d	-0.008344528
47	0x3bee0e34	0.0072648767
48	0xbb01d0b2	-0.001980823
49	0x3c29a694	0.010354657
50	0x3c238bad	0.009982032
51	0xbc047f1b	-0.008086945
52	0x3a41acf5	0.00073881383
53	0x3bce9cba	0.0063053044
54	0xb98db9af	-0.0002703196
55	0x3bf5b05b	0.00749783
56	0xbc0209a2	-0.007936867
57	0xbc2483fe	-0.010041235
58	0xbca37cc3	-0.019956952
59	0x3c89f124	0.016838618
60	0x3b52aa58	0.003214499
61	0x3c270eb7	0.010196379
62	0x3bf21d9b	0.007388783
63	0x3b63e235	0.003477228
64	0xbc3996b5	-0.011327435
65	0x3bf698e2	0.0075255493
66	0xbb2ebf6f	-0.0026664396
67	0xbb9d9a0c	-0.0048096236
68	0x3bb27df7	0.005447145
69	0xbc36a8b2	-0.0111486185
70	0xbc336f43	-0.01095182
71	0xbc115ee9	-0.008872726
72	0x3a88d7bf	0.0010440274
73	0xbb1143dd	-0.0022165694
74	0x3b373f2f	0.0027961244
75	0xbbf67fee	-0.0075225746
76	0x3b00dcbe	0.0019662823
77	0xbc27fb0c	-0.010252725
78	0xbb3d2bcf	-0.0028865223
79	0x3a58cc40	0.0008270182
80	0xbb3087fc	-0.0026936522
81	0xbb7fb258	-0.0039016213
82	0x3ba124d1	0.004917719
83	0xbc24bd2a	-0.010054866
84	0x3c021ecd	0.007941914
85	0x3bd7d1ad	0.0065862746
86	0xbc189199	-0.009312057
87	0xbbf2c62e	-0.0074088788
88	0x3c5b6aa8	0.013392128
89	0x3949a127	0.00019228888
90	0xbb0beb92	-0.0021350128
91	0x3c059b9b	0.008154775
92	0xbc0586c3	-0.0081498055
93	0xbc5e99b0	-0.013586447
94	0x3afae9c8	0.0019143159
95	0x3ccb2a24	0.024800368
96	0x3bd15058	0.0063877515
97	0xbc0d6c17	-0.008631728
98	0x3cdb4eff	0.026771067
99	0x3bc98a73	0.0061505376
100	0x3b2db82e	0.0026507485
101	0x3c3d4576	0.011552205
102	0x3c41b482	0.011822822
103	0xbc3f40ec	-0.011673193
104	0xbbd0e7f4	-0.006375307
105	0x3c38f809	0.011289605
106	0x3a7951ce	0.0009510786
107	0x3badbfde	0.0053024134
108	0x3b673991	0.0035282115
109	0x3c27e0c2	0.0102464575
110	0x3c0c0135	0.00854521
111	0x3acc7192	0.0015597811
112	0x3c7a2c9d	0.015269426
113	0xbbaf3028	-0.005346317
114	0xbbe0a1f2	-0.006855243
115	0x3b9c2692	0.00476534
116	0xbc2c0e65	-0.010501479
117	0x3b853d7f	0.004066169
118	0xbc1da425	-0.009621655
119	0x3c69eaca	0.0142771695
120	0xbba36975	-0.0049869367
121	0xbc0b7421	-0.008511574
122	0x3bcb57b8	0.0062055252
123	0xb9e316b6	-0.00043313735
124	0x3c8ca77a	0.017169703
125	0x3bc25eb4	0.0059316996
126	0xba306ef9	-0.00067304034
127	0x3c2d82c7	0.010590262
128	0x3bf74821	0.00754644
129	0x3c010ac8	0.007876106
130	0x3ae0f189	0.0017161827
131	0x3bb413da	0.0054955306
132	0xbb30c34b	-0.0026971872
133	0x3b2c21fb	0.002626537
134	0x3b4e43c9	0.0031473509
135	0xba527917	-0.0008028908
136	0x3c5b0173	0.013367045
137	0x3bcc7102	0.0062390575
138	0x3a80fd88	0.0009841183
139	0xbbbdca78	-0.0057919584
140	0xbbfc77a8	-0.007704694
141	0x3c292b80	0.010325313
142	0x3a878866	0.0010340333
143	0x3c5811e4	0.013187859
144	0xb7df9898	-2.6654729e-05
145	0x3bd2c7b5	0.0064324983
146	0x3a3c8724	0.00071917684
147	0x396275c6	0.00021596914
148	0xbc628305	-0.013825183
149	0xbbd79c9c	-0.0065799486
150	0xbc71dd8a	-0.014762292
151	0x3beda317	0.007252108
152	0xba85c7aa	-0.0010206599
153	0x3c374334	0.011185456
154	0x3b250f6c	0.0025186194
155	0xbc2e771b	-0.010648514
156	0x3b463cc1	0.0030248614
157	0x3a5e1868	0.0008472265
158	0xbbf5cfc8	-0.007501576
159	0xbb18fb48	-0.0023343135
160	0x3c862011	0.016372712
161	0xbbc33273	-0.0059569417
162	0x3b90e5e3	0.004421936
163	0x3c0a2abd	0.008433041
164	0x3a8c5675	0.0010706919
165	0xbb943fbe	-0.0045242
166	0x3c9b219c	0.018936925
167	0xbb868939	-0.0041057137
168	0x3bff8de3	0.0077988966
169	0x3c0774c8	0.008267589
170	0xbba97a4d	-0.00517205
171	0xba4b2d83	-0.0007750617
172	0x3bb83520	0.0056215674
173	0x3befc413	0.007317075
174	0x3c464dc4	0.012103502
175	0x3af5cdcd	0.001875335
176	0x3b665551	0.0035146067
177	0x3bdb04c5	0.006683918
178	0x3ac5a5f7	0.0015079369
179	0x3b6836fb	0.0035433162
180	0x3b86b161	0.0041105007
181	0xbbb8b9c8	-0.005637381
182	0x3bf13785	0.007361355
183	0x3c563fd8	0.013076745
184	0x3c53b330	0.01292114
185	0x3b822801	0.003972054
186	0xbc1a8721	-0.009431631
187	0xbc8a1903	-0.01685763
188	0x3bd13cb5	0.0063854107
189	0xbbe5e31b	-0.0070155985
190	0x3bf1335d	0.0073608593
191	0x3bdb8f85	0.0067004585
192	0xbc398c4b	-0.011324952
193	0x3c09f7bf	0.008420884
194	0xbc6cbf08	-0.014449842
195	0x3b7cf4b1	0.0038597996
196	0x3b9293da	0.0044731917
197	0xbbea4369	-0.007149149
198	0xbbc92838	-0.0061388277
199	0xbc2f0dc4	-0.010684434
200	0x3b46887d	0.0030293756
201	0x3b2f2c14	0.0026729153
202	0xbc10911c	-0.008823659
203	0x3c1ace0c	0.0094485395
204	0xbb0719c7	-0.002061473
205	0x3ad07fec	0.0015907264
206	0xbb9b0489	-0.0047307652
207	0xbab2ec1d	-0.001365069
208	0x3c18ac76	0.009318462
209	0xb7901b94	-1.717898e-05
210	0xbc32ad12	-0.010905521
211	0xbbb8af2e	-0.0056361174
212	0x3c18efe9	0.009334543
213	0x3b36ab5b	0.0027873132
214	0xbc07373e	-0.008252917
215	0x3b97c95c	0.004632158
216	0xbc0ca228	-0.008583583
217	0xbc6dcbc3	-0.014513913
218	0xba5198a6	-0.00079954637
219	0xbc1347f2	-0.008989321
220	0x3c2f59a9	0.010702529
221	0x3be6f8d8	0.0070487075
222	0x3c153b4a	0.009108374
223	0x3b846372	0.004040175
224	0x3c118fd5	0.00888439
225	0x3c5469a0	0.012964636
226	0xbab00fbb	-0.0013432422
227	0x3bc4187f	0.0059843655
228	0x3b9d8e25	0.0048082047
229	0x3bca2c92	0.006169864
230	0x3a657551	0.0008753138
231	0x3c4e7ef0	0.012603506
232	0xb9106924	-0.00013772078
233	0x3bc61123	0.0060445233
234	0xbc53e5e5	-0.012933229
235	0x3bf98584	0.0076147933
236	0xbc8e0be8	-0.017339662
237	0x3c222ae9	0.009897926
238	0xbaa11e41	-0.0012292342
239	0x39fce5b9	0.00048236342
240	0x3b5bcad8	0.0033537652
241	0xbc10d7e6	-0.008840537
242	0x3bc1da7e	0.005915939
243	0x3c38991f	0.011266976
244	0xbc8f2c77	-0.017477257
245	0x3c5cdf7f	0.01348102
246	0x3ba0dfcc	0.004909491
247	0x3c0553ef	0.008137687
248	0x3c2cec4d	0.010554385
249	0xbb14f8bf	-0.0022731272
250	0xbc33e40d	-0.0109796645
251	0x3bbde662	0.005795286
252	0xba567452	-0.0008180785
253	0x3bc96109	0.0061456007
254	0x3a8fb86f	0.0010965
255	0x3c2ddb39	0.010611349

discrete_action_output_shape f4 [1, 6]
0	0x40400000	3.0
1	0x40400000	3.0
2	0x40000000	2.0
3	0x40000000	2.0
4	0x40000000	2.0
5	0x40000000	2.0

network_body._body_endoder.seq_layers.0.bias f4 [256]
0	0xbb93ab35	-0.0045064935
1	0x3a59a08c	0.00083018164
2	0x3b507806	0.003180982
3	0x3b9f704c	0.0048656818
4	0xbadfbb75	-0.0017069416
5	0x3b920707	0.004456404
6	0xbb11a9e3	-0.0022226505
7	0xbb871a49	-0.0041230065
8	0xbb0780d2	-0.0020676148
9	0x3b753121	0.0037413316
10	0xbbff0358	-0.007782381
11	0x3b3fdc90	0.0029275753
12	0x3c01f94e	0.007932974
13	0xbb08194c	-0.0020767031
14	0xbb18b98b	-0.0023303952
15	0xbb806ae5	-0.003918993
16	0x3b0f546c	0.0021870388
17	0x3bad7657	0.005293648
18	0x3a8ab79b	0.0010583283
19	0xbb0b4f67	-0.0021257044
20	0xba7946ed	-0.0009509165
21	0x3b59272d	0.0033134923
22	0xbb4855de	-0.003056876
23	0xbbdd54b6	-0.006754483
24	0xba30aabf	-0.00067393103
25	0xbaa6e3d1	-0.001273269
26	0xbaa5a037	-0.0012636249
27	0xbbcb7deb	-0.006210079
28	0xbb28ca3d	-0.002575531
29	0xbb456275	-0.00301185
30	0x39c06d58	0.0003670256
31	0xb88d0eaa	-6.726135e-05
32	0xbaaf95f2	-0.0013396128
33	0x3ae05624	0.0017115516
34	0xbaf46b2c	-0.0018647662
35	0xbbb3addb	-0.0054833717
36	0xbba9d447	-0.005182776
37	0xbb5df98e	-0.003387067
38	0x3bc05299	0.0058692214
39	0xb7a75cd0	-1.995117e-05
40	0x3bc7ea7a	0.00610095
41	0xbb4c8db7	-0.0031212398
42	0x3b14bfa5	0.0022697237
43	0xbb5876b3	-0.0033029735
44	0xbbd9f679	-0.0066516963
45	0xbb4d01b8	-0.0031281542
46	0x3c013eef	0.00788854
47	0xbb3a35e6	-0.0028413474
48	0xbb2fb95d	-0.0026813366
49	0xbb004a93	-0.00195757
50	0x3a46b6ac	0.0007580321
51	0xbb07bd5b	-0.002071223
52	0xbb233b4d	-0.0024907172
53	0xbaabb7ff	-0.00131011
54	0x3c11e472	0.008904563
55	0xb933d761	-0.00017151005
56	0xb9fd24bf	-0.00048283298
57	0x3b070c22	0.0020606597
58	0xbb46e218	-0.0030347165
59	0xbb4944c1	-0.0030711147
60	0x3b24a4b1	0.0025122578
61	0xbae65b49	-0.0017574813
62	0x388bf150	6.6729845e-05
63	0x395cd411	0.00021059836
64	0x3c185924	0.0092985965
65	0xb79c4c78	-1.8632258e-05
66	0xbc13b40d	-0.009015095
67	0xbb950e7d	-0.0045488463
68	0x3bcf742f	0.006330989
69	0xba35b539	-0.00069316063
70	0x3b9fccd7	0.0048767137
71	0xbc0f78a6	-0.008756792
72	0xb99654a3	-0.0002867329
73	0xbb34fde5	-0.0027617153
74	0xbba33b50	-0.004981436
75	0xbba87031	-0.0051403274
76	0xbb45013c	-0.003006055
77	0xbbe6b3a3	-0.0070404573
78	0x3a2eef30	0.0006673215
79	0xbacc2445	-0.0015574774
80	0xbbee95af	-0.0072810273
81	0xbb86385b	-0.0040960736
82	0x3c023fa9	0.007949748
83	0xbb1fc3ee	-0.0024378258
84	0x3aa90917	0.0012896386
85	0x3c10607f	0.008812069
86	0xbb7b9707	-0.003838958
87	0xbc09e854	-0.008417208
88	0x3bf831c3	0.0075742914
89	0xbbac5d20	-0.005260125
90	0xbb693fca	-0.0035591
91	0x3a1718e3	0.0005763901
92	0xbbc7167c	-0.0060756784
93	0xbad9f1d3	-0.0016627855
94	0xbaa88655	-0.0012857417
95	0x3aa801d8	0.0012817932
96	0xbafd37ac	-0.001931896
97	0xbb07c1a9	-0.0020714796
98	0xbb579784	-0.0032896707
99	0x39b75054	0.0003496433
100	0xbb76258c	-0.0037559
101	0x3b5060e5	0.0031796035
102	0xbb9c91c8	-0.0047781207
103	0x3bc673e2	0.006056295
104	0xbb20997a	-0.0024505542
105	0xbae09a55	-0.0017135838
106	0x3b1590dd	0.002282194
107	0xbb45dbf5	-0.003019092
108	0xbaf6800b	-0.001880647
109	0xbb3ed261	-0.0029117095
110	0xb835cd48	-4.3344946e-05
111	0x3b7fb1f3	0.0039015978
112	0x38e291c9	0.000108036744
113	0x3a91fe69	0.0011138442
114	0x3b4e8196	0.0031510345
115	0x3a81ca55	0.0009902219
116	0xbc1a4768	-0.009416439
117	0x3ba95356	0.005167405
118	0x3a312cc3	0.0006758684
119	0xbbf85a0e	-0.0075790947
120	0xb80b00fa	-3.3141092e-05
121	0xba6233d0	-0.00086289365
122	0xbb2f2d12	-0.0026729745
123	0xba1ccf90	-0.0005981857
124	0xbb164f17	-0.0022935325
125	0x3b82a5e5	0.0039870613
126	0xba8c48a9	-0.0010702807
127	0xb9bf5866	-0.0003649622
128	0xbb8378ab	-0.0040121875
129	0x38090866	3.2671167e-05
130	0xbbfcb1fe	-0.007711648
131	0x3bcf8f68	0.006334234
132	0x3b69722e	0.0035621035
133	0xbb837253	-0.0040114312
134	0x3ab489c2	0.0013773965
135	0xbb383213	-0.0028106018
136	0x399864ba	0.00029066746
137	0xbb260aa6	-0.0025335937
138	0xb9b5c6d3	-0.00034671146
139	0xbc0164ba	-0.00789755
140	0xbb006d22	-0.0019596298
141	0xbb94399d	-0.0045234696
142	0xba9dd1c3	-0.0012040663
143	0xbb81e3d6	-0.0039639277
144	0x3bee59fc	0.0072739106
145	0xb998240c	-0.00029018556
146	0xbb4f44a4	-0.0031626606
147	0xbb879bd4	-0.004138449
148	0xba1b9111	-0.00059343973
149	0x3b364295	0.0027810682
150	0xbb637d09	-0.0034711978
151	0xbc23ee09	-0.0100054825
152	0xbb9730de	-0.0046139797
153	0x39da4281	0.0004162975
154	0x3b3348b8	0.0027356576
155	0xbabc9e62	-0.0014390463
156	0x3a225ecb	0.0006193935
157	0x3b347338	0.0027534496
158	0x3b17bc53	0.0023153021
159	0xbb978275	-0.004623706
160	0xbb8d15f0	-0.0043055937
161	0xbba39b14	-0.004992852
162	0x3b8b3152	0.004247823
163	0xbb54afad	-0.0032453344
164	0x3baf66a1	0.0053528105
165	0x3a25947c	0.00063163764
166	0x3b888040	0.004165679
167	0x3982e29a	0.00024964364
168	0xbb2c3adc	-0.00262802
169	0xbb2d5e04	-0.0026453743
170	0xbb8c6ad9	-0.004285198
171	0xbb962652	-0.004582205
172	0x3b4d0aa2	0.0031286855
173	0x3b977218	0.0046217553
174	0x3abeca67	0.001455617
175	0xba18dfc8	-0.0005831686
176	0xbb3ccdb8	-0.0028809141
177	0xbba6cad4	-0.005090097
178	0xbaef0c78	-0.0018237969
179	0xbbdfd871	-0.0068312217
180	0xbb313e0d	-0.0027045042
181	0x3be172a5	0.006880122
182	0xbb425cc8	-0.0029657353
183	0x3b0af13a	0.002120091
184	0xbb37ccbf	-0.0028045622
185	0xbbb898fc	-0.0056334715
186	0x39670ecd	0.0002203539
187	0x3bce49b0	0.0062954053
188	0xbb8d5082	-0.004312576
189	0xbb18d7fb	-0.0023322094
190	0xbb4512bb	-0.0030070979
191	0x39d5c5cd	0.000407739
192	0xbbaa91a5	-0.0052053505
193	0xbb1c00ca	-0.0023804181
194	0xbbd09c4c	-0.0063662883
195	0xbbd6e418	-0.0065579526
196	0x3a0b037b	0.0005302948
197	0x3b96663f	0.0045898254
198	0xbb877e7c	-0.004134951
199	0xbb3e57b5	-0.0029043977
200	0xba92567e	-0.0011164693
201	0xbc0c01e7	-0.008545375
202	0xbad733ab	-0.0016418596
203	0xbb499332	-0.0030757901
204	0x3b4033c1	0.0029327723
205	0x3a751239	0.00093487237
206	0xba522d25	-0.00080175913
207	0xba62459d	-0.0008631589
208	0x3725bfd8	9.8794335e-06
209	0xbbe3481a	-0.0069360854
210	0xba22aeda	-0.00062058645
211	0xbbe3f745	-0.006956967
212	0xbb31aa5d	-0.00271096
213	0xbb636c4a	-0.0034701996
214	0xb8a885f6	-8.0358164e-05
215	0xbb800454	-0.003906766
216	0xba872079	-0.001030936
217	0xbb1c2976	-0.0023828424
218	0x3a4d9633	0.0007842511
219	0xba197454	-0.0005853821
220	0xbb023045	-0.0019865197
221	0xba2a1b78	-0.00064890785
222	0xbbb1d8f2	-0.005427473
223	0xbad746e2	-0.0016424323
224	0xbbc874a6	-0.006117421
225	0x38b3b0c4	8.56831e-05
226	0x39a9ee9b	0.00032411967
227	0xbb73118f	-0.0037089323
228	0xbb108c82	-0.0022056405
229	0xbbdcfd4e	-0.0067440635
230	0xbb77013c	-0.0037689945
231	0xbb0b54a9	-0.0021260178
232	0xbadf5d14	-0.0017041289
233	0x3a20c6b4	0.00061331247
234	0xbaa93955	-0.0012910763
235	0xba9dc713	-0.0012037478
236	0xbc149247	-0.009068078
237	0x3b1c195f	0.0023818833
238	0x3b50d9bc	0.003186806
239	0x3b966cae	0.0045905923
240	0xbaa7819a	-0.0012779713
241	0x3b297c01	0.0025861266
242	0x3a146fae	0.00056623935
243	0xbb881049	-0.004152332
244	0xbb73d6e1	-0.0037206935
245	0x3ad18006	0.0015983589
246	0xb962a6fb	-0.00021615245
247	0xbaadd638	-0.0013262695
248	0xbb6ef543	-0.0036462105
249	0xbb985306	-0.004648569
250	0x3bcea5a7	0.0063063684
251	0x3a87c71c	0.0010359022
252	0xba78c737	-0.00094901345
253	0xbae504b8	-0.001747272
254	0x39b9b040	0.00035417266
255	0x39b69083	0.00034821415
