results/Run3/Agent3.onnx (onnx, 923545 bytes, 19 tensors)

discrete_action_output_shape f4 [1, 6]
00000000: 0000 4040 0000 4040 0000 0040 0000 0040
00000010: 0000 0040 0000 0040
3.0 3.0 2.0 2.0 2.0 2.0

network_body._body_endoder.seq_layers.0.weight f4 [256, 366]
00000000: 734d 393d c81a 9abc 7cfa b53c 596d 623b
00000010: cdde 81bc 8eac 7d3c 471f 893c 0a83 f83c
00000020: f3b6 99bc e217 153d 4471 b9bd 1649 283d
00000030: 9600 ccbc 0f73 533c 6428 953b 52d5 06bc
00000040: 8fce b5bd bf1b acbc 3bd5 60bc cc1b b4bc
00000050: 839e 3b3d 63b5 84bc 6a63 98bd 3aca f2bd
00000060: 5d31 dabc c4ca 933b f6d8 a1bd 2af5 f1bd
00000070: fba2 143d e533 1abd fd18 bbbc 182e d03d
00000080: 5720 e0bb e045 13bd d647 69bd 5b6d d33d
00000090: e369 513d c143 253c d0fc 0a3c 4f93 6b3c
000000a0: 2238 23bd 441e f5bd b51f 753d 9126 773d
000000b0: 715a 753d d126 773d 1b75 17bc bce7 4a3c
000000c0: 9309 e9bd abc5 703d 8457 ffbc 9a2f 313b
000000d0: 60e6 563d 92ad 2abd eb96 5d3d ba36 8dbc
000000e0: d2fc 633c 8922 a33d 464c ecbc efd0 23bd
000000f0: 623d 91bd da7d 213d dec9 93bd 57c9 9dbd
00000100: aa02 2d3d 3b0d 0e3c a5b3 a5bd 869f d63b
00000110: 54cb 0e3b 603e 863c 4cef 32bc 340e e83d
00000120: 4c52 8fbc 979a 103d 9453 c33c 500f a13d
00000130: ec24 32bd 90ce 59bd 126f ab3b e03a 9d3c
00000140: f8cd 913d c326 e43d cb47 443d bd14 df3d
00000150: f1e4 d7bd 89cc 1bbd 87ca 3c3d 482a d0bc
00000160: 49cf c8bd 7e6f de3c c4fa 8f3c b08a b03d
00000170: a1d7 73bd d78f c3bc 9470 51bc 6b68 02bb
00000180: bf31 86bd a225 aa3d 5aad 0a3e 5b73 39bb
00000190: be25 123d d844 a43c f8b1 fabb 0d2f f1bc
000001a0: fcb6 5e3d 2f95 4dba f1f6 213d ae2a e33d
000001b0: a17f d2bc 102c 453c 3ce7 803d 0428 7a3d
000001c0: 7ddd 86bc 975f c4bc d80e 05be d9c4 45bb
000001d0: 572d 6abd 5a50 c9ba 7b1a e33d 6374 423d
000001e0: bf78 40ba 6f19 28be cce9 083d 0c08 85bd
000001f0: 692b c5bd 3b4f f63c 8691 09bd 6fa5 833d
00000200: 1303 e23c 0b58 163b 1c8b b3bd 7204 e9bd
00000210: 68c4 8bbd 99c4 1b3d 5336 9fbb e1f7 05bd
00000220: 7247 003c 983f 323d 2829 43bd 0398 4a3d
00000230: 2718 74bd 5336 47bc 59e8 313d a6ec 6e3d
00000240: b31e 883d 6886 0dbd f79c 02be f657 313c
00000250: 3047 aa3d 979d a63d 44fe 6abd d262 083d
00000260: 3f53 e7bb 00ae e9ba 3081 f5bb b3cf 863c
00000270: c930 493e fbc7 99bd 376c 7a3d 4e89 01bd
00000280: d3a5 943c 39a0 203c 1e21 0c3d cf4f ffbd
00000290: 7633 393c b491 4ebd 6794 ee3c 44ec 34bb
000002a0: 9022 b53c 8054 9dba 3da2 943d a0a2 e9bb
000002b0: ea52 c03c d054 853d f145 11bc 8d31 24bd
000002c0: 5dd6 093d 0e95 173c d2ce debc 43fb 1b3e
000002d0: 7d58 a43b 6c99 07be a38d d9bc 49f8 51bd
000002e0: 43bf 35bd 2100 a13d 0aa9 033d 2105 4fbd
000002f0: 6e82 c73c 5986 1dbb 8c16 3f3d 3521 84bd
00000300: 337e 6e3d bec8 323d 4f48 cb3d 0f57 ed3c
00000310: 3c3d e3bc 8d2e e03c 49cb 963d 5445 843d
00000320: 7c62 a7ba 4dec 10bd c93c 033d aa62 b93c
00000330: 4d8e 863d ebd9 923c a10d 983c adc0 7cbc
00000340: ff3f 623d e931 203d 3b51 693c 2678 c13c
00000350: b275 2e3d 788a 523d 82f4 2cbd ad85 d43d
00000360: 28f5 ab3b 8668 d13d eb22 863d 83e0 28bd
00000370: 70cf 35bd 05bf 7dbb cd9a 98bc adb5 0cbd
00000380: 1de6 70bd d47a d63c d6c5 cc3c 6b89 703c
00000390: 3261 163d 40cf 263d 9a73 513d ff4c a03d
000003a0: 70b4 01bc 5ee1 8bbd a872 24bc 957a 2ebd
000003b0: 1e8f 1cbc ffc4 1bbd 540b 85bd b0d6 8fbd
000003c0: 0d50 7fbd ffc8 0ebc 42db 2bbd 032d 05bd
000003d0: 20da d13d b851 9abc 0916 da3c fbac a63b
000003e0: b870 dc3c 09e4 79bd ae9f 6cbd 9ae2 75bd
000003f0: f7a6 1e3c 2f76 b7bc 9714 303d 72e5 7d3d
0.045239877 -0.018811598 0.022214167 0.003455004 -0.01585331 0.015483035 0.016738547 0.030335922
-0.018763995 0.03639973 -0.09054807 0.041085325 -0.024902623 0.01290585 0.004551934 -0.00822957
-0.088772886 -0.021009324 -0.013722713 -0.02198591 0.045805465 -0.016199773 -0.07440837 -0.11854978
-0.026634866 0.0045102555 -0.0790271 -0.118143395 0.036288243 -0.037647147 -0.022839064 0.10165042
-0.0068397927 -0.03595531 -0.056953274 0.10323592 0.051126372 0.010086955 0.008483127 0.014378383
-0.039848454 -0.11968663 0.05984469 0.060339514 0.059900705 0.060339753 -0.009244229 0.012384351
-0.11378779 0.05878226 -0.03116966 0.002703643 0.052465796 -0.041669436 0.054099005 -0.01723801
0.0139152575 0.079655714 -0.028844964 -0.039994176 -0.07091786 0.039426662 -0.072162375 -0.07704418
0.04223887 0.008670147 -0.08090905 0.0065497784 0.0021788673 0.016387165 -0.010921311 0.11330834
-0.017495297 0.03530368 0.023843564 0.07864249 -0.043492243 -0.05317551 0.0052317465 0.019193113
0.071193635 0.11140206 0.04792003 0.108926274 -0.10541714 -0.038036857 0.046091583 -0.025410786
-0.098051615 0.027152773 0.017575629 0.086202025 -0.05953181 -0.0238723 -0.012783188 -0.0019898664
-0.06552457 0.08307959 0.13542691 -0.0028297517 0.035680525 0.020052359 -0.00765061 -0.02944138
0.054373726 -0.00078423595 0.039542142 0.11092125 -0.025695624 0.012034431 0.062941045 0.061073318
-0.016463036 -0.023971362 -0.12993944 -0.0030177145 -0.057172146 -0.001535903 0.11089035 0.047474276
-0.00073422113 -0.16415952 0.03342609 -0.064956754 -0.096274205 0.030067077 -0.033586048 0.06428038
0.027589357 0.0022940661 -0.087667674 -0.11377801 -0.06824571 0.038029287 -0.004858771 -0.0327071
0.007829534 0.04351768 -0.04764667 0.049461376 -0.059593346 -0.012158948 0.043434475 0.058331154
0.066464804 -0.034552008 -0.1275519 0.010824194 0.08314359 0.081355266 -0.057371393 0.033297367
-0.0070594843 -0.0017828345 -0.007492207 0.01645646 0.19647516 -0.07508846 0.061138358 -0.031625085
0.018145477 0.009803825 0.03421127 -0.12466394 0.011303773 -0.050431922 0.029123498 -0.0027606646
0.022111207 -0.0012003332 0.07257507 -0.007129982 0.023477037 0.06510317 -0.008866773 -0.040086318
0.0336517 0.009251846 -0.027198229 0.15232567 0.0050154314 -0.1324212 -0.026556795 -0.051262174
-0.044371855 0.07861353 0.03214363 -0.050542 0.024354186 -0.0024036376 0.04665236 -0.06451646
0.05822582 0.043648474 0.09925901 0.028972177 -0.02773916 0.027365947 0.07362992 0.06458536
-0.001277044 -0.035381604 0.03204039 0.022630055 0.065701105 0.017926177 0.018561186 -0.015426797
0.055236813 0.039110098 0.014240558 0.023616862 0.04259271 0.051401585 -0.04222537 0.10377059
0.0052477308 0.102250144 0.06549629 -0.041229736 -0.04438728 -0.0038718593 -0.018628502 -0.034352947
-0.058813203 0.026181616 0.02499668 0.0146812005 0.036713786 0.040724993 0.051135637 0.07827186
-0.007916555 -0.06830095 -0.010037102 -0.042597372 -0.009555606 -0.038029667 -0.06496301 -0.0702337
-0.0623322 -0.008714913 -0.041957147 -0.03251363 0.10246682 -0.018837795 0.026621835 0.005086539
0.026909217 -0.061008487 -0.05776947 -0.060030557 0.009683362 -0.022395222 0.042988386 0.061986394

network_body._body_endoder.seq_layers.0.bias f4 [256]
00000000: 0000 0000 0000 0000 0000 0000 0000 0000
00000010: 0000 0000 0000 0000 0000 0000 0000 0000
00000020: 0000 0000 0000 0000 0000 0000 0000 0000
00000030: 0000 0000 0000 0000 0000 0000 0000 0000
00000040: 0000 0000 0000 0000 0000 0000 0000 0000
00000050: 0000 0000 0000 0000 0000 0000 0000 0000
00000060: 0000 0000 0000 0000 0000 0000 0000 0000
00000070: 0000 0000 0000 0000 0000 0000 0000 0000
00000080: 0000 0000 0000 0000 0000 0000 0000 0000
00000090: 0000 0000 0000 0000 0000 0000 0000 0000
000000a0: 0000 0000 0000 0000 0000 0000 0000 0000
000000b0: 0000 0000 0000 0000 0000 0000 0000 0000
000000c0: 0000 0000 0000 0000 0000 0000 0000 0000
000000d0: 0000 0000 0000 0000 0000 0000 0000 0000
000000e0: 0000 0000 0000 0000 0000 0000 0000 0000
000000f0: 0000 0000 0000 0000 0000 0000 0000 0000
00000100: 0000 0000 0000 0000 0000 0000 0000 0000
00000110: 0000 0000 0000 0000 0000 0000 0000 0000
00000120: 0000 0000 0000 0000 0000 0000 0000 0000
00000130: 0000 0000 0000 0000 0000 0000 0000 0000
00000140: 0000 0000 0000 0000 0000 0000 0000 0000
00000150: 0000 0000 0000 0000 0000 0000 0000 0000
00000160: 0000 0000 0000 0000 0000 0000 0000 0000
00000170: 0000 0000 0000 0000 0000 0000 0000 0000
00000180: 0000 0000 0000 0000 0000 0000 0000 0000
00000190: 0000 0000 0000 0000 0000 0000 0000 0000
000001a0: 0000 0000 0000 0000 0000 0000 0000 0000
000001b0: 0000 0000 0000 0000 0000 0000 0000 0000
000001c0: 0000 0000 0000 0000 0000 0000 0000 0000
000001d0: 0000 0000 0000 0000 0000 0000 0000 0000
000001e0: 0000 0000 0000 0000 0000 0000 0000 0000
000001f0: 0000 0000 0000 0000 0000 0000 0000 0000
00000200: 0000 0000 0000 0000 0000 0000 0000 0000
00000210: 0000 0000 0000 0000 0000 0000 0000 0000
00000220: 0000 0000 0000 0000 0000 0000 0000 0000
00000230: 0000 0000 0000 0000 0000 0000 0000 0000
00000240: 0000 0000 0000 0000 0000 0000 0000 0000
00000250: 0000 0000 0000 0000 0000 0000 0000 0000
00000260: 0000 0000 0000 0000 0000 0000 0000 0000
00000270: 0000 0000 0000 0000 0000 0000 0000 0000
00000280: 0000 0000 0000 0000 0000 0000 0000 0000
00000290: 0000 0000 0000 0000 0000 0000 0000 0000
000002a0: 0000 0000 0000 0000 0000 0000 0000 0000
000002b0: 0000 0000 0000 0000 0000 0000 0000 0000
000002c0: 0000 0000 0000 0000 0000 0000 0000 0000
000002d0: 0000 0000 0000 0000 0000 0000 0000 0000
000002e0: 0000 0000 0000 0000 0000 0000 0000 0000
000002f0: 0000 0000 0000 0000 0000 0000 0000 0000
00000300: 0000 0000 0000 0000 0000 0000 0000 0000
00000310: 0000 0000 0000 0000 0000 0000 0000 0000
00000320: 0000 0000 0000 0000 0000 0000 0000 0000
00000330: 0000 0000 0000 0000 0000 0000 0000 0000
00000340: 0000 0000 0000 0000 0000 0000 0000 0000
00000350: 0000 0000 0000 0000 0000 0000 0000 0000
00000360: 0000 0000 0000 0000 0000 0000 0000 0000
00000370: 0000 0000 0000 0000 0000 0000 0000 0000
00000380: 0000 0000 0000 0000 0000 0000 0000 0000
00000390: 0000 0000 0000 0000 0000 0000 0000 0000
000003a0: 0000 0000 0000 0000 0000 0000 0000 0000
000003b0: 0000 0000 0000 0000 0000 0000 0000 0000
000003c0: 0000 0000 0000 0000 0000 0000 0000 0000
000003d0: 0000 0000 0000 0000 0000 0000 0000 0000
000003e0: 0000 0000 0000 0000 0000 0000 0000 0000
000003f0: 0000 0000 0000 0000 0000 0000 0000 0000
0.0 0.0 0.0 0.0 0.0 0.0 0.0 0.0
0.0 0.0 0.0 0.0 0.0 0.0 0.0 0.0
0.0 0.0 0.0 0.0 0.0 0.0 0.0 0.0
0.0 0.0 0.0 0.0 0.0 0.0 0.0 0.0
0.0 0.0 0.0 0.0 0.0 0.0 0.0 0.0
0.0 0.0 0.0 0.0 0.0 0.0 0.0 0.0
0.0 0.0 0.0 0.0 0.0 0.0 0.0 0.0
0.0 0.0 0.0 0.0 0.0 0.0 0.0 0.0
0.0 0.0 0.0 0.0 0.0 0.0 0.0 0.0
0.0 0.0 0.0 0.0 0.0 0.0 0.0 0.0
0.0 0.0 0.0 0.0 0.0 0.0 0.0 0.0
0.0 0.0 0.0 0.0 0.0 0.0 0.0 0.0
0.0 0.0 0.0 0.0 0.0 0.0 0.0 0.0
0.0 0.0 0.0 0.0 0.0 0.0 0.0 0.0
0.0 0.0 0.0 0.0 0.0 0.0 0.0 0.0
0.0 0.0 0.0 0.0 0.0 0.0 0.0 0.0
0.0 0.0 0.0 0.0 0.0 0.0 0.0 0.0
0.0 0.0 0.0 0.0 0.0 0.0 0.0 0.0
0.0 0.0 0.0 0.0 0.0 0.0 0.0 0.0
0.0 0.0 0.0 0.0 0.0 0.0 0.0 0.0
0.0 0.0 0.0 0.0 0.0 0.0 0.0 0.0
0.0 0.0 0.0 0.0 0.0 0.0 0.0 0.0
0.0 0.0 0.0 0.0 0.0 0.0 0.0 0.0
0.0 0.0 0.0 0.0 0.0 0.0 0.0 0.0
0.0 0.0 0.0 0.0 0.0 0.0 0.0 0.0
0.0 0.0 0.0 0.0 0.0 0.0 0.0 0.0
0.0 0.0 0.0 0.0 0.0 0.0 0.0 0.0
0.0 0.0 0.0 0.0 0.0 0.0 0.0 0.0
0.0 0.0 0.0 0.0 0.0 0.0 0.0 0.0
0.0 0.0 0.0 0.0 0.0 0.0 0.0 0.0
0.0 0.0 0.0 0.0 0.0 0.0 0.0 0.0
0.0 0.0 0.0 0.0 0.0 0.0 0.0 0.0

network_body._body_endoder.seq_layers.2.weight f4 [256, 256]
00000000: 8f60 853c ebb1 f13c f771 f93d 1226 bc3c
00000010: 620b 00be 0006 e6bd bc62 9f3c 83e0 67bd
00000020: fde9 05bd 5dd3 543c a3af 0fbd 3dca bdbd
00000030: 26cb babc 2076 0abe 37c7 303d 25a5 343d
00000040: 5d81 d33c 8a53 883b f812 13be e2c2 46bd
00000050: 0651 0dbd e8c3 9b3d ab12 e23c c4fe b1bd
00000060: 777a ca3d 00ea 1f3d 9d89 603d dcfa 35bd
00000070: b0e7 773d a9a8 643d d8c0 64bc e5b9 533d
00000080: f304 123d 7b0f a63c d262 09bd a053 4dbd
00000090: a393 843d e509 36bd f318 f139 1afa 003d
000000a0: 5b7c 803d bb62 db3d 9e99 38bd 4112 cabc
000000b0: 3a4d 3e3d d2c5 2fbd 3ad2 81bc 3c5f 8d3d
000000c0: b013 e23d 543a a03d b5fe bbbd 4309 4cbd
000000d0: 403f c83d 7391 1dbd 9ef3 32be 9151 223b
000000e0: 0e25 633c 49fd 283b 586d dcbc 8636 7e3c
000000f0: 22a5 0bbd 8f7b 38bc 662c 97bd 0f92 c5bc
00000100: 0b57 61bd 1c11 053d 8740 acbd 89cb 59bd
00000110: db1e c33d 0c0c 01bd 8d14 1bbd 8a2c 023d
00000120: 40e2 abbc bd06 75bc f54f d0bc 5f42 00be
00000130: 5172 81bd ba2d 9cbd 38f5 0e3d 132e 203c
00000140: 42b2 99bb 4ee4 963d 042e 023c c7cc 7ebd
00000150: 90b3 f13b af58 debd 935f a6bd 5a31 8c3a
00000160: fe1e ddbc 1c25 03bd 7b82 1bbd 2689 f7bd
00000170: 5787 9abd 4bf8 433c ac50 bbbd 5d84 593d
00000180: 8916 a43d 4e73 413c 4763 853d 517d 65bd
00000190: 62d7 07bb 2cc4 91bc cd5c 803d 8258 5f3d
000001a0: 5722 3dbd 69c5 e1bc 1e35 ab3d 7375 8bbd
000001b0: e747 c43d ffc8 123d 826d 07bd bd1d 53bd
000001c0: 0548 b3bb 4863 94bd e521 7ebd 5b23 25bd
000001d0: 5063 9d3d d636 94bd b7eb 90bc 0c24 54bd
000001e0: 35f0 be3b a21a 1ebe ec8d e8bd 0b60 b3bc
000001f0: e5f0 793c 2159 03bd 5253 fa3d 2576 993d
00000200: 9df3 fd3d 3467 613d 06b4 93bd f2ab ad3d
00000210: a71a a7bd 1b97 6c3b 2c13 85bc f91e c4bc
00000220: 44a1 f63c 7139 343e e926 ecbb 4866 8c3c
00000230: 664e a63c d0d1 a03d 02e2 66bd 0ee9 44bd
00000240: c78f 45bc 7012 143d cc14 f9bd 1f3f e73d
00000250: a56a b73d 8bb7 58bd 8d16 653d d2f3 84bd
00000260: 2c7e 9fbd 963d 753d b047 9a3d 1a8e c0bd
00000270: fd35 103d 4989 97bd 9b80 bdbd 11c1 04bd
00000280: 795b 003d b657 d83b d12c c1bd f375 34bd
00000290: 9b6f 1c3d aed3 3bbc cb71 383d d194 b4bd
000002a0: e154 e7bb a479 f83c ec5b 563d 047c 963d
000002b0: 04bc 54bd c62e 1b3d 41ba 0fbd 6cfe 0d3d
000002c0: 9afa eabb 6893 66bd 3906 8e3c 8a81 713c
000002d0: 04d6 0a3c 8566 423d aa84 1b3c 7128 cdbd
000002e0: d100 03bd da30 9b3d 3d12 37bb 34c7 8c3c
000002f0: 1cc0 243d fbb2 1a3c eee2 bdbc 5d3a b3bd
00000300: be7c c3bd 9fb3 51bd 6b2f 173b 6f6b 3bbd
00000310: 1ad8 d13d 7269 5e3d 23f5 76bc 5768 5fbb
00000320: f425 f8bd c7e4 09bd 1370 31bd 4eb0 c2bd
00000330: dbd8 cfbd 3a69 3f3a 1f3d 50bc f934 313d
00000340: 000c b13d dfef 15be 50ac 54bc a874 f0bc
00000350: 2a68 123c dff2 f53d a778 373d 66fe 943d
00000360: 6ce9 60bc 43b3 e83d 4520 96bd 405f 843d
00000370: a02c f03b ee1d 983d c1a0 8dbb 42b2 77be
00000380: 63d2 18ba 783a 233c 3472 90bd 1503 97bd
00000390: 27d4 b2bb 554b 963d de01 71bd f5c7 7fbd
000003a0: 0cb0 70bc de82 c43c 2d13 4ebc c5ca 573a
000003b0: d380 86bc 1c89 a8bd 32f3 bfbd ea8e 8abc
000003c0: 59c4 ba3d 9d47 a53d 708f e9bc f69f 4e3c
000003d0: 7a7a 8ebd 3677 4f3a 4271 933c 99c8 80bd
000003e0: 7b07 6d3d 9b44 5abc 2ca7 e63c 3796 9fbd
000003f0: 63e2 b23b b6df e03c 51e4 9cbd a84b b33d
0.016281394 0.029503783 0.1217994 0.022967372 -0.12504342 -0.11231613 0.01945626 -0.056610595
-0.03269385 0.012989846 -0.03507961 -0.092670895 -0.022801947 -0.13521624 0.043158736 0.044102807
0.025818521 0.0041603493 -0.14362705 -0.0485257 -0.034501098 0.076057255 0.027596792 -0.08691171
0.098866396 0.03904152 0.05481874 -0.04442869 0.06052369 0.05582491 -0.013961993 0.051690955
0.03564925 0.020271054 -0.033541508 -0.05012858 0.06473472 -0.04444303 0.0004598569 0.031488515
0.06273719 0.10712191 -0.045068376 -0.024666907 0.046460368 -0.042913266 -0.015847314 0.0690293
0.11038911 0.07823625 -0.09179441 -0.04981352 0.09777689 -0.03846879 -0.17475745 0.0024767856
0.013863815 0.0025785735 -0.026907608 0.015515929 -0.03409303 -0.011259927 -0.07381515 -0.024117498
-0.05501465 0.03248702 -0.08410745 -0.053172622 0.095273696 -0.03150563 -0.037861396 0.031780757
-0.020981908 -0.01495522 -0.025428751 -0.12525319 -0.06320632 -0.07625909 0.034901828 0.00977661
-0.0046904394 0.073677644 0.007945541 -0.06220701 0.007376142 -0.10856759 -0.08123698 0.001069586
-0.026992317 -0.032017812 -0.037966233 -0.12086706 -0.07545345 0.011961053 -0.09146246 0.053104747
0.08012111 0.011807276 0.06513076 -0.056027714 -0.0020727743 -0.017793737 0.062677 0.054527767
-0.046175327 -0.027559953 0.08359741 -0.06809511 0.09584027 0.035836216 -0.03306342 -0.051542033
-0.005471232 -0.07245499 -0.062044043 -0.04031692 0.07684958 -0.072370216 -0.017690523 -0.05179219
0.0058269748 -0.15439847 -0.113551944 -0.021896383 0.015255188 -0.03206742 0.12222923 0.074932374
0.12399981 0.055030063 -0.07212071 0.084800616 -0.081593804 0.0036100808 -0.016244493 -0.02394055
0.030106194 0.17600037 -0.007206787 0.017138615 0.020301055 0.078525186 -0.05636788 -0.04807382
-0.012058205 0.036150396 -0.1216217 0.11291336 0.08955888 -0.052909415 0.05592971 -0.064918175
-0.07787737 0.059873186 0.075332046 -0.09402104 0.035207737 -0.07399232 -0.09253045 -0.032410685
0.031337235 0.006602253 -0.09432376 -0.044057798 0.038192373 -0.011464043 0.045030396 -0.08817447
-0.007059679 0.03033144 0.052333757 0.07347873 -0.05193712 0.037886404 -0.035089735 0.034666464
-0.0071709873 -0.05629292 0.017336952 0.014740357 0.008473877 0.04746105 0.009492079 -0.10017479
-0.0319832 0.07577677 -0.0027934455 0.017184831 0.040222272 0.009442086 -0.023179498 -0.08751366
-0.09545277 -0.05119669 0.0023069035 -0.045756754 0.10246296 0.05429978 -0.015073094 -0.003408929
-0.12116614 -0.033665445 -0.043319773 -0.09506284 -0.10148784 0.0007301752 -0.012709885 0.04326341
0.08644867 -0.14642285 -0.012980536 -0.029352501 0.008935967 0.120092146 0.044792797 0.07275085
-0.013727527 0.113623165 -0.07330374 0.0646348 0.0073295385 0.07427584 -0.004322142 -0.24189094
-0.000582969 0.0099626705 -0.070530325 -0.07373635 -0.0054574194 0.07338587 -0.05883967 -0.062446553
-0.01469041 0.023988184 -0.012577814 0.0008231814 -0.01641885 -0.082292765 -0.09372558 -0.01691385
0.091194816 0.080703 -0.02851078 0.01261138 -0.06956954 0.0007914187 0.017998341 -0.06288261
0.057868462 -0.013322021 0.028155886 -0.07792323 0.0054591163 0.027450424 -0.076607354 0.08754665

network_body._body_endoder.seq_layers.2.bias f4 [256]
00000000: 0000 0000 0000 0000 0000 0000 0000 0000
00000010: 0000 0000 0000 0000 0000 0000 0000 0000
00000020: 0000 0000 0000 0000 0000 0000 0000 0000
00000030: 0000 0000 0000 0000 0000 0000 0000 0000
00000040: 0000 0000 0000 0000 0000 0000 0000 0000
00000050: 0000 0000 0000 0000 0000 0000 0000 0000
00000060: 0000 0000 0000 0000 0000 0000 0000 0000
00000070: 0000 0000 0000 0000 0000 0000 0000 0000
00000080: 0000 0000 0000 0000 0000 0000 0000 0000
00000090: 0000 0000 0000 0000 0000 0000 0000 0000
000000a0: 0000 0000 0000 0000 0000 0000 0000 0000
000000b0: 0000 0000 0000 0000 0000 0000 0000 0000
000000c0: 0000 0000 0000 0000 0000 0000 0000 0000
000000d0: 0000 0000 0000 0000 0000 0000 0000 0000
000000e0: 0000 0000 0000 0000 0000 0000 0000 0000
000000f0: 0000 0000 0000 0000 0000 0000 0000 0000
00000100: 0000 0000 0000 0000 0000 0000 0000 0000
00000110: 0000 0000 0000 0000 0000 0000 0000 0000
00000120: 0000 0000 0000 0000 0000 0000 0000 0000
00000130: 0000 0000 0000 0000 0000 0000 0000 0000
00000140: 0000 0000 0000 0000 0000 0000 0000 0000
00000150: 0000 0000 0000 0000 0000 0000 0000 0000
00000160: 0000 0000 0000 0000 0000 0000 0000 0000
00000170: 0000 0000 0000 0000 0000 0000 0000 0000
00000180: 0000 0000 0000 0000 0000 0000 0000 0000
00000190: 0000 0000 0000 0000 0000 0000 0000 0000
000001a0: 0000 0000 0000 0000 0000 0000 0000 0000
000001b0: 0000 0000 0000 0000 0000 0000 0000 0000
000001c0: 0000 0000 0000 0000 0000 0000 0000 0000
000001d0: 0000 0000 0000 0000 0000 0000 0000 0000
000001e0: 0000 0000 0000 0000 0000 0000 0000 0000
000001f0: 0000 0000 0000 0000 0000 0000 0000 0000
00000200: 0000 0000 0000 0000 0000 0000 0000 0000
00000210: 0000 0000 0000 0000 0000 0000 0000 0000
00000220: 0000 0000 0000 0000 0000 0000 0000 0000
00000230: 0000 0000 0000 0000 0000 0000 0000 0000
00000240: 0000 0000 0000 0000 0000 0000 0000 0000
00000250: 0000 0000 0000 0000 0000 0000 0000 0000
00000260: 0000 0000 0000 0000 0000 0000 0000 0000
00000270: 0000 0000 0000 0000 0000 0000 0000 0000
00000280: 0000 0000 0000 0000 0000 0000 0000 0000
00000290: 0000 0000 0000 0000 0000 0000 0000 0000
000002a0: 0000 0000 0000 0000 0000 0000 0000 0000
000002b0: 0000 0000 0000 0000 0000 0000 0000 0000
000002c0: 0000 0000 0000 0000 0000 0000 0000 0000
000002d0: 0000 0000 0000 0000 0000 0000 0000 0000
000002e0: 0000 0000 0000 0000 0000 0000 0000 0000
000002f0: 0000 0000 0000 0000 0000 0000 0000 0000
00000300: 0000 0000 0000 0000 0000 0000 0000 0000
00000310: 0000 0000 0000 0000 0000 0000 0000 0000
00000320: 0000 0000 0000 0000 0000 0000 0000 0000
00000330: 0000 0000 0000 0000 0000 0000 0000 0000
00000340: 0000 0000 0000 0000 0000 0000 0000 0000
00000350: 0000 0000 0000 0000 0000 0000 0000 0000
00000360: 0000 0000 0000 0000 0000 0000 0000 0000
00000370: 0000 0000 0000 0000 0000 0000 0000 0000
00000380: 0000 0000 0000 0000 0000 0000 0000 0000
00000390: 0000 0000 0000 0000 0000 0000 0000 0000
000003a0: 0000 0000 0000 0000 0000 0000 0000 0000
000003b0: 0000 0000 0000 0000 0000 0000 0000 0000
000003c0: 0000 0000 0000 0000 0000 0000 0000 0000
000003d0: 0000 0000 0000 0000 0000 0000 0000 0000
000003e0: 0000 0000 0000 0000 0000 0000 0000 0000
000003f0: 0000 0000 0000 0000 0000 0000 0000 0000
0.0 0.0 0.0 0.0 0.0 0.0 0.0 0.0
0.0 0.0 0.0 0.0 0.0 0.0 0.0 0.0
0.0 0.0 0.0 0.0 0.0 0.0 0.0 0.0
0.0 0.0 0.0 0.0 0.0 0.0 0.0 0.0
0.0 0.0 0.0 0.0 0.0 0.0 0.0 0.0
0.0 0.0 0.0 0.0 0.0 0.0 0.0 0.0
0.0 0.0 0.0 0.0 0.0 0.0 0.0 0.0
0.0 0.0 0.0 0.0 0.0 0.0 0.0 0.0
0.0 0.0 0.0 0.0 0.0 0.0 0.0 0.0
0.0 0.0 0.0 0.0 0.0 0.0 0.0 0.0
0.0 0.0 0.0 0.0 0.0 0.0 0.0 0.0
0.0 0.0 0.0 0.0 0.0 0.0 0.0 0.0
0.0 0.0 0.0 0.0 0.0 0.0 0.0 0.0
0.0 0.0 0.0 0.0 0.0 0.0 0.0 0.0
0.0 0.0 0.0 0.0 0.0 0.0 0.0 0.0
0.0 0.0 0.0 0.0 0.0 0.0 0.0 0.0
0.0 0.0 0.0 0.0 0.0 0.0 0.0 0.0
0.0 0.0 0.0 0.0 0.0 0.0 0.0 0.0
0.0 0.0 0.0 0.0 0.0 0.0 0.0 0.0
0.0 0.0 0.0 0.0 0.0 0.0 0.0 0.0
0.0 0.0 0.0 0.0 0.0 0.0 0.0 0.0
0.0 0.0 0.0 0.0 0.0 0.0 0.0 0.0
0.0 0.0 0.0 0.0 0.0 0.0 0.0 0.0
0.0 0.0 0.0 0.0 0.0 0.0 0.0 0.0
0.0 0.0 0.0 0.0 0.0 0.0 0.0 0.0
0.0 0.0 0.0 0.0 0.0 0.0 0.0 0.0
0.0 0.0 0.0 0.0 0.0 0.0 0.0 0.0
0.0 0.0 0.0 0.0 0.0 0.0 0.0 0.0
0.0 0.0 0.0 0.0 0.0 0.0 0.0 0.0
0.0 0.0 0.0 0.0 0.0 0.0 0.0 0.0
0.0 0.0 0.0 0.0 0.0 0.0 0.0 0.0
0.0 0.0 0.0 0.0 0.0 0.0 0.0 0.0

network_body._body_endoder.seq_layers.4.weight f4 [256, 256]
00000000: dcd0 a73b c400 e53c e485 e9bd 772a a7bd
00000010: 8ca4 afbd 4f47 66bd 3ee2 a0bd 1837 7b3d
00000020: 1897 c4bc 8308 6fbc 3002 c43c 678d acbc
00000030: 1c5e eab7 fdc4 c6bd 20c1 eb3c 5469 1f3d
00000040: a604 0bbd bfc3 8bbd 9a1c fb3c e8e6 a33c
00000050: 3e56 be3b 6253 67bd dfbb 023d ad5c d13d
00000060: 1876 0d3d b227 aabc c505 0b3d ee40 97bb
00000070: f657 663d dc9f 4c3b 6f21 2dbb 4f6c 643c
00000080: 81d9 fdbc 0177 f13b 8b8b 933b 4637 313d
00000090: 6107 a5bd 2cda cd3c fb91 99bd 9b97 963c
000000a0: 1550 0a3e dfa3 103e 8d3c 3bbd e7b9 6cbc
000000b0: f6e0 fc3c 5295 f8bc 9b04 da3d 7c16 53bd
000000c0: c633 bbbc aeed 313d 32b7 aabc 17e6 373a
000000d0: f0b9 0b3e 6974 93bd 26c8 913d d6b2 523d
000000e0: ef9d c93d ef79 503d 0fa9 b73c bf3a 4a3c
000000f0: 07d9 df3d 90fe d73c 2ec4 b5bd a1e5 a63c
00000100: 5f0b f13c 8df4 e4bc fa38 e13d 7dd0 1ebc
00000110: b914 263d cbf5 7a3c e5cf 40bd bec8 1fbd
00000120: 79e3 843d ff84 c93b c5f9 1e3d 0c04 3abd
00000130: d603 6bbd b3d6 2d3d 65e3 a73d 44b9 2e3e
00000140: cef4 66bb 86a2 a23c add2 553d cb1e c6bb
00000150: 0443 023d 948f 7d3d ba20 64bd 349c 7d3c
00000160: f45a 043d e1ff e7bb e3cb 263e aa64 8cbd
00000170: 42d5 953d fd5f 4ebc 552a 8b3d 7eef 33bd
00000180: 6aed 0bbd 59d3 8cbd 7741 793d 84e0 ccbc
00000190: 806c 753d bd93 febd fe53 ea3c c88a 84bc
000001a0: 2743 2abd de84 723c 7d55 b43d 2b15 8f3d
000001b0: 9d39 c13c 40b3 663d a283 a63d 65c8 84bd
000001c0: bfca 89bc 3f8f 4f3d 3065 92bb 9dac ab3d
000001d0: ba34 aa3d a94d 373d fa35 103e 083b 34ba
000001e0: d3cc e1bc a9fc c23d 462f 5c3d e003 1b3c
000001f0: cabb ecbc ed98 223d 9ebb ab3d 83b5 7cbd
00000200: 1204 29bc 1f39 e23c 6808 31be 50ac 2dbc
00000210: bf12 7a3b 030a c4bc ee7a 9ebd 0212 f4bc
00000220: 511c 19be 7d26 b3bc 1b7a 9ebd 743f a93c
00000230: 57cf 01bc 96cb 593d 24b6 8f3d cc52 3b3d
00000240: c274 a93d 66d2 1bbd 4a95 bfbd 2343 b2bc
00000250: 39b8 3abd d129 7abc efbf b83d 728b 0cbc
00000260: ef39 91bd a071 873d f01e 503b 5e41 18bd
00000270: 34f7 ba3d 63df d6bd 6f8d 47bd a3dd e53c
00000280: 0377 383a 2157 e7bc 643e 9cbd 26e2 bcbc
00000290: 6954 94bd 872a e2bd f3ca a6ba 3dc4 fcbc
000002a0: 0a13 373d efc4 42bd a2f9 f8ba 4ab7 16be
000002b0: e976 213c 251d a4bb 5bd6 aebd 9088 eb3c
000002c0: 6416 14bd 7be2 9bbd 5ea9 803d ee1e 76bd
000002d0: aaa4 1abc 0ef4 6e3d 78ef 993d 0280 85bd
000002e0: f3b6 28bd 7bde 36bd 012d 9cbd e6a6 d1bb
000002f0: d7c3 be3b 92ca 0d3e 1300 9c3d 007d 6b3d
00000300: 76e9 dfbc 07f7 b9bb 7d9e c13c 9157 223c
00000310: a7b2 293d 2ba5 503b a4a5 8fba 890d dbbd
00000320: 176f a43c d558 ffbc 6653 213d 5980 8c3d
00000330: 7b2e 04bd dd92 93bd 35fa 6f3d 0bbf ce3c
00000340: 3f70 923d 517b ffb9 fdb0 003e d822 3f3c
00000350: 056a 753d 5d86 d03b c75e e93c 463f 52bd
00000360: 51a3 483c fa3a 2abd 9273 a73d 4f95 283c
00000370: 24a2 a5bd be9b e2bc a6c7 17bc 9008 eebc
00000380: 1bd5 5bbc 8911 29bd 088d 13bd 7f14 373d
00000390: 1f0d 50bd c2ac 7f3d 02df 15bd c2b1 8a3d
000003a0: ec86 93bc b1d2 853c f9a4 4e3c 1bed bfbd
000003b0: aed9 15bd f7d0 c53c d156 603d 3b27 f13b
000003c0: b808 38be b123 bb3c bf34 1fbc 94df 0c3d
000003d0: 784d d8bd 7556 603d 7d92 b0bc 09bf 97bd
000003e0: be51 b5bd eb42 96bd 0886 5cbd 7407 8ebb
000003f0: 7143 1abd 0b53 50bb b8c2 a83d 28b0 833d
0.0051213335 0.027954467 -0.11402491 -0.081623964 -0.08576307 -0.05622035 -0.07855652 0.06133184
-0.023997828 -0.014589432 0.023926824 -0.02106352 -2.7938797e-05 -0.09705541 0.028778613 0.038918808
-0.03393998 -0.06824445 0.030653287 0.020007566 0.0058086207 -0.056476004 0.03191745 0.102227546
0.03453645 -0.020770881 0.03394105 -0.0046158945 0.05623623 0.0031223213 -0.0026417633 0.013941838
-0.030987503 0.0073689227 0.004502719 0.043265603 -0.08058048 0.025128447 -0.07498547 0.018382838
0.13507111 0.14125012 -0.045712043 -0.014448619 0.030868988 -0.030344639 0.1064541 -0.051535115
-0.022851836 0.04343956 -0.020839307 0.0007015182 0.13645148 -0.07199938 0.071182534 0.051440082
0.098445766 0.050897535 0.02241948 0.012343108 0.109300666 0.026366502 -0.08875309 0.020373167
0.029424367 -0.027948642 0.109971955 -0.009693262 0.040547106 0.015317391 -0.047073264 -0.039009802
0.064886995 0.0061498876 0.038812418 -0.045414016 -0.057376705 0.04244108 0.08197669 0.1706286
-0.003524113 0.019852888 0.05220287 -0.0060461513 0.031802192 0.061904505 -0.055695273 0.015479136
0.032313302 -0.0070800637 0.16288714 -0.06855138 0.07316066 -0.012596128 0.067951836 -0.04392957
-0.034161963 -0.06876249 0.060853448 -0.025009401 0.059917927 -0.124305226 0.028604504 -0.016179457
-0.041567948 0.014802186 0.08805368 0.06986459 0.023587042 0.05632329 0.08130576 -0.06483535
-0.01682031 0.05067372 -0.004467629 0.08382533 0.08310838 0.044751797 0.1408309 -0.00068752514
-0.027563488 0.09520847 0.05375602 0.009461373 -0.028898139 0.039696623 0.083853945 -0.06169654
-0.010315912 0.027615128 -0.17288363 -0.0106001645 0.0038158146 -0.023930555 -0.07738291 -0.029793743
-0.14952208 -0.021868939 -0.077381335 0.02066014 -0.007922969 0.05317267 0.070171624 0.045733258
0.08274223 -0.03804245 -0.093546465 -0.021760529 -0.045585845 -0.015268759 0.090209834 -0.008578168
-0.07091128 0.06613469 0.0031756721 -0.037171714 0.091291815 -0.104918264 -0.048718866 0.028059786
0.0007036777 -0.028239788 -0.076290876 -0.023057055 -0.072426625 -0.11043268 -0.0012725279 -0.030855292
0.04469589 -0.04755109 -0.0018995295 -0.14718357 0.009855011 -0.005008357 -0.08536979 0.028751642
-0.036154166 -0.07611557 0.06282304 -0.06008809 -0.009438673 0.058338217 0.07516378 -0.06518556
-0.0411901 -0.044645768 -0.07625771 -0.0063980697 0.005821686 0.13846806 0.07617202 0.057492256
-0.027333003 -0.0056752 0.023635143 0.009908573 0.04143014 0.003183673 -0.0010959399 -0.10695941
0.020072503 -0.031170288 0.039386176 0.06860418 -0.03227089 -0.07205746 0.058588225 0.02523758
0.071503155 -0.00048729268 0.12567516 0.011666022 0.05991556 0.0063636736 0.028487576 -0.051329874
0.012245969 -0.04156015 0.0817634 0.010289504 -0.080875665 -0.027662154 -0.0092639085 -0.029056817
-0.0134175075 -0.04127649 -0.03602317 0.04469728 -0.050793763 0.062420614 -0.03658963 0.06772186
-0.018008672 0.016335817 0.012612575 -0.09371396 -0.03658455 0.024147494 0.054770295 0.007359413
-0.17972076 0.022844167 -0.0097171655 0.03439291 -0.10561651 0.05476995 -0.021554226 -0.07409484
-0.08853482 -0.07336982 -0.05383876 -0.0043343846 -0.037661973 -0.0031787779 0.08240265 0.064300835

network_body._body_endoder.seq_layers.4.bias f4 [256]
00000000: 0000 0000 0000 0000 0000 0000 0000 0000
00000010: 0000 0000 0000 0000 0000 0000 0000 0000
00000020: 0000 0000 0000 0000 0000 0000 0000 0000
00000030: 0000 0000 0000 0000 0000 0000 0000 0000
00000040: 0000 0000 0000 0000 0000 0000 0000 0000
00000050: 0000 0000 0000 0000 0000 0000 0000 0000
00000060: 0000 0000 0000 0000 0000 0000 0000 0000
00000070: 0000 0000 0000 0000 0000 0000 0000 0000
00000080: 0000 0000 0000 0000 0000 0000 0000 0000
00000090: 0000 0000 0000 0000 0000 0000 0000 0000
000000a0: 0000 0000 0000 0000 0000 0000 0000 0000
000000b0: 0000 0000 0000 0000 0000 0000 0000 0000
000000c0: 0000 0000 0000 0000 0000 0000 0000 0000
000000d0: 0000 0000 0000 0000 0000 0000 0000 0000
000000e0: 0000 0000 0000 0000 0000 0000 0000 0000
000000f0: 0000 0000 0000 0000 0000 0000 0000 0000
00000100: 0000 0000 0000 0000 0000 0000 0000 0000
00000110: 0000 0000 0000 0000 0000 0000 0000 0000
00000120: 0000 0000 0000 0000 0000 0000 0000 0000
00000130: 0000 0000 0000 0000 0000 0000 0000 0000
00000140: 0000 0000 0000 0000 0000 0000 0000 0000
00000150: 0000 0000 0000 0000 0000 0000 0000 0000
00000160: 0000 0000 0000 0000 0000 0000 0000 0000
00000170: 0000 0000 0000 0000 0000 0000 0000 0000
00000180: 0000 0000 0000 0000 0000 0000 0000 0000
00000190: 0000 0000 0000 0000 0000 0000 0000 0000
000001a0: 0000 0000 0000 0000 0000 0000 0000 0000
000001b0: 0000 0000 0000 0000 0000 0000 0000 0000
000001c0: 0000 0000 0000 0000 0000 0000 0000 0000
000001d0: 0000 0000 0000 0000 0000 0000 0000 0000
000001e0: 0000 0000 0000 0000 0000 0000 0000 0000
000001f0: 0000 0000 0000 0000 0000 0000 0000 0000
00000200: 0000 0000 0000 0000 0000 0000 0000 0000
00000210: 0000 0000 0000 0000 0000 0000 0000 0000
00000220: 0000 0000 0000 0000 0000 0000 0000 0000
00000230: 0000 0000 0000 0000 0000 0000 0000 0000
00000240: 0000 0000 0000 0000 0000 0000 0000 0000
00000250: 0000 0000 0000 0000 0000 0000 0000 0000
00000260: 0000 0000 0000 0000 0000 0000 0000 0000
00000270: 0000 0000 0000 0000 0000 0000 0000 0000
00000280: 0000 0000 0000 0000 0000 0000 0000 0000
00000290: 0000 0000 0000 0000 0000 0000 0000 0000
000002a0: 0000 0000 0000 0000 0000 0000 0000 0000
000002b0: 0000 0000 0000 0000 0000 0000 0000 0000
000002c0: 0000 0000 0000 0000 0000 0000 0000 0000
000002d0: 0000 0000 0000 0000 0000 0000 0000 0000
000002e0: 0000 0000 0000 0000 0000 0000 0000 0000
000002f0: 0000 0000 0000 0000 0000 0000 0000 0000
00000300: 0000 0000 0000 0000 0000 0000 0000 0000
00000310: 0000 0000 0000 0000 0000 0000 0000 0000
00000320: 0000 0000 0000 0000 0000 0000 0000 0000
00000330: 0000 0000 0000 0000 0000 0000 0000 0000
00000340: 0000 0000 0000 0000 0000 0000 0000 0000
00000350: 0000 0000 0000 0000 0000 0000 0000 0000
00000360: 0000 0000 0000 0000 0000 0000 0000 0000
00000370: 0000 0000 0000 0000 0000 0000 0000 0000
00000380: 0000 0000 0000 0000 0000 0000 0000 0000
00000390: 0000 0000 0000 0000 0000 0000 0000 0000
000003a0: 0000 0000 0000 0000 0000 0000 0000 0000
000003b0: 0000 0000 0000 0000 0000 0000 0000 0000
000003c0: 0000 0000 0000 0000 0000 0000 0000 0000
000003d0: 0000 0000 0000 0000 0000 0000 0000 0000
000003e0: 0000 0000 0000 0000 0000 0000 0000 0000
000003f0: 0000 0000 0000 0000 0000 0000 0000 0000
0.0 0.0 0.0 0.0 0.0 0.0 0.0 0.0
0.0 0.0 0.0 0.0 0.0 0.0 0.0 0.0
0.0 0.0 0.0 0.0 0.0 0.0 0.0 0.0
0.0 0.0 0.0 0.0 0.0 0.0 0.0 0.0
0.0 0.0 0.0 0.0 0.0 0.0 0.0 0.0
0.0 0.0 0.0 0.0 0.0 0.0 0.0 0.0
0.0 0.0 0.0 0.0 0.0 0.0 0.0 0.0
0.0 0.0 0.0 0.0 0.0 0.0 0.0 0.0
0.0 0.0 0.0 0.0 0.0 0.0 0.0 0.0
0.0 0.0 0.0 0.0 0.0 0.0 0.0 0.0
0.0 0.0 0.0 0.0 0.0 0.0 0.0 0.0
0.0 0.0 0.0 0.0 0.0 0.0 0.0 0.0
0.0 0.0 0.0 0.0 0.0 0.0 0.0 0.0
0.0 0.0 0.0 0.0 0.0 0.0 0.0 0.0
0.0 0.0 0.0 0.0 0.0 0.0 0.0 0.0
0.0 0.0 0.0 0.0 0.0 0.0 0.0 0.0
0.0 0.0 0.0 0.0 0.0 0.0 0.0 0.0
0.0 0.0 0.0 0.0 0.0 0.0 0.0 0.0
0.0 0.0 0.0 0.0 0.0 0.0 0.0 0.0
0.0 0.0 0.0 0.0 0.0 0.0 0.0 0.0
0.0 0.0 0.0 0.0 0.0 0.0 0.0 0.0
0.0 0.0 0.0 0.0 0.0 0.0 0.0 0.0
0.0 0.0 0.0 0.0 0.0 0.0 0.0 0.0
0.0 0.0 0.0 0.0 0.0 0.0 0.0 0.0
0.0 0.0 0.0 0.0 0.0 0.0 0.0 0.0
0.0 0.0 0.0 0.0 0.0 0.0 0.0 0.0
0.0 0.0 0.0 0.0 0.0 0.0 0.0 0.0
0.0 0.0 0.0 0.0 0.0 0.0 0.0 0.0
0.0 0.0 0.0 0.0 0.0 0.0 0.0 0.0
0.0 0.0 0.0 0.0 0.0 0.0 0.0 0.0
0.0 0.0 0.0 0.0 0.0 0.0 0.0 0.0
0.0 0.0 0.0 0.0 0.0 0.0 0.0 0.0

action_model._discrete_distribution.branches.0.weight f4 [3, 256]
00000000: 6389 68bb dfd9 0b3c cb39 3639 05c4 30bb
00000010: 0f1d 453b 1dae b93a 3cbe 3b3a b40f 053c
00000020: 722b f4bb c7c9 673b abff 2f3c 3137 06bb
00000030: c724 d5ba ddcf e2bb bff3 31bb 01ed 86bb
00000040: 1303 613b 2af8 dc3a 5a7a c0bb a141 3aba
00000050: 45d2 ebbb 9bb3 4c3c 2548 123c 5f76 22bc
00000060: 9b66 1fbb 3af1 363c c4e0 b7bb 4a5f f3ba
00000070: 3b1f acba 6642 2dbb 9257 1dbb 3a03 a2ba
00000080: ff31 cabb 0cd8 bdb9 5b3f 0f3c e2e0 63bc
00000090: 75c7 73bc 437f 47bc 36b3 15bb 4b04 ca3a
000000a0: 23be b2bb 7d47 24ba 8099 edba 2a2d 9fba
000000b0: 1b0a adb9 1e19 2e3b fd9a c9bb 812a 3f3c
000000c0: 2cd1 96bb 0c71 ca3a d6f6 bb3b 1f60 543b
000000d0: c1f4 1a3c b8c9 b8bb 28d8 14bb 28a0 803b
000000e0: 503e ffbb f7b7 583b 40d9 81bb b358 63bb
000000f0: 12c1 a4bb 35fc dd3b acd8 0cb9 e09a 39bc
00000100: a7d8 c7ba ea30 613c df9a 08bc b0c9 a13b
00000110: 02bb 2d3c adfd e8ba b7b7 0fbc 4026 67bc
00000120: f9ad 373c 8fde 013b 4732 c03b 9d7c d1ba
00000130: 241f 1ab9 6877 58bb b54a 4f3b 89ea 923b
00000140: 5d4c 9a3a b108 0e3c 3f66 02bc 4bb0 42bb
00000150: e89c 8fba c81d 8f3a 57dd 2ebb ade4 7fbc
00000160: 8ea8 82bb bfcb 9cb9 47b4 f2ba da7f d63b
00000170: 5eeb c1bb ceb6 8b3b 185a 183c 8a09 d0bb
00000180: 9a3a 1c3c ffbd 483b 58c2 7c3a eab2 823b
00000190: 1155 3abb 3080 913b b7aa babb c67e 053c
000001a0: 9ddd af3a da8d 5cbb c908 bf3a 2bbe 1e3a
000001b0: 1519 5e3b 4b85 293c dc79 1bbc 58cd 7bbb
000001c0: d012 0c3c 8e78 443b e62e b2bb c82e d9bb
000001d0: a266 3fba 5ba8 653b 602b 6b3c b03d 80b9
000001e0: 0552 523b b8b8 25bc 0db3 8dba 1f0c 763b
000001f0: 89c4 b33b ff7b ecba 254b 5e3b 94b6 383c
00000200: 906d a23b 137b f2bb e88f d339 b122 afba
00000210: 7709 18bc 8f37 233c 3fd6 a93a 6788 d63b
00000220: d74c e93a 5a1d 82ba 3c5a 8e3a 0fb2 643b
00000230: 4b65 663a 57e7 37bb bf97 16bb ab9c 853b
00000240: a01a dd3a 2f42 f339 fbcb d73b 468a 8dbb
00000250: df9c f439 350b 4eba c31e 9a3b 97ad 37ba
00000260: c449 3b3c 9733 953a 3586 97bb e741 d33b
00000270: 5981 48bc 731f 47bb 8b66 10bc 0357 963b
00000280: 630c 27bc e7f5 4bbc 2e4d 8d3b ad0f 61bc
00000290: d7b8 ff3a 3418 0abb 93fc bebb 2234 bf3b
000002a0: b503 67ba 9dcf ecbb f9e7 c93b 1ffd 8e3a
000002b0: e56a 7d3b 5399 41ba b779 a13b ef43 2f3c
000002c0: 3bf6 cabb 808b 72bb 8ec9 a33b 2bc9 5f3b
000002d0: ff0d f8bb a51f 56bc e14c bb3a 66b2 32bb
000002e0: 9749 14bb 4ec8 02bb 88f6 ff3a 1144 4b3b
000002f0: f387 533b 6372 75bb 80e7 563c 2089 19bc
00000300: f2db 6e3b aff6 adba db33 9339 f2ba 4e3b
00000310: ab6a 93bb d09d a7bb 33d7 6ebb 7bed 13bc
00000320: 63d6 4e3a cd79 86bb 4797 a43b e8ab 36bb
00000330: 28d3 d23b 605d d7ba d80a f1ba fbab 3bbb
00000340: 3094 d6b9 7cd5 a53b 0f71 04bb e013 7cba
00000350: 8ea6 4c3b fae8 58bc c2dc 54bb 7fc8 2e3b
00000360: fb63 2f3a 490d 1c3c 733c 4f3a a6d3 c6ba
00000370: 3bcd 943a e701 1bbc ddd2 82bb 5336 3e3b
00000380: a13f 913c 8a1b bd3b 3f71 0dbc 4bbf f4bb
00000390: 10ed 4ebc cbe1 963a 336c 873a 2267 44bb
000003a0: cb66 0bbb 4606 1e3b b5d7 2abc 4b45 9fbb
000003b0: 5e8b c1bb e7dc 893a b5ac 8f3b c3a0 04bc
000003c0: 2f82 a6ba ff2b 883a 7f90 e43b 0859 c1ba
000003d0: d025 6f39 35b9 4d3b d740 093b 9397 553b
000003e0: 9218 a6bb a403 a6bb 9f49 88bb af52 5cbb
000003f0: 3c70 08bb 8fbd 76bc 374e d83a 61fd c93b
-0.003548228 0.008535831 0.00017378402 -0.0026972305 0.0030077135 0.001416627 0.0007161831 0.00812142
-0.007451468 0.0035368071 0.010742108 -0.0020479674 -0.0016261571 -0.006921752 -0.002715334 -0.0041176085
0.0034334108 0.0016858627 -0.0058739604 -0.00071051164 -0.007196697 0.012493993 0.008928333 -0.009915917
-0.0024322632 0.011165911 -0.005611511 -0.0018567827 -0.0013131866 -0.0026437282 -0.0024008495 -0.0012360581
-0.006170511 -0.00036209857 0.008743132 -0.013908597 -0.014879097 -0.012176338 -0.0022842414 0.0015412656
-0.005454795 -0.0006266756 -0.0018127412 -0.0012144197 -0.0003300466 0.0026565264 -0.0061525092 0.011667849
-0.004602572 0.0015445068 0.0057362122 0.0032405925 0.009457768 -0.005639281 -0.0022711847 0.003925342
-0.0077894107 0.0033068636 -0.003962666 -0.003469032 -0.0050278986 0.00677445 -0.00013432157 -0.011328429
-0.0015247063 0.013744572 -0.008337705 0.004937373 0.010603668 -0.0017775797 -0.008771828 -0.014108241
0.011210912 0.0019816493 0.0058653685 -0.0015982572 -0.00014698185 -0.0033030156 0.0031630222 0.004483525
0.0011772026 0.008669064 -0.007958948 -0.002970713 -0.0010956796 0.001091891 -0.0026682222 -0.015618485
-0.0039873784 -0.0002990644 -0.0018516862 0.006546003 -0.0059179505 0.0042637354 0.009298824 -0.0063487934
0.009535456 0.0030630825 0.00096419966 0.0039886134 -0.0028432051 0.00444033 -0.0056966203 0.008147901
0.0013417486 -0.0033653886 0.0014574762 0.0006055559 0.0033889462 0.010346721 -0.009489503 -0.0038421955
0.008549407 0.0029979083 -0.0054377196 -0.006627891 -0.0007301365 0.0035042975 0.014353603 -0.00024460023
0.0032092344 -0.010114841 -0.0010810808 0.0037543846 0.0054860753 -0.0018042325 0.0033919301 0.011273999
0.0049569085 -0.0073999255 0.00040352275 -0.0013361779 -0.0092796 0.009961977 0.0012957527 0.006547022
0.0017799389 -0.000992696 0.0010860632 0.003489617 0.00087888975 -0.0028061473 -0.0022978631 0.004077514
0.0016868897 0.00046397882 0.0065855957 -0.004319462 0.00046656185 -0.00078599463 0.004703374 -0.0007006763
0.011431161 0.0011383173 -0.004624153 0.006447065 -0.01223787 -0.0030383735 -0.008813511 0.0045880093
-0.010195824 -0.012448764 0.004312179 -0.013736648 0.0019510043 -0.0021071555 -0.005828449 0.005835072
-0.0008812503 -0.007226898 0.0061616865 0.0010909176 0.003866845 -0.0007385213 0.0049278396 0.010697349
-0.0061939037 -0.0037009418 0.0049983924 0.0034147005 -0.007570028 -0.013069068 0.001428988 -0.0027266978
-0.002262687 -0.0019955817 0.0019528428 0.0031015913 0.0032277077 -0.0037452213 0.013116717 -0.009371072
0.0036447016 -0.001327237 0.0002807666 0.0031544534 -0.0044988 -0.0051152483 -0.0036444187 -0.009028788
0.00078902225 -0.0041038753 0.0050229165 -0.002787346 0.006433863 -0.0016431026 -0.0018390073 -0.0028636444
-0.0004092767 0.0050608497 -0.002020899 -0.0009615999 0.0031227204 -0.01323914 -0.0032480215 0.0026669798
0.00066906185 0.009524652 0.0007905431 -0.0015169277 0.0011352667 -0.009460903 -0.003992422 0.002902408
0.017730536 0.005771105 -0.008632957 -0.007469093 -0.012629762 0.0011511383 0.0010331928 -0.0029968699
-0.0021270986 0.0024112626 -0.010427405 -0.0048605553 -0.0059065064 0.0010518105 0.004384602 -0.008094969
-0.0012703593 0.0010389088 0.006975233 -0.0014751265 0.00022806902 0.003139091 0.0020943189 0.0032591566
-0.005068847 -0.005066352 -0.004159167 -0.003361862 -0.002081885 -0.015059843 0.0016502802 0.0061642383

action_model._discrete_distribution.branches.0.bias f4 [3]
00000000: 0000 0000 0000 0000 0000 0000
0.0 0.0 0.0

action_model._discrete_distribution.branches.1.weight f4 [3, 256]
00000000: 34ef b63b ff51 2fbb 3be2 283b ed73 d0bb
00000010: 6f7b 70ba f4f0 92bb d756 12bc 7eee 473a
00000020: 08eb 633a e11e a03b b3fe 8a3a 3858 5a3b
00000030: cf14 b6b9 a54e 97ba ef7c a9bb bcae 3f3b
00000040: 8b1a 06bb 7d7f ad3a 5dec e2bb 6de0 d53b
00000050: 1586 393b 3c37 9f3b d301 93bb 071b d8bb
00000060: c5cb 0abb 0cd0 29bc 3fac a43a 63cf 13bb
00000070: 3751 88bb c620 c73b ea35 e63b 7327 fabb
00000080: 4746 cf3b a804 56bc 50c2 9bba 8dbd 5a39
00000090: 1f3b 0c3b 57ed febb 59f1 c2bb 2066 5dbb
000000a0: e5c3 f13a c37d 97bb e771 31bb b2f8 0bba
000000b0: 1beb 663b da4d 5aba 080b d5bb 82fc 163b
000000c0: afbc 56bb 0305 c5bb 659a b2bb d770 0f3b
000000d0: a290 cebb bdbc deba 9a49 d5bb bf35 4a3a
000000e0: 2590 213c 8a83 13bc 87ac 3e3c f201 c2bb
000000f0: 7ba8 7abb 81f8 943b e03d 733a eebb a53b
00000100: 1d26 78bb ebc2 88bb 370d 473c f1fe 2b3a
00000110: f727 9cba 0cfc 34bc 6c9f 213b 1a76 613b
00000120: 6b56 99bb 3f29 05bb bd31 d3bb 648f 933b
00000130: a717 b53a 7b75 7aba ddd4 85bc 4b44 833c
00000140: ffdf efb9 0bf0 9aba 7918 abbb b0df 58bc
00000150: 7249 db38 3e16 01bb 1fd3 f8ba f072 063b
00000160: 971e 0a3b 976a 23bc 2fc6 a4bb 6359 09bc
00000170: c7dd 093c cf69 043b 53e0 60bb 3547 75bb
00000180: 6f17 3f3c 4fed dcba 6d68 ec3b 23c6 b0bb
00000190: c0c1 94bb b36e 453b 6b64 6c3c 6a61 993b
000001a0: f973 113c 25f9 fcbb ee5b 33ba b774 02bb
000001b0: 6ac2 073c 96f8 92bb f41d 093c b781 6f3a
000001c0: e28d 363a 435d b1ba 828e 54bb ac36 033c
000001d0: 0c82 2f3b d327 c53b 87a1 f6ba 1a3a 1abb
000001e0: fb46 b7bb e7a7 d3ba 2be0 e33a 031a 06bc
000001f0: 5cd7 05bc dbb0 0abb d31a 26bb 38ac 833b
00000200: 4799 453b 83b8 31bc 75d5 c53b c0c6 ea3b
00000210: 505d b1ba bdcc 26bc ef5f 1d3c 5a9c 4e3a
00000220: 4f33 5339 7aec 32bc 4074 8c3a 0b75 62b9
00000230: 48df cdba 38ae 46b8 bb81 3a3c 83eb 873b
00000240: 7823 91ba 1dea f2ba 28a2 5dbc 9b18 953b
00000250: 1894 16bc f9d8 1cbc 7e76 c5ba 68c5 acbb
00000260: e3e5 8b3b 3a8e 5e3a 5205 bbbb 3b43 8dbb
00000270: 300b 1fbc eee9 b73b 7bb7 0b3b 6465 2a3c
00000280: 4359 b33b 8768 863b cd9b 72bb 2754 3e38
00000290: cf59 003c a515 cd3b 5a92 fe3a 9b97 9abb
000002a0: bbee f93b cd5a d439 48ae 43bb 4bab 423b
000002b0: f5b1 46bc ceeb 413b a30f c93a c3c1 52ba
000002c0: 90b2 5a3c f377 073c c2d4 0e3c a081 34ba
000002d0: 3fe7 c63a 7a76 10ba 1de3 6cb9 b5e4 263c
000002e0: 9168 a3ba 7d95 49b9 41da 113c 1eea 0fbc
000002f0: e02d 20bb 02d8 fe3b 53f5 f6b9 633d adba
00000300: d354 083b d74b 0abc e274 2e3c 88d6 e2bb
00000310: c282 ea3b 5f05 063c 181b 89bc 83b8 1d3c
00000320: 80f9 343b 7b45 f537 b177 b5bb f7c5 d0bb
00000330: a996 03bc e47b ba3b ffc4 deba a828 12bb
00000340: 1f33 ca3b 053e ce3b f769 c7b9 c95b 8ebb
00000350: 881f dbbb d6ee 1aba bf81 7d3b fe76 09ba
00000360: 2bc4 06bc 1227 743b 10ab 2cbb cf88 f03b
00000370: 0aee c6bb ea74 c53b 9010 54ba bf0a 6c3a
00000380: 43e7 b33b 4ac2 17bc f614 2cbb f169 40bc
00000390: 2cb1 bb3a 365c 283b 4718 b03b 9b77 433b
000003a0: 5fda 323b 9d95 433b 430f 103c ffe6 843a
000003b0: 28c2 013c 0d10 8a3b 178e d2bb f20c b43b
000003c0: 4c50 06bc d7d1 e63b 4502 9ebb 271c 2fbb
000003d0: dda3 e2bb cc27 a3ba c8cd 033b 8cb6 0bba
000003e0: b483 92bb 79b9 3bb9 e8df 093c 5e47 ca3a
000003f0: 101e 8b3b 60d8 b93b 0d76 91bb bbad 13bc
0.0055827145 -0.0026751754 0.002576961 -0.0063614757 -0.00091736665 -0.0044842903 -0.008931837 0.00076267857
0.0008694385 0.0048864936 0.0010604471 0.0033316743 -0.0003472925 -0.0011543824 -0.005172364 0.0029248437
-0.0020462598 0.0013236847 -0.0069251494 0.006526998 0.002830868 0.0048588794 -0.0044863014 -0.006595019
-0.0021178585 -0.010364544 0.001256354 -0.0022554032 -0.004160072 0.006076905 0.00702547 -0.0076340972
0.0063255164 -0.013062634 -0.0011883471 0.00020860713 0.0021397544 -0.007779758 -0.005949181 -0.0033782795
0.0018445222 -0.0046231463 -0.0027075948 -0.00053394877 0.0035235349 -0.0008327641 -0.006501559 0.002303869
-0.0032766273 -0.0060125603 -0.005450534 0.0021887326 -0.0063038627 -0.0016993504 -0.006509018 0.0007713697
0.009861027 -0.009003529 0.011637813 -0.005920642 -0.0038247395 0.0045462255 0.00092789344 0.0050578034
-0.0037864514 -0.0041736267 0.012149147 0.00065611216 -0.0011913766 -0.011046421 0.0024661673 0.003440267
-0.0046794913 -0.0020318774 -0.0064451382 0.0045031775 0.0013816253 -0.0009554249 -0.016336853 0.016023776
-0.00045752522 -0.0011820806 -0.005221423 -0.013236925 0.00010456414 -0.0019697095 -0.0018983817 0.0020515285
0.0021075362 -0.0099741435 -0.005028508 -0.008383128 0.008414692 0.0020204668 -0.0034313395 -0.0037426476
0.011663302 -0.0016855391 0.007214597 -0.0053947135 -0.0045396984 0.0030125796 0.014428238 0.004680802
0.008877748 -0.00772013 -0.00068420067 -0.0019905993 0.008286098 -0.0044852 0.008368958 0.00091364555
0.0006963891 -0.0013531822 -0.0032433574 0.00800864 0.0026780395 0.0060167103 -0.001881645 -0.0023533166
-0.0055931783 -0.0016148061 0.0017385533 -0.008184913 -0.008169021 -0.0021162543 -0.0025345578 0.004018333
0.0030151175 -0.010847214 0.006037409 0.007164806 -0.0013531838 -0.010180649 0.009605392 0.00078815746
0.00020141642 -0.010920638 0.0010715798 -0.00021596641 -0.0015706802 -4.7369133e-05 0.011383469 0.004147948
-0.0011073193 -0.0018532906 -0.013527431 0.0045500523 -0.009190582 -0.009573215 -0.0015065221 -0.005272556
0.004269348 0.00084898213 -0.0057074213 -0.004310993 -0.009707257 0.0056126034 0.002131908 0.01040015
0.0054732873 0.004101816 -0.0037019134 4.5377903e-05 0.007833912 0.0062586837 0.0019422278 -0.00471778
0.007627336 0.00040503443 -0.0029858518 0.002970415 -0.012127389 0.0029590013 0.0015339743 -0.0008039737
0.013348237 0.008268344 0.008717718 -0.00068857707 0.0015175118 -0.00055108184 -0.0002259132 0.010186364
-0.0012467076 -0.00019224542 0.008902133 -0.008783845 -0.0024441406 0.007777215 -0.00047103557 -0.0013217147
0.0020802512 -0.008440933 0.010647984 -0.006922547 0.007156701 0.0081799915 -0.016736552 0.009626511
0.0027614534 2.923863e-05 -0.00553795 -0.0063712555 -0.008031526 0.0056910384 -0.0016995965 -0.0022302065
0.006170645 0.0062940144 -0.00038035188 -0.0043444377 -0.0066871084 -0.0005910223 0.003868207 -0.00052438665
-0.008225481 0.0037254733 -0.0026347078 0.0073405276 -0.006070857 0.0060259 -0.0008089626 0.0009004287
0.005490215 -0.009262631 -0.002625761 -0.011744008 0.0014319769 0.0025689728 0.005373988 0.002982593
0.0027290804 0.0029843815 0.008792701 0.0010139643 0.007919826 0.004213339 -0.00642563 0.0054947073
-0.008197855 0.007044058 -0.004822048 -0.002671966 -0.0069165067 -0.0012447773 0.002011167 -0.0005329631
-0.0044712666 -0.00017902804 0.0084152 0.0015432646 0.004245527 0.005671546 -0.0044391216 -0.009013589

action_model._discrete_distribution.branches.1.bias f4 [3]
00000000: 0000 0000 0000 0000 0000 0000
0.0 0.0 0.0
