Assets/Agent6.onnx (onnx, 923545 bytes, 19 tensors)

discrete_action_output_shape f4 [1, 6]
3.0 3.0 2.0 2.0 2.0 2.0
00000000: 0000 4040 0000 4040 0000 0040 0000 0040
00000010: 0000 0040 0000 0040

network_body._body_endoder.seq_layers.0.weight f4 [256, 366]
-0.0015316515 -0.024916295 0.019230958 0.10694394 0.05280222 0.0062728603 0.02205947 -0.10682302
0.03533516 -0.02310848 -0.060435917 0.036218256 -0.026381101 -0.036430378 -0.02289561 -0.032030333
-0.009484104 0.04646608 -0.023958456 -0.04069635 -0.04776083 -0.0016492635 -0.07341102 -0.07839374
0.047281828 0.027716868 0.01088495 -0.020790417 0.045095813 -0.040348683 0.0054290863 0.11042188
-0.061504874 0.026157985 -0.0006655415 0.09137435 -0.105904296 -0.02372712 -0.049501803 0.006678354
0.105155006 0.07491226 0.08433008 -0.04575267 0.022662695 0.0021135188 0.012494804 -0.021637958
-0.036666248 -0.03469601 -0.07263115 0.027851498 0.033406746 0.056795064 -0.027635975 0.0066556856
-0.026884757 -0.04875081 -0.07399678 -0.020824406 -0.056454264 -0.028665682 0.028242184 -0.08323281
0.01025504 0.04193067 -0.09058624 0.03285358 -0.02510692 -0.024711857 0.008410582 0.022008698
0.003370279 -0.022810416 0.033959303 0.042201795 -0.03972693 -0.12053694 0.0840009 -0.055684544
0.1573944 0.023068791 0.030730601 -0.08806372 -0.11365415 -0.03549787 0.06442501 -0.033057887
0.037148956 0.044795077 0.01931054 -0.002473864 -0.0451882 0.012765579 -0.0869453 -0.015259912
-0.05052904 0.12111393 0.024893772 0.07918756 -0.001880364 0.01748167 0.014335387 -0.0857776
0.04196187 -0.015933147 -0.004795282 -0.07387322 0.015387401 0.05411649 0.002932836 0.08372047
0.05387383 0.07600363 -0.05969593 0.06633975 -0.0032429085 -0.04844119 -0.07177186 -0.051900655
-0.018716225 0.017481478 0.035950568 0.06490617 -0.08443512 0.0023888538 -0.010409009 -0.036881402
0.03850745 -0.026073886 0.06947444 -0.010666751 -0.05625299 -0.03471368 -0.042460833 0.007481426
-0.027935414 -0.03369863 -0.107191704 0.092163175 -0.047655985 -0.071751416 0.011341551 -0.041926518
0.03491879 0.044093113 -0.09807557 -0.030493265 0.05448502 -0.04338695 -0.048435457 0.06389982
0.048702154 -0.024148999 0.01901189 -0.051830195 -0.051741038 0.019218197 -0.109631866 -0.053254277
-0.04543193 -0.017508792 0.0008355751 0.070760556 0.027237376 0.046685014 -0.006711414 0.008112553
0.05316035 -0.017573075 -0.016813466 -0.14086969 0.021653898 0.0032335517 -0.05005024 -0.08202504
-0.055971436 0.025695411 -0.043823812 -0.053838495 0.007857073 0.040484775 0.036558144 0.035582352
-0.0028689804 -0.05284661 0.0031532976 -0.036203403 0.087811835 -0.023279026 -0.0010917183 0.058879346
0.013614958 0.059160337 -0.004380007 0.013173976 -0.0071803266 0.029974025 -0.053342585 0.013689301
-0.060219094 -0.022017127 -0.033041462 -0.0052346513 0.036385357 -0.049382333 -0.033692114 -0.013040707
0.05660186 -0.01581446 0.0063801776 0.084767945 0.065532036 0.07067592 0.049123198 0.12376834
-0.06838002 -0.014081647 -0.071814604 0.011015308 -0.0734321 0.015800593 -0.043601085 0.013741556
-0.006645074 -0.060560413 -0.051077284 0.13070327 -0.057419192 -0.0063523497 -0.02716382 -0.10328056
0.00089604995 -0.015511351 -0.023665005 0.084499426 -0.05049075 0.013977211 0.05988322 -0.05176107
0.059678636 0.012128412 -0.14257874 -0.042801213 0.05781105 0.054954015 -0.03363387 -0.0102855265
0.061758224 -0.011883032 0.032413475 -0.025147457 0.0054326607 -0.024850618 -0.06616052 -0.00018306187
00000000: b2c1 c8ba 421d ccbc 3e8a 9d3c 6d05 db3d
00000010: 2447 583d 918c cd3b 10b6 b43c 07c6 dabd
00000020: 9abb 103d ff4d bdbc a78b 77bd 9859 143d
00000030: 2e1d d8bc 0538 15bd 938f bbbc 3d32 03bd
00000040: 3763 1bbc 3753 3e3d 8644 c4bc 37b1 26bd
00000050: dca0 43bd 1a2c d8ba 8458 96bd e68c a0bd
00000060: 97aa 413d 7c0e e33c ca56 323c aa50 aabc
00000070: 63b6 383d a944 25bd 7ae6 b13b de24 e23d
00000080: 89ec 7bbd 4549 d63c bc77 2eba 7a22 bb3d
00000090: 5ae4 d8bd 615f c2bc 67c2 4abd 18d6 da3b
000000a0: 825b d73d 996b 993d 40b5 ac3d 2767 3bbd
000000b0: 1ea7 b93c f682 0a3b 02b7 4c3c 1642 b1bc
000000c0: 592f 16bd 671d 0ebd a4bf 94bd d328 e43c
000000d0: 83d5 083d f1a1 683d d764 e2bc f017 da3b
000000e0: 6c3d dcbc eeae 47bd a08b 97bd f297 aabc
000000f0: 963c 67bd 4bd4 eabc 275c e73c f775 aabd
00000100: c104 283c 7fbf 2b3d 4785 b9bd 7a91 063d
00000110: 07ad cdbc 8570 cabc 8acc 093c 964b b43c
00000120: e6df 5c3b e9dc babc e918 0b3d cadb 2c3d
00000130: b5b8 22bd 12dc f6bd aa08 ac3d 7a15 64bd
00000140: ff2b 213e c3fa bc3c bebe fb3c c05a b4bd
00000150: 82c3 e8bd 3766 11bd 42f1 833d b567 07bd
00000160: 8129 183d 0b7b 373d 2331 9e3c 8d20 22bb
00000170: 4317 39bd b826 513c 6110 b2bd b604 7abc
00000180: 8af7 4ebd 950a f83d 06ee cb3c 162d a23d
00000190: 8c76 f6ba b835 8f3c f9de 6a3c 2bac afbd
000001a0: 36e0 2b3d 3b86 82bc be21 9dbb d84a 97bd
000001b0: 701b 7c3c 41a9 5d3d d334 403b a375 ab3d
000001c0: ceaa 5c3d cba7 9b3d b883 74bd 23dd 873d
000001d0: fa86 54bb 456a 46bd 20fd 92bd c895 54bd
000001e0: c552 99bc 5135 8f3c e740 133d 87ed 843d
000001f0: 52ec acbd 518e 1c3b 8c8a 2abc f410 17bd
00000200: fdb9 1d3d e798 d5bc 9d48 8e3d 99c3 2ebc
00000210: 8969 66bd ef2f 0ebd 69eb 2dbd c026 f53b
00000220: cfd8 e4bc 9307 0abd 5387 dbbd 0cc0 bc3d
00000230: ec32 43bd 68f2 92bd ead1 393c 24bb 2bbd
00000240: 0107 0f3d fb9a 343d d8db c8bd 03cd f9bc
00000250: af2b 5f3d 84b6 31bd 4264 46bd e9dd 823d
00000260: e97b 473d 1fd4 c5bc d3be 9b3c e64b 54bd
00000270: 69ee 53bd 7b6f 9d3c ac86 e0bd 2821 5abd
00000280: d516 3abd 996e 8fbc 7f0a 5b3a e9ea 903d
00000290: eb20 df3c c938 3f3d 6ceb dbbb 83ea 043c
000002a0: abbe 593d 69f5 8fbc 65bc 89bc 2540 10be
000002b0: 8463 b13c ffe9 533b 7b01 4dbd bffc a7bd
000002c0: 4e42 65bd 2f7f d23c 9980 33bd c185 5cbd
000002d0: f4ba 003c 5dd3 253d febd 153d cdbe 113d
000002e0: 8105 3cbb b075 58bd 8ea7 4e3b 054a 14bd
000002f0: b1d6 b33d a8b3 bebc fd17 8fba 782b 713d
00000300: 4611 5f3c 1c52 723d 2986 8fbb a9d7 573c
00000310: f248 ebbb 168c f53c c17d 5abd 1749 603c
00000320: 4ca8 76bd 435d b4bc 7c56 07bd 7087 abbb
00000330: d008 153d 2145 4abd be00 0abd b1a8 55bc
00000340: 5ad7 673d 548d 81bc cf10 d13b d19a ad3d
00000350: a935 863d 89be 903d 6835 493d 417a fd3d
00000360: d30a 8cbd b5b6 66bc 8913 93bd 8d79 343c
00000370: 9263 96bd 3f70 813c 0d97 32bd 4324 613c
00000380: ecbe d9bb 320e 78bd 6a36 51bd 14d7 053e
00000390: 6330 6bbd 5f27 d0bb a986 debc c284 d3bd
000003a0: e5e4 6a3a 5223 7ebc 1ddd c1bc 090e ad3d
000003b0: 64cf 4ebd ac00 653c 1b48 753d 6a03 54bd
000003c0: 9671 743d 3fb6 463c 2900 12be 5350 2fbd
000003d0: 48cb 6c3d 7617 613d abc3 09bd a084 28bc
000003e0: 31f6 7c3d 0cb1 42bc fec3 043d 0a02 cebc
000003f0: 7604 b23b 8693 cbbc 2b7f 87bd 4cf4 3fb9

network_body._body_endoder.seq_layers.0.bias f4 [256]
0.0 0.0 0.0 0.0 0.0 0.0 0.0 0.0
0.0 0.0 0.0 0.0 0.0 0.0 0.0 0.0
0.0 0.0 0.0 0.0 0.0 0.0 0.0 0.0
0.0 0.0 0.0 0.0 0.0 0.0 0.0 0.0
0.0 0.0 0.0 0.0 0.0 0.0 0.0 0.0
0.0 0.0 0.0 0.0 0.0 0.0 0.0 0.0
0.0 0.0 0.0 0.0 0.0 0.0 0.0 0.0
0.0 0.0 0.0 0.0 0.0 0.0 0.0 0.0
0.0 0.0 0.0 0.0 0.0 0.0 0.0 0.0
0.0 0.0 0.0 0.0 0.0 0.0 0.0 0.0
0.0 0.0 0.0 0.0 0.0 0.0 0.0 0.0
0.0 0.0 0.0 0.0 0.0 0.0 0.0 0.0
0.0 0.0 0.0 0.0 0.0 0.0 0.0 0.0
0.0 0.0 0.0 0.0 0.0 0.0 0.0 0.0
0.0 0.0 0.0 0.0 0.0 0.0 0.0 0.0
0.0 0.0 0.0 0.0 0.0 0.0 0.0 0.0
0.0 0.0 0.0 0.0 0.0 0.0 0.0 0.0
0.0 0.0 0.0 0.0 0.0 0.0 0.0 0.0
0.0 0.0 0.0 0.0 0.0 0.0 0.0 0.0
0.0 0.0 0.0 0.0 0.0 0.0 0.0 0.0
0.0 0.0 0.0 0.0 0.0 0.0 0.0 0.0
0.0 0.0 0.0 0.0 0.0 0.0 0.0 0.0
0.0 0.0 0.0 0.0 0.0 0.0 0.0 0.0
0.0 0.0 0.0 0.0 0.0 0.0 0.0 0.0
0.0 0.0 0.0 0.0 0.0 0.0 0.0 0.0
0.0 0.0 0.0 0.0 0.0 0.0 0.0 0.0
0.0 0.0 0.0 0.0 0.0 0.0 0.0 0.0
0.0 0.0 0.0 0.0 0.0 0.0 0.0 0.0
0.0 0.0 0.0 0.0 0.0 0.0 0.0 0.0
0.0 0.0 0.0 0.0 0.0 0.0 0.0 0.0
0.0 0.0 0.0 0.0 0.0 0.0 0.0 0.0
0.0 0.0 0.0 0.0 0.0 0.0 0.0 0.0
00000000: 0000 0000 0000 0000 0000 0000 0000 0000
00000010: 0000 0000 0000 0000 0000 0000 0000 0000
00000020: 0000 0000 0000 0000 0000 0000 0000 0000
00000030: 0000 0000 0000 0000 0000 0000 0000 0000
00000040: 0000 0000 0000 0000 0000 0000 0000 0000
00000050: 0000 0000 0000 0000 0000 0000 0000 0000
00000060: 0000 0000 0000 0000 0000 0000 0000 0000
00000070: 0000 0000 0000 0000 0000 0000 0000 0000
00000080: 0000 0000 0000 0000 0000 0000 0000 0000
00000090: 0000 0000 0000 0000 0000 0000 0000 0000
000000a0: 0000 0000 0000 0000 0000 0000 0000 0000
000000b0: 0000 0000 0000 0000 0000 0000 0000 0000
000000c0: 0000 0000 0000 0000 0000 0000 0000 0000
000000d0: 0000 0000 0000 0000 0000 0000 0000 0000
000000e0: 0000 0000 0000 0000 0000 0000 0000 0000
000000f0: 0000 0000 0000 0000 0000 0000 0000 0000
00000100: 0000 0000 0000 0000 0000 0000 0000 0000
00000110: 0000 0000 0000 0000 0000 0000 0000 0000
00000120: 0000 0000 0000 0000 0000 0000 0000 0000
00000130: 0000 0000 0000 0000 0000 0000 0000 0000
00000140: 0000 0000 0000 0000 0000 0000 0000 0000
00000150: 0000 0000 0000 0000 0000 0000 0000 0000
00000160: 0000 0000 0000 0000 0000 0000 0000 0000
00000170: 0000 0000 0000 0000 0000 0000 0000 0000
00000180: 0000 0000 0000 0000 0000 0000 0000 0000
00000190: 0000 0000 0000 0000 0000 0000 0000 0000
000001a0: 0000 0000 0000 0000 0000 0000 0000 0000
000001b0: 0000 0000 0000 0000 0000 0000 0000 0000
000001c0: 0000 0000 0000 0000 0000 0000 0000 0000
000001d0: 0000 0000 0000 0000 0000 0000 0000 0000
000001e0: 0000 0000 0000 0000 0000 0000 0000 0000
000001f0: 0000 0000 0000 0000 0000 0000 0000 0000
00000200: 0000 0000 0000 0000 0000 0000 0000 0000
00000210: 0000 0000 0000 0000 0000 0000 0000 0000
00000220: 0000 0000 0000 0000 0000 0000 0000 0000
00000230: 0000 0000 0000 0000 0000 0000 0000 0000
00000240: 0000 0000 0000 0000 0000 0000 0000 0000
00000250: 0000 0000 0000 0000 0000 0000 0000 0000
00000260: 0000 0000 0000 0000 0000 0000 0000 0000
00000270: 0000 0000 0000 0000 0000 0000 0000 0000
00000280: 0000 0000 0000 0000 0000 0000 0000 0000
00000290: 0000 0000 0000 0000 0000 0000 0000 0000
000002a0: 0000 0000 0000 0000 0000 0000 0000 0000
000002b0: 0000 0000 0000 0000 0000 0000 0000 0000
000002c0: 0000 0000 0000 0000 0000 0000 0000 0000
000002d0: 0000 0000 0000 0000 0000 0000 0000 0000
000002e0: 0000 0000 0000 0000 0000 0000 0000 0000
000002f0: 0000 0000 0000 0000 0000 0000 0000 0000
00000300: 0000 0000 0000 0000 0000 0000 0000 0000
00000310: 0000 0000 0000 0000 0000 0000 0000 0000
00000320: 0000 0000 0000 0000 0000 0000 0000 0000
00000330: 0000 0000 0000 0000 0000 0000 0000 0000
00000340: 0000 0000 0000 0000 0000 0000 0000 0000
00000350: 0000 0000 0000 0000 0000 0000 0000 0000
00000360: 0000 0000 0000 0000 0000 0000 0000 0000
00000370: 0000 0000 0000 0000 0000 0000 0000 0000
00000380: 0000 0000 0000 0000 0000 0000 0000 0000
00000390: 0000 0000 0000 0000 0000 0000 0000 0000
000003a0: 0000 0000 0000 0000 0000 0000 0000 0000
000003b0: 0000 0000 0000 0000 0000 0000 0000 0000
000003c0: 0000 0000 0000 0000 0000 0000 0000 0000
000003d0: 0000 0000 0000 0000 0000 0000 0000 0000
000003e0: 0000 0000 0000 0000 0000 0000 0000 0000
000003f0: 0000 0000 0000 0000 0000 0000 0000 0000

network_body._body_endoder.seq_layers.2.weight f4 [256, 256]
0.04550653 0.02679193 0.028546037 -0.022524592 0.07331519 -0.05371665 -0.0055108373 -0.016615368
-0.04704679 -0.011733698 0.13213827 -0.04757613 0.015619743 0.051230635 -0.01927769 -0.05276139
0.16978891 0.034367066 0.051777028 0.08212665 0.0026416034 -0.016306179 0.023348447 0.041139662
0.04448752 -0.016121563 0.09093562 -0.031483203 -0.014417626 0.092934944 0.042733856 -0.03293649
-0.0074579967 0.010656067 -0.063627206 0.037058957 0.02581497 -0.048261333 -0.1184496 0.10259084
-0.02563522 0.052211672 0.0012551789 0.04021281 -0.015482466 0.06666034 -0.096052974 -0.08361877
-0.0066705057 -0.05318757 -0.07704977 0.15003625 -0.09427574 0.004155244 -0.05034175 0.07021564
0.21720016 -0.086971425 0.057613123 0.017630355 0.00578874 0.049427357 -0.0025073255 0.0030232794
-0.024936307 -0.033538315 0.04445958 0.008889419 -0.07501681 0.050816465 0.0036639515 0.07909702
0.0004649844 0.07324042 -0.04232088 -0.023029344 -0.06150668 0.11500811 0.041652195 0.029427385
0.001599446 0.0021149716 -0.047114518 -0.0043767802 0.019259593 0.05229129 0.027295453 -0.023913892
-0.016506277 0.09793381 0.008600134 -0.13015744 0.03791127 0.042778846 0.06829459 0.08147131
-0.08105889 0.052779235 -0.006899699 -0.045765724 0.07112419 -0.022555968 0.02335498 0.015367658
0.023087379 0.06743663 0.04963055 -0.058551896 -0.038876977 -0.020088775 0.013541614 0.015089108
-0.06001433 0.10803931 -0.0040313145 0.057764154 0.042153288 0.08996409 -0.1378468 -0.091400936
0.04055409 0.08515228 0.0648318 0.13735859 0.059970066 0.0043472447 0.05242589 0.003217838
-0.010445311 -0.03838442 -0.012790538 0.0070665213 0.009725105 0.04438783 -0.0144184865 0.023793878
0.032290112 0.036868606 0.0076243803 -0.12583956 -0.06055242 -0.038797207 -0.029184664 0.045471724
0.057561483 0.0014105133 -0.008480606 0.04227035 0.0229126 -0.10186211 0.09635742 -0.039532132
-0.063293755 0.027921475 0.015160227 0.0081683295 0.004987804 0.044942666 0.004082528 -0.061451424
0.031746857 0.007125259 -0.0624774 0.05618855 -0.09719045 0.022810798 0.09506358 -0.050288733
-0.071386114 -0.058958504 0.081294194 0.073138095 0.12379361 0.05555329 -0.08453612 -0.046709083
0.05967099 0.02869869 -0.047544025 0.08731017 0.011531335 0.061966974 -0.039547935 -0.0002671136
0.118848294 -0.08019131 0.13718803 -0.005040553 0.11644645 -0.03478979 -0.066063076 -0.060085334
-0.042127937 0.03641536 0.011412888 -0.07653024 -0.12381104 -0.064040214 -0.1360265 0.023022143
0.007541524 -0.040714227 0.010833424 -0.07225659 -0.048146646 0.1124729 -0.00039087434 -0.10599724
-0.024677055 -0.052642237 0.0060149045 -0.007133016 0.012000662 0.03494088 0.0011049723 -0.06616455
0.0009972055 -0.008936821 -0.013519741 -0.07614216 -0.049547832 -0.0035676458 -0.031826492 0.09043416
-0.033207443 -0.12745479 -0.111892805 -0.2296119 -0.092207596 -0.045380585 0.012834494 0.121592686
-0.0460866 -0.090976425 -0.109273404 -0.1201249 0.013652237 -0.014713078 -0.020618346 0.0040902006
-0.014384217 0.03864209 -0.015299314 -0.17309695 0.021617081 0.010636051 -0.08973793 0.08376675
-0.0092378445 0.019255241 -0.063602604 -0.0059971837 -0.07311763 0.007994318 0.019277338 0.08214035
00000000: 0e65 3a3d c07a db3c 61d9 e93c 7e85 b8bc
00000010: 4626 963d fd05 5cbd 4194 b4bb f41c 88bc
00000020: 23b4 40bd b23e 40bc 414f 073e 30df 42bd
00000030: f3e9 7f3c 37d7 513d 3fec 9dbc 541c 58bd
00000040: 25dd 2d3e 7bc4 0c3d 2614 543d 0432 a83d
00000050: c01e 2d3b 8994 85bc 3e45 bf3c 1082 283d
00000060: 8c38 363d 5e11 84bc 743c ba3d 88f4 00bd
00000070: e837 6cbc ad54 be3d b209 2f3d 6ae8 06bd
00000080: 3662 f4bb c996 2e3c fb4e 82bd 22cb 173d
00000090: ea79 d33c adad 45bd b495 f2bd 251b d23d
000000a0: f400 d2bc e8db 553d d184 a43a 30b6 243d
000000b0: 2baa 7dbc 3785 883d 6cb7 c4bd 5140 abbd
000000c0: 4294 dabb 36db 59bd 45cc 9dbd 1aa3 193e
000000d0: a413 c1bd b728 883b 2733 4ebd 38cd 8f3d
000000e0: b869 5e3e 131e b2bd bdfb 6b3d 896d 903c
000000f0: 78af bd3b 5774 4a3d f151 24bb 3622 463b
00000100: 3a47 ccbc 795f 09bd 401b 363d eda4 113c
00000110: 6aa2 99bd ed24 503d e81e 703b 9efd a13d
00000120: 26c9 f339 13ff 953d a958 2dbd 09a8 bcbc
00000130: 6eee 7bbd 5f89 eb3d 7e9b 2a3d b311 f13c
00000140: 81a4 d13a 569b 0a3b 27fb 40bd 186b 8fbb
00000150: 4bc6 9d3c 642f 563d b79a df3c 11e7 c3bc
00000160: 2c38 87bc 8591 c83d 94e7 0c3c fe47 05be
00000170: d948 1b3d df38 2f3d 09de 8b3d 6eda a63d
00000180: 3402 a6bd 0a2f 583d df16 e2bb d774 3bbd
00000190: 8fa9 913d 4bc7 b8bc f152 bf3c a1c8 7b3c
000001a0: be21 bd3c 371c 8a3d 6749 4b3d 1dd4 6fbd
000001b0: 773d 1fbd 3791 a4bc a5dd 5d3c 4e38 773c
000001c0: 96d1 75bd b743 dd3d 1e19 84bb 1b9a 6c3d
000001d0: eda8 2c3d 183f b83d b627 0dbe 6a30 bbbd
000001e0: 0c1c 263d 5264 ae3d 89c6 843d bba7 0c3e
000001f0: 2ca3 753d 5573 8e3b 88bc 563d 5de2 523b
00000200: cf22 2bbc fb38 1dbd 688f 51bc 478e e73b
00000210: 0c56 1f3c 03d0 353d 843b 6cbc 61eb c23c
00000220: a342 043d 8903 173d f0d5 f93b 16dc 00be
00000230: d005 78bd d2e9 1ebd ad14 efbc 8f40 3a3d
00000240: 97c5 6b3d f9e0 b83a 3df2 0abc ad23 2d3d
00000250: 34b3 bb3c 159d d0bd 0a57 c53d 72ec 21bd
00000260: 28a0 81bd 94bb e43c 9a62 783c 75d4 053c
00000270: bc70 a33b cd15 383d bac6 853b 7db4 7bbd
00000280: fe08 023d 017b e93b 4de8 7fbd f725 663d
00000290: c90b c7bd b6dd ba3c b2b0 c23d 8ffb 4dbd
000002a0: e232 92bd 797e 71bd 927d a63d 6dc9 953d
000002b0: 8187 fd3d d98b 633d 4621 adbd 0652 3fbd
000002c0: 9169 743d 8419 eb3c 86bd 42bd adcf b23d
000002d0: eded 3c3c 15d1 7d3d 04fd 21bd 610b 8cb9
000002e0: bc66 f33d 573b a4bd 057b 0c3e 392b a5bb
000002f0: 7a7b ee3d bd7f 0ebd 144c 87bd 0a1c 76bd
00000300: 588e 2cbd 4628 153d 1ffd 3a3c e3bb 9cbd
00000310: a490 fdbd 8427 83bd 884a 0bbe ef98 bc3c
00000320: e31e f73b f6c3 26bd ac7e 313c 43fb 93bd
00000330: 6b35 45bd 3158 e63d 44ee ccb9 1515 d9bd
00000340: 8927 cabc 639f 57bd ad18 c53b 13bc e9bb
00000350: 6d9e 443c 2b1e 0f3d b8d4 903a 4881 87bd
00000360: aab4 823a be6b 12bc e781 5dbc 6cf0 9bbd
00000370: abf2 4abd 2acf 69bb 7f5c 02bd 8b35 b93d
00000380: 8704 08bd 8283 02be 0e28 e5bd 621f 6bbe
00000390: 56d7 bcbd fee0 39bd c547 523c 9605 f93d
000003a0: 4dc5 3cbd d951 babd bcca dfbd 0b04 f6bd
000003b0: a2ad 5f3c 1f0f 71bc cee7 a8bc 1707 863b
000003c0: c7ab 6bbc 2b47 1e3d f9a9 7abc 5440 31be
000003d0: 4e16 b13c d542 2e3c 85c8 b7bd e78d ab3d
000003e0: 545a 17bc 2bbd 9d3c 1542 82bd 0684 c4bb
000003f0: b2be 95bd 9afa 023c 82eb 9d3c 3339 a83d

network_body._body_endoder.seq_layers.2.bias f4 [256]
0.0 0.0 0.0 0.0 0.0 0.0 0.0 0.0
0.0 0.0 0.0 0.0 0.0 0.0 0.0 0.0
0.0 0.0 0.0 0.0 0.0 0.0 0.0 0.0
0.0 0.0 0.0 0.0 0.0 0.0 0.0 0.0
0.0 0.0 0.0 0.0 0.0 0.0 0.0 0.0
0.0 0.0 0.0 0.0 0.0 0.0 0.0 0.0
0.0 0.0 0.0 0.0 0.0 0.0 0.0 0.0
0.0 0.0 0.0 0.0 0.0 0.0 0.0 0.0
0.0 0.0 0.0 0.0 0.0 0.0 0.0 0.0
0.0 0.0 0.0 0.0 0.0 0.0 0.0 0.0
0.0 0.0 0.0 0.0 0.0 0.0 0.0 0.0
0.0 0.0 0.0 0.0 0.0 0.0 0.0 0.0
0.0 0.0 0.0 0.0 0.0 0.0 0.0 0.0
0.0 0.0 0.0 0.0 0.0 0.0 0.0 0.0
0.0 0.0 0.0 0.0 0.0 0.0 0.0 0.0
0.0 0.0 0.0 0.0 0.0 0.0 0.0 0.0
0.0 0.0 0.0 0.0 0.0 0.0 0.0 0.0
0.0 0.0 0.0 0.0 0.0 0.0 0.0 0.0
0.0 0.0 0.0 0.0 0.0 0.0 0.0 0.0
0.0 0.0 0.0 0.0 0.0 0.0 0.0 0.0
0.0 0.0 0.0 0.0 0.0 0.0 0.0 0.0
0.0 0.0 0.0 0.0 0.0 0.0 0.0 0.0
0.0 0.0 0.0 0.0 0.0 0.0 0.0 0.0
0.0 0.0 0.0 0.0 0.0 0.0 0.0 0.0
0.0 0.0 0.0 0.0 0.0 0.0 0.0 0.0
0.0 0.0 0.0 0.0 0.0 0.0 0.0 0.0
0.0 0.0 0.0 0.0 0.0 0.0 0.0 0.0
0.0 0.0 0.0 0.0 0.0 0.0 0.0 0.0
0.0 0.0 0.0 0.0 0.0 0.0 0.0 0.0
0.0 0.0 0.0 0.0 0.0 0.0 0.0 0.0
0.0 0.0 0.0 0.0 0.0 0.0 0.0 0.0
0.0 0.0 0.0 0.0 0.0 0.0 0.0 0.0
00000000: 0000 0000 0000 0000 0000 0000 0000 0000
00000010: 0000 0000 0000 0000 0000 0000 0000 0000
00000020: 0000 0000 0000 0000 0000 0000 0000 0000
00000030: 0000 0000 0000 0000 0000 0000 0000 0000
00000040: 0000 0000 0000 0000 0000 0000 0000 0000
00000050: 0000 0000 0000 0000 0000 0000 0000 0000
00000060: 0000 0000 0000 0000 0000 0000 0000 0000
00000070: 0000 0000 0000 0000 0000 0000 0000 0000
00000080: 0000 0000 0000 0000 0000 0000 0000 0000
00000090: 0000 0000 0000 0000 0000 0000 0000 0000
000000a0: 0000 0000 0000 0000 0000 0000 0000 0000
000000b0: 0000 0000 0000 0000 0000 0000 0000 0000
000000c0: 0000 0000 0000 0000 0000 0000 0000 0000
000000d0: 0000 0000 0000 0000 0000 0000 0000 0000
000000e0: 0000 0000 0000 0000 0000 0000 0000 0000
000000f0: 0000 0000 0000 0000 0000 0000 0000 0000
00000100: 0000 0000 0000 0000 0000 0000 0000 0000
00000110: 0000 0000 0000 0000 0000 0000 0000 0000
00000120: 0000 0000 0000 0000 0000 0000 0000 0000
00000130: 0000 0000 0000 0000 0000 0000 0000 0000
00000140: 0000 0000 0000 0000 0000 0000 0000 0000
00000150: 0000 0000 0000 0000 0000 0000 0000 0000
00000160: 0000 0000 0000 0000 0000 0000 0000 0000
00000170: 0000 0000 0000 0000 0000 0000 0000 0000
00000180: 0000 0000 0000 0000 0000 0000 0000 0000
00000190: 0000 0000 0000 0000 0000 0000 0000 0000
000001a0: 0000 0000 0000 0000 0000 0000 0000 0000
000001b0: 0000 0000 0000 0000 0000 0000 0000 0000
000001c0: 0000 0000 0000 0000 0000 0000 0000 0000
000001d0: 0000 0000 0000 0000 0000 0000 0000 0000
000001e0: 0000 0000 0000 0000 0000 0000 0000 0000
000001f0: 0000 0000 0000 0000 0000 0000 0000 0000
00000200: 0000 0000 0000 0000 0000 0000 0000 0000
00000210: 0000 0000 0000 0000 0000 0000 0000 0000
00000220: 0000 0000 0000 0000 0000 0000 0000 0000
00000230: 0000 0000 0000 0000 0000 0000 0000 0000
00000240: 0000 0000 0000 0000 0000 0000 0000 0000
00000250: 0000 0000 0000 0000 0000 0000 0000 0000
00000260: 0000 0000 0000 0000 0000 0000 0000 0000
00000270: 0000 0000 0000 0000 0000 0000 0000 0000
00000280: 0000 0000 0000 0000 0000 0000 0000 0000
00000290: 0000 0000 0000 0000 0000 0000 0000 0000
000002a0: 0000 0000 0000 0000 0000 0000 0000 0000
000002b0: 0000 0000 0000 0000 0000 0000 0000 0000
000002c0: 0000 0000 0000 0000 0000 0000 0000 0000
000002d0: 0000 0000 0000 0000 0000 0000 0000 0000
000002e0: 0000 0000 0000 0000 0000 0000 0000 0000
000002f0: 0000 0000 0000 0000 0000 0000 0000 0000
00000300: 0000 0000 0000 0000 0000 0000 0000 0000
00000310: 0000 0000 0000 0000 0000 0000 0000 0000
00000320: 0000 0000 0000 0000 0000 0000 0000 0000
00000330: 0000 0000 0000 0000 0000 0000 0000 0000
00000340: 0000 0000 0000 0000 0000 0000 0000 0000
00000350: 0000 0000 0000 0000 0000 0000 0000 0000
00000360: 0000 0000 0000 0000 0000 0000 0000 0000
00000370: 0000 0000 0000 0000 0000 0000 0000 0000
00000380: 0000 0000 0000 0000 0000 0000 0000 0000
00000390: 0000 0000 0000 0000 0000 0000 0000 0000
000003a0: 0000 0000 0000 0000 0000 0000 0000 0000
000003b0: 0000 0000 0000 0000 0000 0000 0000 0000
000003c0: 0000 0000 0000 0000 0000 0000 0000 0000
000003d0: 0000 0000 0000 0000 0000 0000 0000 0000
000003e0: 0000 0000 0000 0000 0000 0000 0000 0000
000003f0: 0000 0000 0000 0000 0000 0000 0000 0000

network_body._body_endoder.seq_layers.4.weight f4 [256, 256]
0.042231806 -0.027401756 -0.022277707 0.047447182 -0.05978045 0.01675847 0.030584775 0.014982124
0.045699205 -0.036250506 -0.03354991 0.013617704 0.0037625944 0.045878705 0.033107072 -0.033346877
0.0037668687 -0.012873943 -0.08968343 0.098977305 0.028418042 -0.06685805 -0.20734653 0.09270103
-0.01536635 0.04362856 -0.019253703 -0.049783573 0.032937896 -0.027178787 -0.03405848 -0.0037929732
-0.034925863 -0.10146942 0.05562482 -0.07173079 0.034596365 -0.035648253 0.05676345 0.18529083
-0.09271191 0.03240183 -0.0015457812 -0.020569267 -0.122469984 -0.095069125 -0.13203585 -0.007864794
-0.1211551 -0.046188325 -0.0017249701 -0.0013425555 -0.09748362 -0.0038385058 0.0032916886 0.056438375
0.048724167 -0.024419436 0.043397862 -0.049103234 -0.12362906 0.07103829 0.10685928 0.013823097
0.06581656 0.024610316 0.047777418 -0.036615312 -0.004692545 -0.031797446 -0.009400793 -0.019950699
0.066833586 -0.1062678 -0.0024873922 0.0640892 0.058895733 -0.038387753 0.035709687 0.055392478
0.1055566 -0.031060975 0.049873218 0.044181257 0.07172778 0.014207647 0.036594678 -0.08432736
-0.057569966 0.11649612 -0.05023871 -0.16827339 -0.014808022 -0.11551001 0.101425774 0.12355939
0.047056787 -0.08075685 -0.008958319 -0.107285574 -0.08827691 -0.0056666196 0.050015602 0.07465448
-0.027839063 -0.041822873 0.023540372 0.059323575 0.019123616 -0.005544403 0.0875063 -0.070554346
-0.00563597 0.046662666 -0.07036164 -0.0877837 -0.04535001 0.016238106 -0.079919584 0.029047184
-0.03489973 0.0420007 0.1516664 0.050879322 -0.12354517 -0.050233234 -0.06373642 0.063757375
-0.08901565 0.07764166 -0.043284126 0.020739313 0.06356911 0.054572746 0.017323654 -0.032662645
0.048977915 -0.09335855 -0.06766372 -0.048883438 -0.026673688 -0.07462712 0.03335375 -0.0445518
-0.031002002 0.06334044 0.0345554 0.087823376 0.05029236 -0.06512793 -0.005966016 0.114147894
0.0110105425 -0.14452815 -0.17560175 -0.12941399 -0.024719534 -0.022052547 -0.08856981 -0.0409906
0.0030705722 0.035745777 0.04005246 0.04601697 0.08824924 0.09409672 0.16650398 0.045501642
0.06165574 0.010059993 0.0106844725 0.03665707 -0.016755072 -0.026611848 -0.037782803 0.00976961
-0.079307765 0.04175254 0.028446456 0.048044853 0.10575414 -0.026920756 -0.048357222 0.00033872653
0.13773642 0.04845825 0.058267258 0.09038017 0.052952383 0.0621623 0.006181162 -0.0610111
0.03501 0.07360108 0.045486115 -0.061033543 0.023277467 0.027915489 0.08360555 0.00049732963
-0.06734244 0.039173868 -0.07974888 0.011026615 -0.08706697 -0.0012198449 0.03051348 0.092766546
-0.11260845 0.061821282 -0.07368555 0.13554455 0.0462681 0.07832776 0.049931165 -0.02447765
0.08677697 0.030015813 -0.08729034 0.052650224 -0.048841503 0.14605993 0.1259111 0.07919767
-0.021979773 -0.025230745 0.10394646 0.12115239 -0.011887239 -0.02436836 0.013968097 0.02005085
0.12731212 0.10279823 0.02522004 -0.02533499 0.022549244 0.06389302 -0.015681708 0.018920114
-0.014349391 0.008712916 0.03284275 0.039205864 0.013411952 0.024310911 -0.037480697 0.1013848
-0.020636171 -0.062548585 -0.0073359106 0.0023009018 0.075544804 0.1278534 0.0277519 -0.0794855
00000000: 42fb 2c3d a679 e0bc bd7f b6bc fa57 423d
00000010: 58dc 74bd 0f49 893c ec8c fa3c 9577 753c
00000020: 172f 3b3d 697b 14bd a16b 09bd ca1c 5f3c
00000030: dc95 763b 4feb 3b3d 489b 073d bc96 08bd
00000040: 92dd 763b 3bed 52bc f2ab b7bd 9db4 ca3d
00000050: f4cc e83c e0ec 88bd a652 54be 0ada bd3d
00000060: 25c3 7bbc dcb3 323d f1b9 9dbc dce9 4bbd
00000070: e3e9 063d 0ca6 debc e880 0bbd 8893 78bb
00000080: 6c0e 0fbd 33cf cfbd dad6 633d 98e7 92bd
00000090: ebb4 0d3d e703 12bd cb80 683d e1bc 3d3e
000000a0: bedf bdbd c8b7 043d cf9b caba e180 a8bc
000000b0: 8bd1 fabd 9ab3 c2bd 6834 07be 56db 00bc
000000c0: 2a20 f8bd f82f 3dbd 6418 e2ba b0f8 afba
000000d0: 7ea5 c7bd 718f 7bbb 5fb9 573b ed2b 673d
000000e0: fe92 473d 450b c8bc f5c1 313d 7920 49bd
000000f0: 3c31 fdbd 867c 913d 0ad9 da3d 457a 623c
00000100: d5ca 863d 939b c93c 41b2 433d f0f9 15bd
00000110: ecc3 99bb 0a3e 02bd c905 1abc a66f a3bc
00000120: 0ce0 883d efa2 d9bd 8403 23bb 3341 833d
00000130: a73c 713d 7a3c 1dbd 5244 123d 39e3 623d
00000140: 0f2e d83d 9673 febc dc47 4c3d 68f7 343d
00000150: 04e6 923d 31c7 683c 4de4 153d d3b3 acbd
00000160: 7cce 6bbd 8595 ee3d 1bc7 4dbd dc4f 2cbe
00000170: 599d 72bc 8390 ecbd 51b8 cf3d b50c fd3d
00000180: 9ebe 403d d963 a5bd eac5 12bc 8ab8 dbbd
00000190: 86ca b4bd 0daf b9bb 29dd 4c3d 73e4 983d
000001a0: bf0e e4bc 764e 2bbd bdd7 c03c 47fd 723d
000001b0: 21a9 9c3c d3ad b5bb 8136 b33d cc7e 90bd
000001c0: f1ad b8bb 5a21 3f3d c319 90bd f1c7 b3bd
000001d0: efc0 39bd c705 853c e1ac a3bd 5cf4 ed3c
000001e0: 05f3 0ebd ed08 2c3d 704e 1b3e d666 503d
000001f0: 4005 fdbd 5dc1 4dbd 3d88 82bd 3a93 823d
00000200: d64d b6bd 9702 9f3d b24a 31bd 7ee5 a93c
00000210: 8630 823d ac87 5f3d 56ea 8d3c 44c9 05bd
00000220: 119d 483d c432 bfbd 4793 8abd 003a 48bd
00000230: c782 dabc 1ad6 98bd f19d 083d f37b 36bd
00000240: e9f7 fdbc a2b8 813d f789 0d3d bedc b33d
00000250: 5dff 4d3d cb61 85bd 927e c3bb 5fc6 e93d
00000260: 9065 343c 30ff 13be f2d0 33be 1a85 04be
00000270: 9f80 cabc 8ba7 b4bc 1764 b5bd c2e5 27bd
00000280: a73b 493b 2a6a 123d 0c0e 243d 4a7c 3c3d
00000290: 04bc b43d c8b5 c03d 0580 2a3e ee5f 3a3d
000002a0: bb8a 7c3d abd2 243c ed0d 2f3c b925 163d
000002b0: ef41 89bc 1701 dabc 24c2 1abd b710 203c
000002c0: 1c6c a2bd b604 2b3d 8b08 e93c aeca 443d
000002d0: a095 d83d eb88 dcbc 3912 46bd 1b97 b139
000002e0: c70a 0d3e 287c 463d a6a9 6e3d 3d19 b93d
000002f0: 99e4 583d e59d 7e3d 588b ca3b c6e6 79bd
00000300: a566 0f3d 2abc 963d a64f 3a3d 4ffe 79bd
00000310: 63b0 be3c 06af e43c 6339 ab3d 3a5f 023a
00000320: d5ea 89bd c774 203d 6153 a3bd faa8 343c
00000330: 2b50 b2bd 34e3 9fba 68f7 f93c 63fc bd3d
00000340: 429f e6bd 5038 7d3d 73e8 96bd 31cc 0a3e
00000350: 9f83 3d3d 4e6a a03d 9f84 4c3d 5a85 c8bc
00000360: 20b8 b13d b9e3 f53c 47c5 b2bd c3a7 573d
00000370: 070e 48bd bc90 153e d7ee 003e 6332 a23d
00000380: ed0e b4bc b5b0 cebc e2e1 d43d bf1e f83d
00000390: b2c2 42bc 28a0 c7bc 72da 643c ae41 a43c
000003a0: 1c5e 023e e187 d23d 429a ce3c 538b cfbc
000003b0: 31b9 b83c 58da 823d ed76 80bc 5bfe 9a3c
000003c0: b519 6bbc 9ec0 0e3c 1f86 063d 5496 203d
000003d0: cebd 5b3c ad27 c73c 5c85 19bd d6a2 cf3d
000003e0: 300d a9bc 7919 80bd 1462 f0bb baca 163b
000003f0: 3cb7 9a3d 00ec 023e f457 e33c 4bc9 a2bd

network_body._body_endoder.seq_layers.4.bias f4 [256]
0.0 0.0 0.0 0.0 0.0 0.0 0.0 0.0
0.0 0.0 0.0 0.0 0.0 0.0 0.0 0.0
0.0 0.0 0.0 0.0 0.0 0.0 0.0 0.0
0.0 0.0 0.0 0.0 0.0 0.0 0.0 0.0
0.0 0.0 0.0 0.0 0.0 0.0 0.0 0.0
0.0 0.0 0.0 0.0 0.0 0.0 0.0 0.0
0.0 0.0 0.0 0.0 0.0 0.0 0.0 0.0
0.0 0.0 0.0 0.0 0.0 0.0 0.0 0.0
0.0 0.0 0.0 0.0 0.0 0.0 0.0 0.0
0.0 0.0 0.0 0.0 0.0 0.0 0.0 0.0
0.0 0.0 0.0 0.0 0.0 0.0 0.0 0.0
0.0 0.0 0.0 0.0 0.0 0.0 0.0 0.0
0.0 0.0 0.0 0.0 0.0 0.0 0.0 0.0
0.0 0.0 0.0 0.0 0.0 0.0 0.0 0.0
0.0 0.0 0.0 0.0 0.0 0.0 0.0 0.0
0.0 0.0 0.0 0.0 0.0 0.0 0.0 0.0
0.0 0.0 0.0 0.0 0.0 0.0 0.0 0.0
0.0 0.0 0.0 0.0 0.0 0.0 0.0 0.0
0.0 0.0 0.0 0.0 0.0 0.0 0.0 0.0
0.0 0.0 0.0 0.0 0.0 0.0 0.0 0.0
0.0 0.0 0.0 0.0 0.0 0.0 0.0 0.0
0.0 0.0 0.0 0.0 0.0 0.0 0.0 0.0
0.0 0.0 0.0 0.0 0.0 0.0 0.0 0.0
0.0 0.0 0.0 0.0 0.0 0.0 0.0 0.0
0.0 0.0 0.0 0.0 0.0 0.0 0.0 0.0
0.0 0.0 0.0 0.0 0.0 0.0 0.0 0.0
0.0 0.0 0.0 0.0 0.0 0.0 0.0 0.0
0.0 0.0 0.0 0.0 0.0 0.0 0.0 0.0
0.0 0.0 0.0 0.0 0.0 0.0 0.0 0.0
0.0 0.0 0.0 0.0 0.0 0.0 0.0 0.0
0.0 0.0 0.0 0.0 0.0 0.0 0.0 0.0
0.0 0.0 0.0 0.0 0.0 0.0 0.0 0.0
00000000: 0000 0000 0000 0000 0000 0000 0000 0000
00000010: 0000 0000 0000 0000 0000 0000 0000 0000
00000020: 0000 0000 0000 0000 0000 0000 0000 0000
00000030: 0000 0000 0000 0000 0000 0000 0000 0000
00000040: 0000 0000 0000 0000 0000 0000 0000 0000
00000050: 0000 0000 0000 0000 0000 0000 0000 0000
00000060: 0000 0000 0000 0000 0000 0000 0000 0000
00000070: 0000 0000 0000 0000 0000 0000 0000 0000
00000080: 0000 0000 0000 0000 0000 0000 0000 0000
00000090: 0000 0000 0000 0000 0000 0000 0000 0000
000000a0: 0000 0000 0000 0000 0000 0000 0000 0000
000000b0: 0000 0000 0000 0000 0000 0000 0000 0000
000000c0: 0000 0000 0000 0000 0000 0000 0000 0000
000000d0: 0000 0000 0000 0000 0000 0000 0000 0000
000000e0: 0000 0000 0000 0000 0000 0000 0000 0000
000000f0: 0000 0000 0000 0000 0000 0000 0000 0000
00000100: 0000 0000 0000 0000 0000 0000 0000 0000
00000110: 0000 0000 0000 0000 0000 0000 0000 0000
00000120: 0000 0000 0000 0000 0000 0000 0000 0000
00000130: 0000 0000 0000 0000 0000 0000 0000 0000
00000140: 0000 0000 0000 0000 0000 0000 0000 0000
00000150: 0000 0000 0000 0000 0000 0000 0000 0000
00000160: 0000 0000 0000 0000 0000 0000 0000 0000
00000170: 0000 0000 0000 0000 0000 0000 0000 0000
00000180: 0000 0000 0000 0000 0000 0000 0000 0000
00000190: 0000 0000 0000 0000 0000 0000 0000 0000
000001a0: 0000 0000 0000 0000 0000 0000 0000 0000
000001b0: 0000 0000 0000 0000 0000 0000 0000 0000
000001c0: 0000 0000 0000 0000 0000 0000 0000 0000
000001d0: 0000 0000 0000 0000 0000 0000 0000 0000
000001e0: 0000 0000 0000 0000 0000 0000 0000 0000
000001f0: 0000 0000 0000 0000 0000 0000 0000 0000
00000200: 0000 0000 0000 0000 0000 0000 0000 0000
00000210: 0000 0000 0000 0000 0000 0000 0000 0000
00000220: 0000 0000 0000 0000 0000 0000 0000 0000
00000230: 0000 0000 0000 0000 0000 0000 0000 0000
00000240: 0000 0000 0000 0000 0000 0000 0000 0000
00000250: 0000 0000 0000 0000 0000 0000 0000 0000
00000260: 0000 0000 0000 0000 0000 0000 0000 0000
00000270: 0000 0000 0000 0000 0000 0000 0000 0000
00000280: 0000 0000 0000 0000 0000 0000 0000 0000
00000290: 0000 0000 0000 0000 0000 0000 0000 0000
000002a0: 0000 0000 0000 0000 0000 0000 0000 0000
000002b0: 0000 0000 0000 0000 0000 0000 0000 0000
000002c0: 0000 0000 0000 0000 0000 0000 0000 0000
000002d0: 0000 0000 0000 0000 0000 0000 0000 0000
000002e0: 0000 0000 0000 0000 0000 0000 0000 0000
000002f0: 0000 0000 0000 0000 0000 0000 0000 0000
00000300: 0000 0000 0000 0000 0000 0000 0000 0000
00000310: 0000 0000 0000 0000 0000 0000 0000 0000
00000320: 0000 0000 0000 0000 0000 0000 0000 0000
00000330: 0000 0000 0000 0000 0000 0000 0000 0000
00000340: 0000 0000 0000 0000 0000 0000 0000 0000
00000350: 0000 0000 0000 0000 0000 0000 0000 0000
00000360: 0000 0000 0000 0000 0000 0000 0000 0000
00000370: 0000 0000 0000 0000 0000 0000 0000 0000
00000380: 0000 0000 0000 0000 0000 0000 0000 0000
00000390: 0000 0000 0000 0000 0000 0000 0000 0000
000003a0: 0000 0000 0000 0000 0000 0000 0000 0000
000003b0: 0000 0000 0000 0000 0000 0000 0000 0000
000003c0: 0000 0000 0000 0000 0000 0000 0000 0000
000003d0: 0000 0000 0000 0000 0000 0000 0000 0000
000003e0: 0000 0000 0000 0000 0000 0000 0000 0000
000003f0: 0000 0000 0000 0000 0000 0000 0000 0000

action_model._discrete_distribution.branches.0.weight f4 [3, 256]
-0.0060611563 -0.0009914098 0.008658613 -0.0077947616 -0.0011326198 0.0041812863 0.0061896127 0.0062195375
-0.008179689 -0.002455553 -0.008892443 0.004065336 -0.0049895975 0.0012960233 -0.0068727965 -0.00049100927
-0.0064133466 -0.0059138886 0.0062342105 0.00868833 -0.0018637957 -0.0012775701 0.00067731825 -0.014476115
-0.009002303 0.000528227 0.008995764 -0.0012354156 0.007881957 -0.0028730563 0.012816273 -0.006773586
-0.0019658094 -0.0017016822 0.013419864 -0.009660257 0.0032755218 -0.0040568938 -0.006502139 0.003724349
-0.004002097 -0.0047176364 -0.0028877938 0.0105925435 -0.015661616 -0.008817435 0.0024507998 0.001022709
0.00058568054 -0.008174161 -0.0027420376 -0.011494094 0.0073504723 0.0014519779 -0.009149364 0.0029386913
0.0013306985 0.00069767114 0.0074681304 -0.0028801817 0.010773768 0.00059911894 0.0062920274 0.00594799
0.006172522 -0.0056368196 -0.012455024 -0.0016048619 -0.0070346743 -0.0045349887 -0.006762191 -0.0065485127
-0.0010265114 -0.003804084 -0.0019332893 0.005496214 0.0048062396 0.014775301 -0.00044950788 -0.001147561
0.0028280336 -0.0008585984 0.0020829942 0.0058199447 0.0010444544 0.010483916 0.0026806537 -0.007044711
0.011733552 -0.005232845 0.0017585842 -0.0048592105 -0.012419933 -0.005753333 -0.008988749 -0.0011180294
-0.0032925145 -0.0064330786 0.0074995602 0.0050367108 -0.005172295 -0.0027795245 0.008404328 0.013820655
0.011185169 0.0013777597 -0.014390277 -0.0030058478 0.002683765 3.7014524e-05 -0.0044643683 -0.0005811738
-0.0057060155 0.00086034735 -0.005802641 0.0006837113 -0.0067580054 -0.0063561867 -0.0007686044 -0.0018330676
0.006940806 -0.0051082023 -0.0018037193 -0.0036362724 -0.006293084 -0.0030147627 -0.00051873695 -0.0043125856
0.0032619087 -0.0114285005 -0.0006974531 -0.00090361445 -0.0027512144 0.0033210516 -0.0035535176 0.0007513084
0.009284332 0.011124803 -0.0005142878 -0.011113408 0.005604564 0.009409279 -0.0069493353 0.007021924
-0.007202798 -0.0010501494 -0.0056845765 -0.0025030978 -0.007805053 0.0004100808 -0.001856516 0.00028655733
0.0021317014 -0.0011252643 0.0005482658 -0.0043676402 0.0042717704 0.0023766363 0.008842523 0.012445289
0.00829924 0.011299546 -0.0044970983 0.008015075 -0.0070674913 0.0052558742 -0.01071217 0.015171537
-0.016013443 -0.008286493 -0.0035917477 0.0038553698 0.017137976 0.00022742063 0.004416489 -0.00028763348
0.0002529113 0.0069633946 -0.0056094034 0.0016471073 -0.0070350803 0.0065482124 -0.009224917 0.007068834
0.004381576 0.0019342399 0.00070521253 0.008106871 -0.0016981525 0.004656022 -0.005663837 -0.0048562377
0.004030885 -0.0081782155 -0.0060261223 -0.005030339 -0.002491672 -0.0017113098 -0.00010732125 0.012919101
-0.0030082676 0.008089445 0.010206255 -0.005562554 -0.010001126 -0.003196219 -0.009384904 -0.0031899964
0.007727185 0.003393565 -0.008525297 -0.003775543 -0.002496699 -0.010672437 0.005486106 0.0018111867
-0.0037426185 0.0023802286 -0.0015921099 0.0042099613 -0.0033682925 -0.0011943955 0.0061662938 0.0077550053
0.0021217654 0.0019150788 -0.007037966 -0.0027270855 0.008261569 -0.005240885 0.0062673204 -0.0029604172
0.0056023425 -0.0005614654 0.0033643392 0.0036166066 -0.005212262 0.0034370949 -0.017792251 -0.0041223774
-0.00030813855 -0.0027590909 -0.018902007 0.0011764797 -0.0060652583 0.002360122 0.009558165 -0.0021740359
0.010815649 -0.0071488344 -0.00084647624 -0.009233993 0.0024797495 -0.007504807 -0.0018907059 0.0041427626
00000000: aa9c c6bb 31f2 81ba dbdc 0d3c 336b ffbb
00000010: 6a74 94ba 2c03 893b 3cd2 ca3b 43cd cb3b
00000020: 1a04 06bc 58ed 20bb 9cb1 11bc 8336 853b
00000030: c77f a3bb 53df a93a 3235 e1bb 13b7 00ba
00000040: 0d27 d2bb 4bc9 c1bb 5948 cc3b 7f59 0e3c
00000050: 9b4a f4ba 2474 a7ba 0f8e 313a 3a2d 6dbc
00000060: 657e 13bc b778 0a3a f862 133c abed a1ba
00000070: 5323 013c e349 3cbb 58fb 513c f5f4 ddbb
00000080: cfd4 00bb fb0a dfba fdde 5b3c 0e46 1ebc
00000090: 23aa 563b b1ef 84bb e50f d5bb 3514 743b
000000a0: 0624 83bb 6796 9abb 2441 3dbb 598c 2d3c
000000b0: ca4c 80bc 0177 10bc 999d 203b 6b0c 863a
000000c0: 5b88 193a ebec 05bc c2b3 33bb b951 3cbc
000000d0: 3bdc f03b 4b50 be3a 37e7 15bc 0f97 403b
000000e0: d56a ae3a ebe3 363a 38b7 f43b 6ec1 3cbb
000000f0: 7584 303c 310e 1d3a 5a2d ce3b 5be7 c23b
00000100: de42 ca3b 12b5 b8bb 2810 4cbc 3b5a d2ba
00000110: 2083 e6bb 3e9a 94bb 5f95 ddbb e894 d6bb
00000120: 028c 86ba f04d 79bb 6d66 fdba 9619 b43b
00000130: a97d 9d3b 1b14 723c edab ebb9 c269 96ba
00000140: 8856 393b 9013 61ba d882 083b 3cb5 be3b
00000150: 13e6 883a bbc4 2b3c e8ad 2f3b 52d7 e6bb
00000160: 163e 403c 4978 abbb 4b80 e63a 033a 9fbb
00000170: fa7c 4bbc 7586 bcbb 8c45 13bc d78a 92ba
00000180: 3ac7 57bb 93cc d2bb dfbe f53b fe0a a53b
00000190: 5b7c a9bb af28 36bb 4eb2 093c 0770 623c
000001a0: 0042 373c f295 b43a 32c5 6bbc c2fd 44bb
000001b0: 1be2 2f3b 0b40 1b38 d649 92bb ea59 18ba
000001c0: 87f9 babb ef88 613a 1524 bebb 173b 333a
000001d0: 4272 ddbb 8f47 d0bb 2b7c 49ba 8b43 f0ba
000001e0: b36f e33b b562 a7bb c76a ecba 874e 6ebb
000001f0: 3736 cebb 5393 45bb d9fb 07ba 9750 8dbb
00000200: bfc5 553b 9b3e 3bbc 49d5 36ba 8ae0 6cba
00000210: b84d 34bb 00a6 593b 22e2 68bb 74f3 443a
00000220: 501d 183c ce44 363c 45d1 06ba 0315 36bc
00000230: 7ea6 b73b 6029 1a3c 40b7 e3bb 2b18 e63b
00000240: 7305 ecbb 2ba5 89ba af45 babb 030b 24bb
00000250: 88c1 ffbb 1d00 d739 5756 f3ba 133d 9639
00000260: 04b4 0b3b 9b7d 93ba 7fb9 0f3a 6c1e 8fbb
00000270: 35fa 8b3b 57c1 1b3b 3be0 103c 53e7 4b3c
00000280: 89f9 073c bb21 393c 655c 93bb a951 033c
00000290: 6a96 e7bb 7839 ac3b 1982 2fbc 0a92 783c
000002a0: a02e 83bc 12c4 07bc 8763 6bbb 5faa 7c3b
000002b0: f164 8c3c c377 6e39 32b8 903b 83cd 96b9
000002c0: 2e99 8439 302d e43b 16cf b7bb c0e3 d73a
000002d0: 8886 e6bb 6392 d63b 1b24 17bc ada1 e73b
000002e0: 5393 8f3b 5286 fd3a 03de 383a aed2 043c
000002f0: 8b94 deba 8b91 983b b597 b9bb 1321 9fbb
00000300: 8415 843b ecfd 05bc c776 c5bb 8bd5 a4bb
00000310: 524b 23bb 074e e0ba a811 e1b8 a3aa 533c
00000320: 5b26 45bb 9789 043c 2338 273c 1646 b6bb
00000330: c3db 23bc a877 51bb 24c3 19bc 420f 51bb
00000340: 5334 fd3b 9366 5e3b b0ad 0bbc 1a6f 77bb
00000350: a99f 23bb 72db 2ebc cbc4 b33b 5765 ed3a
00000360: b846 75bb 9cfd 1b3b 58ae d0ba b7f3 893b
00000370: 92be 5cbb 438d 9cba 9f0e ca3b b31d fe3b
00000380: 510d 0b3b 6203 fb3a bd9e e6bb e7b8 32bb
00000390: 885b 073c bbbb abbb 185e cd3b 8f03 42bb
000003a0: db93 b73b 4e2f 13ba 3f7c 5c3b 9704 6d3b
000003b0: 9fcb aabb e240 613b 0ec1 91bc 0215 87bb
000003c0: a88d a1b9 ddd1 34bb 62d8 9abc 1c34 9a3a
000003d0: 13bf c6bb 47ac 1a3b da99 1c3c 457a 0ebb
000003e0: 1f34 313c c540 eabb 0fe6 5dba 2c4a 17bc
000003f0: 4b83 223b e2ea f5bb 90d1 f7ba 03c0 873b

action_model._discrete_distribution.branches.0.bias f4 [3]
0.0 0.0 0.0
00000000: 0000 0000 0000 0000 0000 0000

action_model._discrete_distribution.branches.1.weight f4 [3, 256]
0.005245844 -0.0030913104 0.00029357764 0.010204199 -0.009223215 -0.0026610622 -0.005477235 0.0070730164
-0.004948588 -0.0028172745 0.0023483066 0.005414886 -0.0027338865 -0.0009833787 0.00020195043 0.008068219
-0.011068727 0.00023228927 -0.0015799608 3.824873e-05 -0.008730701 0.0110029755 -0.0016181282 1.7690178e-05
0.0034877004 -0.007995284 -0.0069593885 -0.0077001574 -0.0023557588 0.00025821282 0.0037443475 0.007616038
0.0021438904 -0.0025774937 -0.007174574 0.010490822 -0.0002477606 0.00046534115 0.0040027825 -0.010783179
0.002087895 0.0022786295 -0.0013575865 -0.007962774 0.005284038 0.0027155841 0.004480785 -0.000891409
0.008753635 -0.006566979 -0.0030193138 -0.0055925455 -0.0071349414 0.0015381518 -0.0015539443 -0.002084781
-0.01333113 -0.005533843 0.0034612552 0.0049937624 -0.0040615737 0.0077520492 0.0044578575 -0.0008031889
-0.0035089217 0.004324382 -0.009480399 -0.004455741 -0.0037658305 3.2423704e-05 0.008745395 0.012988945
0.012669514 -0.0068079666 0.0011198694 0.0054206788 0.0011635557 -0.0034642026 -0.0036919888 -0.006021783
0.010790417 0.0030647735 0.007258686 0.0023318469 0.0052926256 0.012377642 0.0017481841 0.0052856673
-0.006324501 0.012381289 0.010185416 0.007182625 -0.0011001455 0.007864988 0.00050993566 -0.00021675408
-0.01056297 0.0070059425 0.0018661142 -0.0011503138 0.0096471105 -0.0059492327 -0.00045228942 0.012229211
0.0023248459 0.0015468879 -0.010071684 -0.0067766393 0.0014489267 0.005273593 0.007753981 0.013746552
0.003633191 0.0057289833 -0.00011572335 -0.007778602 -0.0066799754 -0.005757669 -0.0016248742 0.0010308995
0.0009053444 0.0022585667 -0.0067721377 0.005832176 0.0017947246 -0.005946753 0.0025941252 0.0012597321
-0.0070061446 -0.0040884186 -9.10855e-05 -0.0025616416 0.0021950868 -0.003048292 0.005914126 0.0012854462
0.006801843 -0.0033789426 1.4543933e-05 -0.001464479 0.0010214734 0.009514428 -0.0074964985 -0.0073424266
0.0030042364 0.003060634 -0.006327849 -0.0023135513 0.00058613 0.0058966004 0.0010724936 -0.0018108003
0.0054337145 0.0014491011 -0.0005075673 -0.002213781 0.000870844 0.005022916 0.00045111123 -0.004087228
-0.0072897086 0.000567937 -0.004328649 0.008845856 -0.0023520568 -0.005738951 0.0095183905 0.010449953
-0.00954173 -0.00015355855 0.0026013989 0.011552292 -0.010702937 8.661224e-05 0.00094918953 0.0020772784
-0.007380523 0.003864269 -0.01095461 -0.008584583 0.0023803988 -0.0013617706 -0.007313441 0.0031036602
-0.000106350926 -0.007256742 -0.009039416 0.0017455852 -0.010217277 -0.0012283035 0.0011285077 0.0023485147
5.454893e-05 0.006094388 -0.00015195155 0.0014697945 0.0044667907 -0.0019706327 0.0018691674 -0.00030213056
0.0055651404 0.0015219499 0.009019575 0.0007574306 -0.005093864 0.006040364 -0.00013041456 0.0008864117
0.007967639 0.0035209942 0.012462715 -0.0035257717 0.007319834 0.0012489214 -0.0030390497 -0.0040287017
0.001848991 -0.008075617 -0.017789757 -0.0070636864 0.0044651297 -0.0063274438 -0.0026631353 0.0038652716
0.01087749 -0.0007109057 0.007948995 -0.002780606 -0.004037668 0.0039004297 0.00382236 0.0060981247
4.3002165e-05 0.005536485 0.008788372 0.0030253504 0.0026676047 -0.002139927 0.007151977 0.0052923346
0.0012998381 0.007117583 -0.01062081 -0.010080597 -0.009127337 -0.002895999 -0.0007106341 -0.008203207
0.0077761146 0.009656007 0.006587647 -0.008226036 -0.00024682714 -0.0063643227 -0.00069795264 0.014522299
00000000: 54e5 ab3b 9597 4abb 53eb 9939 832f 273c
00000010: f81c 17bc 3765 2ebb 617a b3bb c3c4 e73b
00000020: c427 a2bb 06a2 38bb 0ce6 193b 5b6f b13b
00000030: 012b 33bb b7e4 80ba a8c2 5339 9030 043c
00000040: 9b59 35bc ad92 7339 b016 cfba 436d 2038
00000050: 370b 0fbc d345 343c 5f17 d4ba 5e65 9437
00000060: e791 643b a7fe 02bc 950b e4bb 9a51 fcbb
00000070: 1363 1abb bd60 8739 ba63 753b f58f f93b
00000080: 8380 0c3b 2beb 28bb b018 ebbb b2e1 2b3c
00000090: dde5 81b9 08f9 f339 c629 833b eeab 30bc
000000a0: 11d5 083b 0f55 153b 0bf1 b1ba 4b76 02bc
000000b0: b925 ad3b f1f7 313b 8dd3 923b 72ad 69ba
000000c0: 686b 0f3c d02f d7bb aedf 45bb ac41 b7bb
000000d0: 3acc e9bb cf9b c93a b8ad cbba d2a0 08bb
000000e0: d06a 5abc 3d55 b5bb 3ad6 623b b7a2 a33b
000000f0: f316 85bb e704 fe3b 3813 923b 188d 52ba
00000100: f0f5 65bb 8cb3 8d3b ad53 1bbc 7701 92bb
00000110: 27cc 76bb b0fe 0738 d848 0f3c 95cf 543c
00000120: cb93 4f3c 5d15 dfbb 95c8 923a f39f b13b
00000130: 7382 983a ad07 63bb 4bf5 71bb 6152 c5bb
00000140: 4aca 303c 5eda 483b 45da ed3b e6d1 183b
00000150: c36d ad3b 98cb 4a3c 5323 e53a 6433 ad3b
00000160: c23d cfbb e4da 4a3c bbe0 263c 3a5c eb3b
00000170: c232 90ba 27dc 003c 34ad 053a 7b48 63b9
00000180: 4f10 2dbc 1b92 e53b 6798 f43a 20c6 96ba
00000190: ea0e 1e3c c8f1 c2bb 4221 edb9 075d 483c
000001a0: 715c 183b f2c0 ca3a b403 25bc 920e debb
000001b0: eae9 bd3a 1bce ac3b 1b15 fe3b 3839 613c
000001c0: d51a 6e3b 32ba bb3b 80b0 f2b8 a5e3 febb
000001d0: b2e3 dabb d4aa bcbb bbf9 d4ba 3f1f 873a
000001e0: a254 6d3a 7604 143b cfe8 ddbb d71b bf3b
000001f0: f73c eb3a fbdc c2bb 3302 2a3b 981d a53a
00000200: cd93 e5bb 24f8 85bb 2805 bfb8 37e1 27bb
00000210: 72db 0f3b dac5 47bb 49cb c13b 6b7c a83a
00000220: ffe1 de3b 4071 5dbb b701 7437 c3f3 bfba
00000230: f6e2 853a 67e2 1b3c 30a5 f5bb bd98 f0bb
00000240: b9e2 443b eb94 483b d859 cfbb f39e 17bb
00000250: 85a6 193a 4538 c13b ea92 8c3a 6058 edba
00000260: 4d0d b23b c4ef bd3a 440e 05ba 1515 11bb
00000270: 5a49 643a 4697 a43b 2083 ec39 27ee 85bb
00000280: 82de eebb 9be1 143a 57d7 8dbb 36ee 103c
00000290: f724 1abb cf0d bcbb 06f3 1b3c 4836 2b3c
000002a0: eb54 1cbc 8f04 21b9 3b7c 2a3b d345 3d3c
000002b0: 5f5b 2fbc 98a3 b538 08d3 783a f322 083b
000002c0: 50d8 f1bb ad3f 7d3b f77a 33bc 5aa6 0cbc
000002d0: 7700 1c3b 707d b2ba 97a5 efbb c766 4b3b
000002e0: b808 dfb8 f7c9 edbb 0f1a 14bc 1fcc e43a
000002f0: 5e66 27bc 07ff a0ba 6fea 933a 8ae9 193b
00000300: 78cb 6438 6fb3 c73b 2f55 1fb9 1fa6 c03a
00000310: 285e 923b bb25 01bb dafe f43a 4767 9eb9
00000320: c85b b63b 2a7c c73a d7c6 133c 4f8e 463a
00000330: 6eea a6bb 3fee c53b e4bf 08b9 155e 683a
00000340: b38a 023c 7bc0 663b 6a30 4c3c a210 67bb
00000350: 38db ef3b d9b2 a33a cb2a 47bb 3303 84bb
00000360: d859 f23a 984f 04bc d3bb 91bc 7f76 e7bb
00000370: 3950 923b 7256 cfbb ff87 2ebb 7f50 7d3b
00000380: 8037 323c 135c 3aba 803c 023c d43a 36bb
00000390: 6a4e 84bb 5a9e 7f3b 8f80 7a3b c7d2 c73b
000003a0: 395d 3438 676b b53b 1bfd 0f3c f544 463b
000003b0: fbd2 2e3b 043e 0cbb 225b ea3b 526b ad3b
000003c0: 545f aa3a 9d3a e93b e802 2ebc 1729 25bc
000003d0: d38a 15bc cdca 3dbb d949 3aba be66 06bc
000003e0: c7ce fe3b 3b34 1e3c 30dd d73b 7fc6 06bc
000003f0: 9468 81b9 cf8b d0bb cff6 36ba f0ee 6d3c

action_model._discrete_distribution.branches.1.bias f4 [3]
0.0 0.0 0.0
00000000: 0000 0000 0000 0000 0000 0000
