Assets/Agent5.onnx (onnx, 923545 bytes, 19 tensors)

discrete_action_output_shape f4 [1, 6]
3.0 3.0 2.0 2.0 2.0 2.0
00000000: 0000 4040 0000 4040 0000 0040 0000 0040
00000010: 0000 0040 0000 0040

network_body._body_endoder.seq_layers.0.weight f4 [256, 366]
-0.054440312 0.079030514 -0.008749705 -0.09003559 0.060138535 0.05884598 -0.0055891625 -0.03661321
0.011699507 -0.026922524 -0.018367851 -0.008928565 0.018346837 -0.10912679 -0.07677261 -0.060560923
-0.0037434953 0.086130336 0.02775684 -0.02146479 -0.03976994 -0.014853522 0.084683314 0.0006027511
-0.026822181 0.0021377811 -0.08534904 -0.07015534 -0.04267141 0.028007297 -0.012190215 -0.03395919
-0.11811112 0.03146768 -0.06711158 -0.028915418 -0.009358612 0.111018166 0.0030062653 -0.028002018
0.024370637 -0.08362147 0.0019047424 -0.05146832 -0.014680959 0.048419353 0.039971173 -0.05675566
0.062319487 0.081816 0.05521499 -0.033641383 0.0013187949 0.008555239 -0.022801928 -0.016602201
-0.04747066 0.00773889 -0.017971322 -0.060517143 0.031533018 -0.03135578 0.029452983 -0.056039404
0.01637195 0.080132574 -0.033610597 -0.03943665 0.06234058 -0.08209364 -0.09237816 0.0472181
0.006436708 0.0182318 -0.0066975076 -0.022949658 0.041902337 -0.015013425 -0.033470936 -0.04159061
-0.032128394 0.10151096 -0.043497067 -0.13924536 0.042234514 0.0046122763 0.031011088 0.11443384
0.045852378 0.0043983767 -0.0009932562 -0.039714772 0.040691815 -0.055912912 0.03648066 0.10756124
-0.073721215 0.037793387 0.04423318 -0.079439566 -0.016134739 -0.03646453 0.0452024 -0.014411721
-0.0028970148 0.004860627 0.12932348 -0.092488945 0.0145470975 0.000978965 0.02382359 0.065198086
-0.0016204338 -0.039656945 -0.064101905 0.022148887 -0.13669996 -0.03881106 0.065035895 0.03164869
-0.07923476 -0.06403311 0.013671748 0.092469014 -0.08430108 0.011808989 -0.078645 0.044272114
0.026415482 0.009087249 -0.061121043 0.042511478 0.00839829 -0.0942992 -0.003876829 -0.006998654
0.05655605 0.006927583 0.00090226624 0.061522048 0.031511568 0.056832135 0.04344344 0.029547257
0.02844115 0.050902057 -0.01603048 0.031269368 0.04651531 0.07149092 -0.09220193 0.051502302
-0.027424224 -0.018874394 -0.008941779 0.08670889 -0.035342555 0.034835223 -0.042460613 -0.032021165
0.0646527 0.025810394 0.0043557426 -0.023615444 0.07177569 0.022736272 -0.057287276 0.0664283
-0.061908517 0.014265214 0.09652454 -0.037932843 -0.018216578 0.04406246 -0.027702909 0.014807648
0.04366351 0.0014097332 -0.04558967 -0.037353847 0.053550564 0.006508483 -0.04222883 0.013796784
0.03512914 0.026805999 -0.015875315 -0.029437935 0.09156714 0.05482554 -0.0096199475 -0.03456261
0.036009032 -0.040737487 0.029898964 0.046762846 0.053917743 0.068250775 -0.009753313 -0.053885408
-0.031590488 0.0058827 0.07316279 -0.06686758 0.106682725 -0.005133934 -0.012529258 0.05323724
-0.09723021 0.008548303 0.012099245 0.0155283995 0.064187415 0.021637116 0.073809005 -0.023488348
0.010131897 0.028773597 0.04088554 -0.078493424 -0.038379274 -0.07980407 0.09433085 -0.066756465
-0.051501732 -0.056501806 0.052565172 0.053351246 -0.04053085 0.005598409 0.040893756 -0.013008586
-0.041794695 -0.02571301 0.017703269 0.03440446 0.054962505 0.08550681 0.041073795 0.07494533
-0.0028571757 0.02595361 0.08878821 0.093778014 -0.0135049345 -0.047009293 -0.06229593 -0.085355
-0.004676408 -0.025540628 0.100208 -0.02588132 -0.06320348 -0.07098534 0.014678496 -0.026008312
00000000: cefc 5ebd c0da a13d ec5a 0fbc 9464 b8bd
00000010: d353 763d 7b08 713d 4b25 b7bb bcf7 15bd
00000020: 4aaf 3f3c a08c dcbc 2d78 96bc 1e49 12bc
00000030: 1b4c 963c de7d dfbd f53a 9dbd bb0e 78bd
00000040: 6e55 75bb 1a65 b03d 5062 e33c edd6 afbc
00000050: cee5 22bd 305c 73bc 726e ad3d f101 1e3a
00000060: 31ba dbbc 041a 0c3b 7acb aebd 9aad 8fbd
00000070: 37c8 2ebd 8f6f e53c 78b9 47bc cb18 0bbd
00000080: 3ee4 f1bd 41e4 003d cc71 89bd 07e0 ecbc
00000090: dd54 19bc 7e5d e33d c304 453b 7d64 e5bc
000000a0: eea4 c73c bc41 abbd 8da8 f93a 72d0 52bd
000000b0: 6888 70bc 5f53 463d d0b8 233d 9f78 68bd
000000c0: b842 7f3d 268f a73d 1d29 623d 8ccb 09bd
000000d0: 6adb ac3a 462b 0c3c 1ccb babc 5701 88bc
000000e0: 9870 42bd 8496 fd3b 9838 93bc d3e0 77bd
000000f0: c428 013d eb6e 00bd 6247 f13c 9389 65bd
00000100: 781e 863c 8c1c a43d 44ab 09bd 5388 21bd
00000110: d658 7f3d b620 a8bd c330 bdbd c467 413d
00000120: 05eb d23b db5a 953c c476 dbbb ec00 bcbc
00000130: c9a1 2b3d defa 75bc d218 09bd ea5a 2abd
00000140: 1099 03bd fae4 cf3d fb29 32bd 5696 0ebe
00000150: 19fe 2c3d 9422 973b f70a fe3c 4a5c ea3d
00000160: b4cf 3b3d 4220 903b 2630 82ba f5ab 22bd
00000170: 76ac 263d f004 65bd bf6c 153d 1149 dc3d
00000180: 26fb 96bd 3dcd 1a3d da2d 353d 36b1 a2bd
00000190: 002d 84bc d55b 15bd 2726 393d 241f 6cbc
000001a0: d8db 3dbb e545 9f3b 606d 043e d86a bdbd
000001b0: f356 6e3c 9d50 803a b029 c33c 9386 853d
000001c0: bc64 d4ba 526f 22bd dc47 83bd 9571 b53c
000001d0: 13fb 0bbe 59f8 1ebd 8a31 853d 0fa2 013d
000001e0: d545 a2bd cb23 83bd 78ff 5f3c 6560 bd3d
000001f0: 0ba6 acbd 7d7a 413c a110 a1bd ad56 353d
00000200: 4865 d83c afe2 143c 0f5a 7abd 8420 2e3d
00000210: fb98 093c f01f c1bd 6612 7ebb f754 e5bb
00000220: 51a7 673d c700 e33b 1086 6c3a 8bfe 7b3d
00000230: 4612 013d d0c8 683d c0f1 313d 170d f23c
00000240: 6afd e83c ad7e 503d 5a52 83bc 4f14 003d
00000250: d686 3e3d d569 923d 5ed4 bcbd 14f4 523d
00000260: c4a8 e0bc 799e 9abc 8a80 12bc 6e94 b13d
00000270: 5bc3 10bd 61af 0e3d 2eeb 2dbd a028 03bd
00000280: a368 843d 5270 d33c 9eba 8e3b 2d75 c1bc
00000290: 22ff 923d 6b41 ba3c 10a6 6abd 900b 883d
000002a0: c993 7dbd a5b8 693c a8ae c53d 785f 1bbd
000002b0: ef3a 95bc d77a 343d 36f1 e2bc c79b 723c
000002c0: 82d8 323d ccc6 b83a 3cbc 3abd 5900 19bd
000002d0: d657 5b3d 1d45 d53b 23f8 2cbd e80b 623c
000002e0: 93e3 0f3d 4198 db3c f30c 82bc d327 f1bc
000002f0: 8d87 bb3d bf90 603d fc9c 1dbc 8691 0dbd
00000300: 357e 133d 5adc 26bd acee f43c 668a 3f3d
00000310: dad8 5c3d 10c7 8b3d 5ccc 1fbc f2b6 5cbd
00000320: 0765 01bd aac3 c03b 5fd6 953d dff1 88bd
00000330: 797c da3d 8f3a a8bb 8447 4dbc 4b0f 5a3d
00000340: a220 c7bd 2e0e 0c3c e93b 463c d46a 7e3c
00000350: b174 833d 5240 b13c 2d29 973d a36a c0bc
00000360: 4200 263c 9bb6 eb3c 9977 273d 29c1 a0bd
00000370: 9633 1dbd 5170 a3bd 8830 c13d 9db7 88bd
00000380: 7bf3 52bd 706e 67bd 944e 573d d686 5a3d
00000390: ad03 26bd dc72 b73b 3680 273d f721 55bc
000003a0: ea30 2bbd 17a4 d2bc 7206 913c b1eb 0c3d
000003b0: 5d20 613d 321e af3d ff3c 283d f07c 993d
000003c0: 743f 3bbb aa9c d43c 98d6 b53d b00e c03d
000003d0: cd43 5dbc d18c 40bd 042a 7fbd 9ace aebd
000003e0: 8e3c 99bb 943a d1bc da39 cd3d 1005 d4bc
000003f0: d370 81bd c360 91bd 137e 703c 620f d5bc

network_body._body_endoder.seq_layers.0.bias f4 [256]
0.0 0.0 0.0 0.0 0.0 0.0 0.0 0.0
0.0 0.0 0.0 0.0 0.0 0.0 0.0 0.0
0.0 0.0 0.0 0.0 0.0 0.0 0.0 0.0
0.0 0.0 0.0 0.0 0.0 0.0 0.0 0.0
0.0 0.0 0.0 0.0 0.0 0.0 0.0 0.0
0.0 0.0 0.0 0.0 0.0 0.0 0.0 0.0
0.0 0.0 0.0 0.0 0.0 0.0 0.0 0.0
0.0 0.0 0.0 0.0 0.0 0.0 0.0 0.0
0.0 0.0 0.0 0.0 0.0 0.0 0.0 0.0
0.0 0.0 0.0 0.0 0.0 0.0 0.0 0.0
0.0 0.0 0.0 0.0 0.0 0.0 0.0 0.0
0.0 0.0 0.0 0.0 0.0 0.0 0.0 0.0
0.0 0.0 0.0 0.0 0.0 0.0 0.0 0.0
0.0 0.0 0.0 0.0 0.0 0.0 0.0 0.0
0.0 0.0 0.0 0.0 0.0 0.0 0.0 0.0
0.0 0.0 0.0 0.0 0.0 0.0 0.0 0.0
0.0 0.0 0.0 0.0 0.0 0.0 0.0 0.0
0.0 0.0 0.0 0.0 0.0 0.0 0.0 0.0
0.0 0.0 0.0 0.0 0.0 0.0 0.0 0.0
0.0 0.0 0.0 0.0 0.0 0.0 0.0 0.0
0.0 0.0 0.0 0.0 0.0 0.0 0.0 0.0
0.0 0.0 0.0 0.0 0.0 0.0 0.0 0.0
0.0 0.0 0.0 0.0 0.0 0.0 0.0 0.0
0.0 0.0 0.0 0.0 0.0 0.0 0.0 0.0
0.0 0.0 0.0 0.0 0.0 0.0 0.0 0.0
0.0 0.0 0.0 0.0 0.0 0.0 0.0 0.0
0.0 0.0 0.0 0.0 0.0 0.0 0.0 0.0
0.0 0.0 0.0 0.0 0.0 0.0 0.0 0.0
0.0 0.0 0.0 0.0 0.0 0.0 0.0 0.0
0.0 0.0 0.0 0.0 0.0 0.0 0.0 0.0
0.0 0.0 0.0 0.0 0.0 0.0 0.0 0.0
0.0 0.0 0.0 0.0 0.0 0.0 0.0 0.0
00000000: 0000 0000 0000 0000 0000 0000 0000 0000
00000010: 0000 0000 0000 0000 0000 0000 0000 0000
00000020: 0000 0000 0000 0000 0000 0000 0000 0000
00000030: 0000 0000 0000 0000 0000 0000 0000 0000
00000040: 0000 0000 0000 0000 0000 0000 0000 0000
00000050: 0000 0000 0000 0000 0000 0000 0000 0000
00000060: 0000 0000 0000 0000 0000 0000 0000 0000
00000070: 0000 0000 0000 0000 0000 0000 0000 0000
00000080: 0000 0000 0000 0000 0000 0000 0000 0000
00000090: 0000 0000 0000 0000 0000 0000 0000 0000
000000a0: 0000 0000 0000 0000 0000 0000 0000 0000
000000b0: 0000 0000 0000 0000 0000 0000 0000 0000
000000c0: 0000 0000 0000 0000 0000 0000 0000 0000
000000d0: 0000 0000 0000 0000 0000 0000 0000 0000
000000e0: 0000 0000 0000 0000 0000 0000 0000 0000
000000f0: 0000 0000 0000 0000 0000 0000 0000 0000
00000100: 0000 0000 0000 0000 0000 0000 0000 0000
00000110: 0000 0000 0000 0000 0000 0000 0000 0000
00000120: 0000 0000 0000 0000 0000 0000 0000 0000
00000130: 0000 0000 0000 0000 0000 0000 0000 0000
00000140: 0000 0000 0000 0000 0000 0000 0000 0000
00000150: 0000 0000 0000 0000 0000 0000 0000 0000
00000160: 0000 0000 0000 0000 0000 0000 0000 0000
00000170: 0000 0000 0000 0000 0000 0000 0000 0000
00000180: 0000 0000 0000 0000 0000 0000 0000 0000
00000190: 0000 0000 0000 0000 0000 0000 0000 0000
000001a0: 0000 0000 0000 0000 0000 0000 0000 0000
000001b0: 0000 0000 0000 0000 0000 0000 0000 0000
000001c0: 0000 0000 0000 0000 0000 0000 0000 0000
000001d0: 0000 0000 0000 0000 0000 0000 0000 0000
000001e0: 0000 0000 0000 0000 0000 0000 0000 0000
000001f0: 0000 0000 0000 0000 0000 0000 0000 0000
00000200: 0000 0000 0000 0000 0000 0000 0000 0000
00000210: 0000 0000 0000 0000 0000 0000 0000 0000
00000220: 0000 0000 0000 0000 0000 0000 0000 0000
00000230: 0000 0000 0000 0000 0000 0000 0000 0000
00000240: 0000 0000 0000 0000 0000 0000 0000 0000
00000250: 0000 0000 0000 0000 0000 0000 0000 0000
00000260: 0000 0000 0000 0000 0000 0000 0000 0000
00000270: 0000 0000 0000 0000 0000 0000 0000 0000
00000280: 0000 0000 0000 0000 0000 0000 0000 0000
00000290: 0000 0000 0000 0000 0000 0000 0000 0000
000002a0: 0000 0000 0000 0000 0000 0000 0000 0000
000002b0: 0000 0000 0000 0000 0000 0000 0000 0000
000002c0: 0000 0000 0000 0000 0000 0000 0000 0000
000002d0: 0000 0000 0000 0000 0000 0000 0000 0000
000002e0: 0000 0000 0000 0000 0000 0000 0000 0000
000002f0: 0000 0000 0000 0000 0000 0000 0000 0000
00000300: 0000 0000 0000 0000 0000 0000 0000 0000
00000310: 0000 0000 0000 0000 0000 0000 0000 0000
00000320: 0000 0000 0000 0000 0000 0000 0000 0000
00000330: 0000 0000 0000 0000 0000 0000 0000 0000
00000340: 0000 0000 0000 0000 0000 0000 0000 0000
00000350: 0000 0000 0000 0000 0000 0000 0000 0000
00000360: 0000 0000 0000 0000 0000 0000 0000 0000
00000370: 0000 0000 0000 0000 0000 0000 0000 0000
00000380: 0000 0000 0000 0000 0000 0000 0000 0000
00000390: 0000 0000 0000 0000 0000 0000 0000 0000
000003a0: 0000 0000 0000 0000 0000 0000 0000 0000
000003b0: 0000 0000 0000 0000 0000 0000 0000 0000
000003c0: 0000 0000 0000 0000 0000 0000 0000 0000
000003d0: 0000 0000 0000 0000 0000 0000 0000 0000
000003e0: 0000 0000 0000 0000 0000 0000 0000 0000
000003f0: 0000 0000 0000 0000 0000 0000 0000 0000

network_body._body_endoder.seq_layers.2.weight f4 [256, 256]
-0.04488459 -0.0069916444 -0.03609198 -0.0539651 0.14797468 -0.07608519 0.0055175745 0.011998886
0.05568867 -0.00015320005 0.058377735 0.09050778 -0.08335052 -0.040599495 0.0018368639 0.05043864
0.013236719 -0.041052364 -0.09001056 0.20120423 0.04935777 -0.20309433 -0.103150696 -0.062134884
0.09197692 0.047968682 -0.04759604 -0.06057032 -0.013713049 -0.07836197 -0.089679845 0.055888165
0.047867995 0.063154325 0.006827752 0.05610337 0.05292761 0.075987846 -0.058922213 -0.07266099
-0.031186787 -0.021490552 0.028295418 0.14793733 -0.046374522 0.055378173 -0.002407567 0.01950508
0.029843967 0.032348778 0.030533982 0.016638817 0.09645341 0.037235662 0.014078855 -0.011101195
-0.04066185 -0.024096409 0.06934078 0.05507335 0.07333629 -0.011542041 0.08571183 0.05685467
-4.11208e-05 0.023153817 -0.04283641 0.03479821 0.08658839 0.041621473 0.0058513097 0.069883265
0.008959495 0.0721249 -0.012860018 -0.08796384 0.007502121 -0.0071900534 -0.046547573 0.07096007
0.12956381 0.07481491 -0.09103796 -0.012659989 -0.041820724 0.071931526 0.07541106 -0.0029899285
-0.013151114 0.0198614 0.116798945 0.017176341 -0.026012156 -0.09560895 0.0044608433 -0.0023388015
-0.016366892 -0.09394772 0.010458204 0.022772588 -0.022281835 -0.026528854 0.027161466 -0.07445521
0.0018862147 -0.020974893 -0.054718044 -0.027343372 -0.00091777596 -0.052994996 0.010704936 -0.06398122
0.04590656 0.028215181 0.009255402 0.056867894 -0.078507006 -0.06820836 0.058553223 -0.08015838
0.023089753 -0.0054725017 -0.042767633 0.13873094 0.022649169 -0.019287718 0.019682666 -0.014509368
-0.08942811 0.054146267 0.023474338 -0.030368188 -0.02882425 0.071175225 0.04187936 -0.036351014
-0.049207572 -0.0022538912 -0.06402348 -0.039509024 0.12648277 -0.041788302 0.14161772 -0.050056744
-0.015104583 0.018394219 0.056949645 -0.004694239 0.049635082 0.09763586 0.0049995026 0.09088401
-0.0526628 0.0043841866 -0.0044920817 0.024650557 0.05955897 -0.080825314 -0.033006035 -0.18219319
0.04045013 -0.015618704 0.0343223 -0.13395505 -0.07750744 -0.013005492 -0.011705185 -0.111294985
-0.0017563922 0.044813674 0.022895686 0.12075137 0.027400112 -0.026843447 -0.061342753 -0.0140800085
0.012409269 -0.0076299105 -0.10177945 0.018616686 -0.12959376 -0.017459657 0.012562613 0.08020739
-0.044844944 0.09307587 -0.041401036 0.04493143 -0.02251566 0.04773368 0.12562425 -0.046263017
-0.05676129 0.055008378 0.03813881 0.00035323703 -0.012911708 -0.12748283 0.037555166 -0.08497207
-0.019209512 0.12938875 0.13221112 0.01639277 -0.092394404 -0.012277044 0.06764385 0.045088444
-0.033674177 0.10954352 -0.10069139 0.032138288 -0.084092125 -0.045892596 -0.043849897 -0.011825777
-0.055732917 -0.0010483053 0.015776124 0.020239772 -0.08530192 0.048994966 -0.022292187 -0.08153802
-0.039616976 -0.069195405 0.04204354 -0.0005729802 -0.06582309 -0.11264918 -0.031706344 0.001462264
-0.07389925 -0.004451441 0.08511982 0.07343369 -0.048066247 0.049442198 0.19314218 -0.021937197
0.036963917 -0.01417594 0.11405998 -0.049899567 -0.035625253 -0.018537829 0.023409793 -0.004905427
-0.023393836 -0.0047524455 -0.009025898 0.0417911 -0.20232636 -0.02322494 -0.014088292 0.09909501
00000000: e7d8 37bd 2a1a e5bb 2fd5 13bd 820a 5dbd
00000010: ad86 173e 8dd2 9bbd c5cc b43b fa96 443c
00000020: ce19 643d 53a4 20b9 7e1d 6f3d 255c b93d
00000030: adb3 aabd a84b 26bd edc2 f03a bf98 4e3d
00000040: d3de 583c 8626 28bd 7557 b8bd 7b08 4e3e
00000050: 5f2b 4a3d f6f7 4fbe ac40 d3bd 2681 7ebd
00000060: 655e bc3d cf7a 443d 11f4 42bd 9518 78bd
00000070: b2ac 60bc 3e7c a0bd 11aa b7bd fdea 643d
00000080: 3b11 443d 0e57 813d 56bb df3b a6cc 653d
00000090: 9fca 583d 849f 9b3d 6b58 71bd 49cf 94bd
000000a0: 6f7b ffbc f40c b0bc cbcb e73c e27c 173e
000000b0: 36f3 3dbd 39d4 623d 46c8 1dbb 1ec9 9f3c
000000c0: 567b f43c 2780 043d 6722 fa3c 214e 883c
000000d0: 5e89 c53d 6c84 183d ffaa 663c c9e1 35bc
000000e0: 0a8d 26bd d565 c5bc 8a02 8e3d 9894 613d
000000f0: 5631 963d d41a 3dbc af89 af3d 71e0 683d
00000100: 1f79 2cb8 13ad bd3c 3b75 2fbd 9188 0e3d
00000110: 4155 b13d 477b 2a3d 58bc bf3b f51e 8f3d
00000120: d9ca 123c 38b6 933d d3b2 52bc 6326 b4bd
00000130: 5ad4 f53b 8a9a ebbb aba8 3ebd 8353 913d
00000140: 60ac 043e 8f38 993d 1c72 babd d86b 4fbc
00000150: 354c 2bbd d650 933d 1d71 9a3d adf2 43bb
00000160: c577 57bc 60b4 a23c 4934 ef3d 66b5 8c3c
00000170: 7217 d5bc a0ce c3bd 442c 923b 9446 19bb
00000180: dc13 86bc aa67 c0bd e358 2b3c 948d ba3c
00000190: 6588 b6bc 0a53 d9bc b981 de3c f97b 98bd
000001a0: dd3a f73a 8ad3 abbc 0720 60bd 35ff dfbc
000001b0: e796 70ba 4811 59bd c263 2f3c 9608 83bd
000001c0: 8408 3c3d 8623 e73c f8a3 173c 4fee 683d
000001d0: 48c8 a0bd d3b0 8bbd 81d5 6f3d 142a a4bd
000001e0: b926 bd3c ac52 b3bb 1d2d 2fbd 7c0f 0e3e
000001f0: c08a b93c 4701 9ebc 8b3d a13c b3b8 6dbc
00000200: 1626 b7bd 7ac8 5d3d 414d c03c b5c6 f8bc
00000210: d520 ecbc 51c4 913d b189 2b3d cde4 14bd
00000220: e18d 49bd 05b6 13bb be1e 83bd 37d4 21bd
00000230: b384 013e 362a 2bbd 3c04 113e 4d08 4dbd
00000240: 3779 77bc 79af 963c 0844 693d 21d2 99bb
00000250: 284e 4b3d 4ff5 c73d ded2 a33b 6521 ba3d
00000260: f3b4 57bd 39a9 8f3b 5032 93bb f7ef c93c
00000270: 1bf4 733d be87 a5bd 5631 07bd da90 3abe
00000280: 09af 253d 98e5 7fbc 8a95 0c3d 832b 09be
00000290: 38bc 9ebd fd14 55bc 1bc7 3fbc a0ee e3bd
000002a0: be36 e6ba 8b8e 373d bc8f bb3c 7f4c f73d
000002b0: 3376 e03c cae6 dbbc 8a42 7bbd d6af 66bc
000002c0: 3f50 4b3c 5404 fabb bf71 d0bd 0582 983c
000002d0: 3ab4 04be 8e07 8fbc 6bd3 4d3c c643 a43d
000002e0: 55af 37bd 909e be3d 2294 29bd 050a 383d
000002f0: c372 b8bc 6484 433d a5a3 003e 4a7e 3dbd
00000300: 877e 68bd 7750 613d 7137 1c3d ac32 b939
00000310: a18b 53bc dc8a 02be 72d3 193d d605 aebd
00000320: 445d 9dbc 7c7e 043e 5a62 073e 214a 863c
00000330: 4739 bdbd a825 49bc dc88 8a3d a9ae 383d
00000340: efed 09bd 5a58 e03d 4a37 cebd 70a3 033d
00000350: 7e38 acbd e0f9 3bbd f39b 33bd e7c0 41bc
00000360: 3348 64bd 4a67 89ba ee3c 813c e1cd a53c
00000370: c6b2 aebd f2ae 483d 1b9e b6bc 68fd a6bd
00000380: 6945 22bd 52b6 8dbd d935 2c3d 0d34 16ba
00000390: 42ce 86bd 9db4 e6bd 83de 01bd 70a9 bf3a
000003a0: 7d58 97bd 65dd 91bb 4d53 ae3d 6764 963d
000003b0: 1de1 44bd e783 4a3d 10c7 453e a3b5 b3bc
000003c0: 7a67 173d 3442 68bc 4798 e93d 7d63 4cbd
000003d0: c9eb 11bd a5dc 97bc e5c5 bf3c b4bd a0bb
000003e0: 6ea4 bfbc 67ba 9bbb 5ce1 13bc 252d 2b3d
000003f0: a42e 4fbe 3b42 bebc 94d2 66bc 53f2 ca3d

network_body._body_endoder.seq_layers.2.bias f4 [256]
0.0 0.0 0.0 0.0 0.0 0.0 0.0 0.0
0.0 0.0 0.0 0.0 0.0 0.0 0.0 0.0
0.0 0.0 0.0 0.0 0.0 0.0 0.0 0.0
0.0 0.0 0.0 0.0 0.0 0.0 0.0 0.0
0.0 0.0 0.0 0.0 0.0 0.0 0.0 0.0
0.0 0.0 0.0 0.0 0.0 0.0 0.0 0.0
0.0 0.0 0.0 0.0 0.0 0.0 0.0 0.0
0.0 0.0 0.0 0.0 0.0 0.0 0.0 0.0
0.0 0.0 0.0 0.0 0.0 0.0 0.0 0.0
0.0 0.0 0.0 0.0 0.0 0.0 0.0 0.0
0.0 0.0 0.0 0.0 0.0 0.0 0.0 0.0
0.0 0.0 0.0 0.0 0.0 0.0 0.0 0.0
0.0 0.0 0.0 0.0 0.0 0.0 0.0 0.0
0.0 0.0 0.0 0.0 0.0 0.0 0.0 0.0
0.0 0.0 0.0 0.0 0.0 0.0 0.0 0.0
0.0 0.0 0.0 0.0 0.0 0.0 0.0 0.0
0.0 0.0 0.0 0.0 0.0 0.0 0.0 0.0
0.0 0.0 0.0 0.0 0.0 0.0 0.0 0.0
0.0 0.0 0.0 0.0 0.0 0.0 0.0 0.0
0.0 0.0 0.0 0.0 0.0 0.0 0.0 0.0
0.0 0.0 0.0 0.0 0.0 0.0 0.0 0.0
0.0 0.0 0.0 0.0 0.0 0.0 0.0 0.0
0.0 0.0 0.0 0.0 0.0 0.0 0.0 0.0
0.0 0.0 0.0 0.0 0.0 0.0 0.0 0.0
0.0 0.0 0.0 0.0 0.0 0.0 0.0 0.0
0.0 0.0 0.0 0.0 0.0 0.0 0.0 0.0
0.0 0.0 0.0 0.0 0.0 0.0 0.0 0.0
0.0 0.0 0.0 0.0 0.0 0.0 0.0 0.0
0.0 0.0 0.0 0.0 0.0 0.0 0.0 0.0
0.0 0.0 0.0 0.0 0.0 0.0 0.0 0.0
0.0 0.0 0.0 0.0 0.0 0.0 0.0 0.0
0.0 0.0 0.0 0.0 0.0 0.0 0.0 0.0
00000000: 0000 0000 0000 0000 0000 0000 0000 0000
00000010: 0000 0000 0000 0000 0000 0000 0000 0000
00000020: 0000 0000 0000 0000 0000 0000 0000 0000
00000030: 0000 0000 0000 0000 0000 0000 0000 0000
00000040: 0000 0000 0000 0000 0000 0000 0000 0000
00000050: 0000 0000 0000 0000 0000 0000 0000 0000
00000060: 0000 0000 0000 0000 0000 0000 0000 0000
00000070: 0000 0000 0000 0000 0000 0000 0000 0000
00000080: 0000 0000 0000 0000 0000 0000 0000 0000
00000090: 0000 0000 0000 0000 0000 0000 0000 0000
000000a0: 0000 0000 0000 0000 0000 0000 0000 0000
000000b0: 0000 0000 0000 0000 0000 0000 0000 0000
000000c0: 0000 0000 0000 0000 0000 0000 0000 0000
000000d0: 0000 0000 0000 0000 0000 0000 0000 0000
000000e0: 0000 0000 0000 0000 0000 0000 0000 0000
000000f0: 0000 0000 0000 0000 0000 0000 0000 0000
00000100: 0000 0000 0000 0000 0000 0000 0000 0000
00000110: 0000 0000 0000 0000 0000 0000 0000 0000
00000120: 0000 0000 0000 0000 0000 0000 0000 0000
00000130: 0000 0000 0000 0000 0000 0000 0000 0000
00000140: 0000 0000 0000 0000 0000 0000 0000 0000
00000150: 0000 0000 0000 0000 0000 0000 0000 0000
00000160: 0000 0000 0000 0000 0000 0000 0000 0000
00000170: 0000 0000 0000 0000 0000 0000 0000 0000
00000180: 0000 0000 0000 0000 0000 0000 0000 0000
00000190: 0000 0000 0000 0000 0000 0000 0000 0000
000001a0: 0000 0000 0000 0000 0000 0000 0000 0000
000001b0: 0000 0000 0000 0000 0000 0000 0000 0000
000001c0: 0000 0000 0000 0000 0000 0000 0000 0000
000001d0: 0000 0000 0000 0000 0000 0000 0000 0000
000001e0: 0000 0000 0000 0000 0000 0000 0000 0000
000001f0: 0000 0000 0000 0000 0000 0000 0000 0000
00000200: 0000 0000 0000 0000 0000 0000 0000 0000
00000210: 0000 0000 0000 0000 0000 0000 0000 0000
00000220: 0000 0000 0000 0000 0000 0000 0000 0000
00000230: 0000 0000 0000 0000 0000 0000 0000 0000
00000240: 0000 0000 0000 0000 0000 0000 0000 0000
00000250: 0000 0000 0000 0000 0000 0000 0000 0000
00000260: 0000 0000 0000 0000 0000 0000 0000 0000
00000270: 0000 0000 0000 0000 0000 0000 0000 0000
00000280: 0000 0000 0000 0000 0000 0000 0000 0000
00000290: 0000 0000 0000 0000 0000 0000 0000 0000
000002a0: 0000 0000 0000 0000 0000 0000 0000 0000
000002b0: 0000 0000 0000 0000 0000 0000 0000 0000
000002c0: 0000 0000 0000 0000 0000 0000 0000 0000
000002d0: 0000 0000 0000 0000 0000 0000 0000 0000
000002e0: 0000 0000 0000 0000 0000 0000 0000 0000
000002f0: 0000 0000 0000 0000 0000 0000 0000 0000
00000300: 0000 0000 0000 0000 0000 0000 0000 0000
00000310: 0000 0000 0000 0000 0000 0000 0000 0000
00000320: 0000 0000 0000 0000 0000 0000 0000 0000
00000330: 0000 0000 0000 0000 0000 0000 0000 0000
00000340: 0000 0000 0000 0000 0000 0000 0000 0000
00000350: 0000 0000 0000 0000 0000 0000 0000 0000
00000360: 0000 0000 0000 0000 0000 0000 0000 0000
00000370: 0000 0000 0000 0000 0000 0000 0000 0000
00000380: 0000 0000 0000 0000 0000 0000 0000 0000
00000390: 0000 0000 0000 0000 0000 0000 0000 0000
000003a0: 0000 0000 0000 0000 0000 0000 0000 0000
000003b0: 0000 0000 0000 0000 0000 0000 0000 0000
000003c0: 0000 0000 0000 0000 0000 0000 0000 0000
000003d0: 0000 0000 0000 0000 0000 0000 0000 0000
000003e0: 0000 0000 0000 0000 0000 0000 0000 0000
000003f0: 0000 0000 0000 0000 0000 0000 0000 0000

network_body._body_endoder.seq_layers.4.weight f4 [256, 256]
-0.0159735 0.010900372 0.06968549 -0.01101894 0.049483217 0.01780541 0.057766393 0.01968386
-0.14008738 -0.08218641 0.110259265 -0.022229342 -0.0966457 0.010045565 -0.009822693 0.01838484
0.008814103 0.043871284 0.012777887 -0.023280399 -0.05175869 -0.06017071 -0.12517394 0.028566668
-0.006154495 0.14682542 -0.08435326 -0.0026465384 0.050766844 0.03914145 0.061556336 -0.07267253
-0.05551526 0.05436114 0.13050987 -0.024002235 0.0007753887 0.004830194 -0.05680028 -0.053070262
-0.015813498 -0.025865208 0.07199516 -0.07668097 -0.036026057 -0.02647104 -0.08184624 -0.060828775
0.002447692 -0.012195813 0.09005115 0.05558274 -0.08782298 -0.05089825 0.058258127 0.10667511
0.07386609 0.018328503 -0.07089452 0.058381826 0.020074435 0.06383963 0.006480362 -0.024042873
0.025807211 0.06239515 -0.014483945 -0.07701764 -0.02614646 0.03521903 0.07412528 0.0895265
-0.014817865 -0.088764064 -0.10315524 -0.010123953 -0.02697705 -0.0036872437 -0.004056589 0.042019617
-0.0247761 -0.070184626 -0.0058872653 -0.02181357 0.10473894 0.04175259 0.040819827 -0.036498707
-0.07285601 -0.030927414 -0.010360095 0.03973537 0.11644331 -0.10828055 0.055160437 0.092151515
-0.098798476 -0.038922355 -0.042469118 0.08324052 0.056270346 -0.010421502 -0.04477316 -0.06192434
0.0017783092 0.010296927 0.047547806 0.050253693 -0.0045924797 0.0013932291 -0.041935325 -0.06433893
-0.02425561 -0.04829847 -0.056176916 0.022791917 0.062403377 0.029077508 0.05646202 0.060350362
-0.0022076224 -0.020910624 0.03610002 -0.014615006 -0.09142408 0.10775754 0.00069064397 0.08257721
-0.12838355 0.06627411 -0.009288238 -0.004293159 0.09084842 0.06922096 0.01106397 -0.09012358
0.0039192527 -0.03699333 -0.1006159 -0.050373264 0.01314454 0.11368821 0.13337946 0.000744044
0.09821842 0.0054985667 0.0093865115 -0.034658168 -0.01325038 -0.00701813 0.012187084 -0.0410277
-0.016335743 0.02387678 0.054160472 -0.09319506 0.04692123 -0.08504653 -0.022298854 0.16260047
-0.038052987 -0.07375882 0.062573574 -0.0011375819 0.040013526 0.00193371 0.033204257 0.13771743
0.046898823 0.07044242 -0.1405364 -0.009355294 0.08602362 -0.022468228 -0.14217931 -0.017415488
-0.0076820427 -0.07147362 -0.032477695 0.02926119 0.03823099 -0.00799801 -0.061349913 -0.013475036
0.004390368 -0.09348672 0.09041568 -0.11518109 0.0010852923 -0.029871946 -0.14188927 -0.043284964
0.013009418 0.016100654 0.17664097 -0.045215596 0.05335414 -0.07371911 0.050142385 0.026934514
-0.012497417 0.02890707 -0.1098247 0.0062333103 -0.19249795 0.014339358 0.024090357 0.050030615
-0.14190607 -0.1470987 0.059076652 0.05871397 0.043418754 0.008024915 0.087460406 -0.05227376
0.03804557 -0.062854014 -0.10556185 0.077364385 -0.014291683 0.11749012 0.008864228 -0.078743905
0.04246801 0.0053369747 -0.09314144 0.024876228 -0.088779844 0.015425659 0.05871408 -0.013606981
-0.0013335298 0.047874715 0.021434363 -0.06898228 -0.012988734 0.032639604 0.015201058 -0.059158053
0.09743043 0.06733517 0.12308784 0.014266892 0.096791334 -0.09992447 0.053574204 -0.038979214
0.05210876 -0.033132844 0.0039564148 -0.034828525 0.07921579 0.00013924175 -0.05758146 -0.033393305
00000000: dcda 82bc 7997 323c 44b7 8e3d c988 34bc
00000010: eaae 4a3d a7dc 913c 749c 6c3d 0c40 a13c
00000020: 1173 0fbe 5951 a8bd 9ccf e13d 4f1a b6bc
00000030: 2eee c5bd 2796 243c 5cef 20bc ce9b 963c
00000040: 0769 103c 60b2 333d 585a 513c 89b6 bebc
00000050: ec00 54bd 9075 76bd 992d 00be a504 ea3c
00000060: a5ab c9bb 6759 163e 67c1 acbd 8c71 2dbb
00000070: e5f0 4f3d c952 203d 7f22 7c3d 56d5 94bd
00000080: f863 63bd c9a9 5e3d 61a4 053e 56a0 c4bc
00000090: 7443 4b3a 9b46 9e3b 69a7 68bd 3460 59bd
000000a0: 4f8b 81bc 46e3 d3bc 3372 933d ea0a 9dbd
000000b0: 0f90 13bd cbd9 d8bc 009f a7bd 9827 79bd
000000c0: 7569 203b f2d0 47bc bd6c b83d baaa 633d
000000d0: 89dc b3bd af7a 50bd 13a0 6e3d 7b78 da3d
000000e0: 1b47 973d a825 963c 2531 91bd c821 6f3d
000000f0: 2473 a43c 5abe 823d 3759 d43b 8ff5 c4bc
00000100: a569 d33c 0f92 7f3d 124e 6dbc 6dbb 9dbd
00000110: 1a31 d6bc d441 103d ffce 973d ab59 b73d
00000120: a1c6 72bc efc9 b5bd 0e43 d3bd f0de 25bc
00000130: f9fe dcbc afa5 71bb 23ed 84bb c31c 2c3d
00000140: 3ff7 cabc f5bc 8fbd f6e9 c0bb 5fb2 b2bc
00000150: 5f81 d63d c404 2b3d b132 273d ab7f 15bd
00000160: 8835 95bd 7d5b fdbc 63bd 29bc 8ec1 223d
00000170: d579 ee3d 31c2 ddbd e9ef 613d efb9 bc3d
00000180: db56 cabd 0c6d 1fbd 19f4 2dbd 017a aa3d
00000190: bc7b 663d f3be 2abc 1064 37bd 60a4 7dbd
000001a0: 2816 e93a 71b4 283c 7dc1 423d d1d6 4d3d
000001b0: 837c 96bb 039d b63a 60c4 2bbd 21c4 83bd
000001c0: b3b3 c6bc 9ed4 45bd c419 66bd 1db6 ba3c
000001d0: af9a 7f3d f433 ee3c b844 673d f131 773d
000001e0: c2ad 10bb c24c abbc 9ddd 133d c773 6fbc
000001f0: 8c3c bbbd fcaf dc3d 550c 353a 3e1e a93d
00000200: fa76 03be b8ba 873d b22d 18bc a1ad 8cbb
00000210: bd0e ba3d b8c3 8d3d a745 353c b692 b8bd
00000220: 136d 803b 5186 17bd b50f cebd 3254 4ebd
00000230: 325c 573c 5dd5 e83d a094 083e f30b 433a
00000240: bd26 c93d 522d b43b e2c9 193c b9f5 0dbd
00000250: 1f18 59bc 57f8 e5bb 56ac 473c a90c 28bd
00000260: 89d2 85bc 3d99 c33c 5fd7 5d3d 0ddd bebd
00000270: 7a30 403d e02c aebd 16ac b6bc bd80 263e
00000280: 73dd 1bbd dd0e 97bd 9326 803d ea1a 95ba
00000290: 39e5 233d 8a74 fd3a 3001 083d cc05 0d3e
000002a0: fb18 403d 1e44 903d c6e8 0fbe f246 19bc
000002b0: 272d b03d 4a0f b8bc 7497 11be edaa 8ebc
000002c0: a5b9 fbbb c360 92bd 5507 05bd 2ab5 ef3c
000002d0: 1998 1c3d 160a 03bc 0c4a 7bbd 66c6 5cbc
000002e0: 13dd 8f3b f775 bfbd db2b b93d 10e4 ebbd
000002f0: 5e40 8e3a 03b6 f4bc 6c4b 11be 934b 31bd
00000300: 7425 553c 85e5 833c 5fe1 343e fd33 39bd
00000310: df89 5a3d 0bfa 96bd 1a62 4d3d c5a5 dc3c
00000320: f7c1 4cbc 85ce ec3c c6eb e0bd cc40 cc3b
00000330: 2f1e 45be a0ef 6a3c 2459 c53c e7ec 4c3d
00000340: d34f 11be 0ba1 16be 5cfa 713d 0f7e 703d
00000350: ddd7 313d ef7a 033c 711e b33d 031d 56bd
00000360: acd5 1b3d 9bb9 80bd d030 d8bd 3871 9e3d
00000370: aa27 6abc a99e f03d 443b 113c 7c44 a1bd
00000380: f0f2 2d3d cae1 ae3b f0c0 bebd 3bc9 cb3c
00000390: 35d2 b5bd e7bb 7c3c 2d7e 703d d1ef 5ebc
000003a0: d6c9 aeba 4718 443d 1e97 af3c 9546 8dbd
000003b0: b3ce 54bc 1bb1 053d dc0d 793c b74f 72bd
000003c0: 9b89 c73d 06e7 893d 7a15 fc3d afbf 693c
000003d0: 893a c63d 33a5 ccbd a070 5b3d aba8 1fbd
000003e0: ff6f 553d 4eb6 07bd d0a4 813b 5ba8 0ebd
000003f0: e33b a23d 6c01 1239 89da 6bbd 6bc7 08bd

network_body._body_endoder.seq_layers.4.bias f4 [256]
0.0 0.0 0.0 0.0 0.0 0.0 0.0 0.0
0.0 0.0 0.0 0.0 0.0 0.0 0.0 0.0
0.0 0.0 0.0 0.0 0.0 0.0 0.0 0.0
0.0 0.0 0.0 0.0 0.0 0.0 0.0 0.0
0.0 0.0 0.0 0.0 0.0 0.0 0.0 0.0
0.0 0.0 0.0 0.0 0.0 0.0 0.0 0.0
0.0 0.0 0.0 0.0 0.0 0.0 0.0 0.0
0.0 0.0 0.0 0.0 0.0 0.0 0.0 0.0
0.0 0.0 0.0 0.0 0.0 0.0 0.0 0.0
0.0 0.0 0.0 0.0 0.0 0.0 0.0 0.0
0.0 0.0 0.0 0.0 0.0 0.0 0.0 0.0
0.0 0.0 0.0 0.0 0.0 0.0 0.0 0.0
0.0 0.0 0.0 0.0 0.0 0.0 0.0 0.0
0.0 0.0 0.0 0.0 0.0 0.0 0.0 0.0
0.0 0.0 0.0 0.0 0.0 0.0 0.0 0.0
0.0 0.0 0.0 0.0 0.0 0.0 0.0 0.0
0.0 0.0 0.0 0.0 0.0 0.0 0.0 0.0
0.0 0.0 0.0 0.0 0.0 0.0 0.0 0.0
0.0 0.0 0.0 0.0 0.0 0.0 0.0 0.0
0.0 0.0 0.0 0.0 0.0 0.0 0.0 0.0
0.0 0.0 0.0 0.0 0.0 0.0 0.0 0.0
0.0 0.0 0.0 0.0 0.0 0.0 0.0 0.0
0.0 0.0 0.0 0.0 0.0 0.0 0.0 0.0
0.0 0.0 0.0 0.0 0.0 0.0 0.0 0.0
0.0 0.0 0.0 0.0 0.0 0.0 0.0 0.0
0.0 0.0 0.0 0.0 0.0 0.0 0.0 0.0
0.0 0.0 0.0 0.0 0.0 0.0 0.0 0.0
0.0 0.0 0.0 0.0 0.0 0.0 0.0 0.0
0.0 0.0 0.0 0.0 0.0 0.0 0.0 0.0
0.0 0.0 0.0 0.0 0.0 0.0 0.0 0.0
0.0 0.0 0.0 0.0 0.0 0.0 0.0 0.0
0.0 0.0 0.0 0.0 0.0 0.0 0.0 0.0
00000000: 0000 0000 0000 0000 0000 0000 0000 0000
00000010: 0000 0000 0000 0000 0000 0000 0000 0000
00000020: 0000 0000 0000 0000 0000 0000 0000 0000
00000030: 0000 0000 0000 0000 0000 0000 0000 0000
00000040: 0000 0000 0000 0000 0000 0000 0000 0000
00000050: 0000 0000 0000 0000 0000 0000 0000 0000
00000060: 0000 0000 0000 0000 0000 0000 0000 0000
00000070: 0000 0000 0000 0000 0000 0000 0000 0000
00000080: 0000 0000 0000 0000 0000 0000 0000 0000
00000090: 0000 0000 0000 0000 0000 0000 0000 0000
000000a0: 0000 0000 0000 0000 0000 0000 0000 0000
000000b0: 0000 0000 0000 0000 0000 0000 0000 0000
000000c0: 0000 0000 0000 0000 0000 0000 0000 0000
000000d0: 0000 0000 0000 0000 0000 0000 0000 0000
000000e0: 0000 0000 0000 0000 0000 0000 0000 0000
000000f0: 0000 0000 0000 0000 0000 0000 0000 0000
00000100: 0000 0000 0000 0000 0000 0000 0000 0000
00000110: 0000 0000 0000 0000 0000 0000 0000 0000
00000120: 0000 0000 0000 0000 0000 0000 0000 0000
00000130: 0000 0000 0000 0000 0000 0000 0000 0000
00000140: 0000 0000 0000 0000 0000 0000 0000 0000
00000150: 0000 0000 0000 0000 0000 0000 0000 0000
00000160: 0000 0000 0000 0000 0000 0000 0000 0000
00000170: 0000 0000 0000 0000 0000 0000 0000 0000
00000180: 0000 0000 0000 0000 0000 0000 0000 0000
00000190: 0000 0000 0000 0000 0000 0000 0000 0000
000001a0: 0000 0000 0000 0000 0000 0000 0000 0000
000001b0: 0000 0000 0000 0000 0000 0000 0000 0000
000001c0: 0000 0000 0000 0000 0000 0000 0000 0000
000001d0: 0000 0000 0000 0000 0000 0000 0000 0000
000001e0: 0000 0000 0000 0000 0000 0000 0000 0000
000001f0: 0000 0000 0000 0000 0000 0000 0000 0000
00000200: 0000 0000 0000 0000 0000 0000 0000 0000
00000210: 0000 0000 0000 0000 0000 0000 0000 0000
00000220: 0000 0000 0000 0000 0000 0000 0000 0000
00000230: 0000 0000 0000 0000 0000 0000 0000 0000
00000240: 0000 0000 0000 0000 0000 0000 0000 0000
00000250: 0000 0000 0000 0000 0000 0000 0000 0000
00000260: 0000 0000 0000 0000 0000 0000 0000 0000
00000270: 0000 0000 0000 0000 0000 0000 0000 0000
00000280: 0000 0000 0000 0000 0000 0000 0000 0000
00000290: 0000 0000 0000 0000 0000 0000 0000 0000
000002a0: 0000 0000 0000 0000 0000 0000 0000 0000
000002b0: 0000 0000 0000 0000 0000 0000 0000 0000
000002c0: 0000 0000 0000 0000 0000 0000 0000 0000
000002d0: 0000 0000 0000 0000 0000 0000 0000 0000
000002e0: 0000 0000 0000 0000 0000 0000 0000 0000
000002f0: 0000 0000 0000 0000 0000 0000 0000 0000
00000300: 0000 0000 0000 0000 0000 0000 0000 0000
00000310: 0000 0000 0000 0000 0000 0000 0000 0000
00000320: 0000 0000 0000 0000 0000 0000 0000 0000
00000330: 0000 0000 0000 0000 0000 0000 0000 0000
00000340: 0000 0000 0000 0000 0000 0000 0000 0000
00000350: 0000 0000 0000 0000 0000 0000 0000 0000
00000360: 0000 0000 0000 0000 0000 0000 0000 0000
00000370: 0000 0000 0000 0000 0000 0000 0000 0000
00000380: 0000 0000 0000 0000 0000 0000 0000 0000
00000390: 0000 0000 0000 0000 0000 0000 0000 0000
000003a0: 0000 0000 0000 0000 0000 0000 0000 0000
000003b0: 0000 0000 0000 0000 0000 0000 0000 0000
000003c0: 0000 0000 0000 0000 0000 0000 0000 0000
000003d0: 0000 0000 0000 0000 0000 0000 0000 0000
000003e0: 0000 0000 0000 0000 0000 0000 0000 0000
000003f0: 0000 0000 0000 0000 0000 0000 0000 0000

action_model._discrete_distribution.branches.0.weight f4 [3, 256]
0.00138794 -0.001540912 -0.003176323 0.011587783 -0.0020940795 -0.0013176111 0.005672964 0.0003279042
0.007098922 0.0012444302 -0.004411401 -0.011185863 0.0024892872 0.0010532349 -0.004727024 -0.0027357393
-0.0034655933 0.009003029 -0.0046796217 -0.010909757 0.006844785 0.007715016 0.0058195083 0.003802593
0.0020890238 -0.003017689 0.004991717 -0.0025336982 -0.0022183198 -0.003609561 -0.011059316 -0.0031694602
-0.002376463 -0.008975598 -0.00026942795 0.007715626 -0.0024742445 -0.0011481167 -0.004306901 0.002814281
0.00043874988 -0.0030502004 0.010183078 0.0053925924 0.0010538795 0.0043718624 -0.0051805642 -0.011736888
-0.0043066763 0.002027093 -0.0047305007 0.0039313277 0.0050761583 -0.0008367734 0.006395962 0.0024724116
0.00738533 0.0064246627 -0.0033713132 0.0018125657 0.0009299652 0.0020464014 -0.004142247 -0.00676253
0.0045349575 -0.002621305 -0.00051194354 0.0067567215 0.007466834 -0.008021985 0.005787273 0.005432544
-0.0004626801 -0.0040771943 0.010079832 -0.00096069614 0.009470686 -0.0027830012 -0.0046156845 0.006236111
-0.010248504 0.0025817165 0.00058485067 -0.0030188633 -0.0037873846 0.0032629117 -0.00040233388 -0.011580554
-0.0012721269 -0.0015627791 0.0062418934 -0.0031676267 0.010671727 0.0047837533 -0.008101934 -0.008737777
-0.0050118347 -0.001339633 -0.011383797 0.0040442967 0.0074889027 -0.0035190105 -0.009510512 -0.0024167525
-0.010181603 -0.005804933 -0.0057520187 -0.0037107598 0.0031013708 0.0025689122 -0.0030901525 0.0016910154
-0.0017786056 -0.00087865023 0.0087364605 0.00572261 0.0046109967 0.007315715 0.0021795577 0.0018938044
-0.004790055 -0.0031013016 0.002081881 0.0016857453 0.0042168475 -0.0042894767 0.022495916 -0.0006190533
-0.0024414917 -0.008207817 -0.0010124756 0.007720747 -0.0031511418 -0.004830602 0.0071136393 -0.00647527
-0.00045544264 0.0037017276 -0.01300961 0.0027640671 0.0027765685 0.01359406 0.0032922444 0.013283037
0.001220472 0.003001478 0.00015101592 -0.0028492645 0.004102896 0.0018268435 0.00011364884 -0.0015454222
0.0005592866 0.0066249208 -0.0128913345 0.003185654 0.00032447546 0.0071585937 0.009091517 -0.005700124
0.0019428267 -0.0019415802 -0.00087470067 -0.01652346 0.0024381662 0.00093213946 0.0047979755 0.017042125
0.004326541 -0.0067328177 0.0061716037 0.0040611145 0.010264925 0.01305067 0.002966888 0.007744866
0.006613401 -0.0062118946 0.00256918 -0.0049227085 -0.0027254443 0.0016106088 -0.0017415062 -0.003288322
-0.0007788811 -0.0008428679 0.0059673884 -0.0041987356 0.011431736 0.003422885 0.0056292266 -0.010610332
0.00966129 0.00790882 -0.0031402297 -0.0057917903 0.0060483357 0.00627331 0.0028464869 -0.001375086
0.0076100654 -0.001240165 -0.0010821895 -0.007855388 0.0037212644 0.014422402 0.0017822506 0.0054957015
0.007191015 -0.007876627 -0.009680831 -0.0018324998 -0.010805852 -0.0049552578 9.8720426e-05 0.0024643622
0.006031738 -0.0028281088 0.0051928163 -0.012763272 4.6132377e-06 -0.0054865927 -0.004879163 0.00600508
-0.0064698355 0.005744304 0.005600544 0.00044015818 0.0009976247 -0.0026638247 0.0009241647 -0.013088143
3.0185405e-05 0.0016899199 -0.0018279472 -0.0036222842 0.0016670006 -0.0043079844 -0.00078682025 0.0060134954
-0.002025719 0.0028619417 -0.015874898 0.0052877394 0.00026600107 -0.0022336803 -0.003356576 -0.0065552094
-0.006298811 0.0019008771 0.005657916 0.007471857 -0.009073356 -0.007486651 -0.01547896 -0.001573105
00000000: 8aeb b53a 6df8 c9ba db29 50bb afda 3d3c
00000010: d33c 09bb b1b3 acba 45e4 b93b 8fea ab39
00000020: 139e e83b 261c a33a 848d 90bb e944 37bc
00000030: 4f23 233b b30c 8a3a 27e5 9abb 174a 33bb
00000040: 021f 63bb 7181 133c 8357 99bb d6be 32bc
00000050: 384a e03b 3fce fc3b 93b1 be3b ed34 793b
00000060: 01e8 083b 6cc4 45bb 8f91 a33b 670c 26bb
00000070: 3b61 11bb 628e 6cbb 2232 35bc b8b6 4fbb
00000080: 6fbe 1bbb 630e 13bc 0242 8db9 5dd3 fc3b
00000090: ef26 22bb 677c 96ba e720 8dbb cd6f 383b
000000a0: 0308 e639 dfe5 47bb edd6 263c 58b4 b03b
000000b0: 5422 8a3a d741 8f3b b9c1 a9bb 144c 40bc
000000c0: 051f 8dbb fad8 043b 5102 9bbb 5ed2 803b
000000d0: e755 a63b ea5a 5bba 3895 d13b 2f08 223b
000000e0: a300 f23b fa85 d23b 40f1 5cbb 9d93 ed3a
000000f0: e8c8 733a eb1c 063b b0bb 87bb 3798 ddbb
00000100: fb99 943b 33ca 2bbb f333 06ba 7d67 dd3b
00000110: 58ac f43b a56e 03bc 2aa3 bd3b 7b03 b23b
00000120: df93 f2b9 fc99 85bb e125 253c 3ad7 7bba
00000130: f02a 1b3c 0363 36bb 2b3f 97bb 4a58 cc3b
00000140: 57e9 27bc 0432 293b aa50 193a 1fd8 45bb
00000150: c535 78bb 93d6 553b 57f0 d2b9 5dbc 3dbc
00000160: 7fbd a6ba 2ad6 ccba cc88 cc3b f597 4fbb
00000170: 78d8 2e3c 08c1 9c3b f9bd 04bc e528 0fbc
00000180: 513a a4bb a096 afba 1b83 3abc 0586 843b
00000190: 7865 f53b 339f 66bb fbd1 1bbc 6162 1ebb
000001a0: bdd0 26bc 4f37 bebb 6e7b bcbb 3830 73bb
000001b0: 5e40 4b3b 325b 283b 2884 4abb 10a5 dd3a
000001c0: 1a20 e9ba 3855 66ba 5f23 0f3c bb84 bb3b
000001d0: d817 973b aab8 ef3b e9d6 0e3b 8839 f83a
000001e0: e5f5 9cbb 353f 4bbb 2b70 083b 3af4 dc3a
000001f0: 7b2d 8a3b bd8e 8cbb 5b49 b83c f747 22ba
00000200: 6f01 20bb 147a 06bc 0bb5 84ba 52fe fc3b
00000210: 6383 4ebb 074a 9ebb 8819 e93b 802e d4bb
00000220: 7ac8 eeb9 af98 723b 4226 55bc 5a25 353b
00000230: 17f7 353b 9fb9 5e3c b2c2 573b 18a1 593c
00000240: 3ff8 9f3a 72b4 443b 075a 1e39 baba 3abb
00000250: 9671 863b b272 ef3a c256 ee38 c48f caba
00000260: 179d 123a dd15 d93b 2d36 53bc 68c6 503b
00000270: 5c1e aa39 a392 ea3b 96f4 143c 1bc8 babb
00000280: 72a6 fe3a 9f7c feba 2b4c 65ba 355c 87bc
00000290: a4c9 1f3b d25a 743a 5638 9d3b ed9b 8b3c
000002a0: a8c5 8d3b f89e dcbb 2a3b ca3b 1913 853b
000002b0: 372e 283c 7ad2 553c 1f70 423b a5c8 fd3b
000002c0: 3bb5 d83b 268d cbbb b05f 283b ac4e a1bb
000002d0: 5e9d 32bb 101b d33a 4043 e4ba e380 57bb
000002e0: d32d 4cba e8f3 5cba 158a c33b 8c95 89bb
000002f0: 2d4c 3b3c 7b52 603b 6075 b83b f5d6 2dbc
00000300: 634a 1e3c ff93 013c 50cc 4dbb 0fc9 bdbb
00000310: 1e31 c63b 5790 cd3b 208c 3a3b 3b3c b4ba
00000320: db5d f93b 088d a2ba 41d8 8dba e3b3 00bc
00000330: 75e0 733b f04b 6c3c 689a e93a 4915 b43b
00000340: 9ba2 eb3b f80c 01bc 599c 1ebc 7d30 f0ba
00000350: 070b 31bc b75f a2bb 2008 cf38 2381 213b
00000360: e3a5 c53b cb57 39bb 8028 aa3b 0b1d 51bc
00000370: 69cb 9a36 e0c8 b3bb 63e1 9fbb 43c6 c43b
00000380: ea00 d4bb b73a bc3b c584 b73b 08c5 e639
00000390: bbc2 823a 9093 2ebb a543 723a a76f 56bc
000003a0: aa36 fd37 4d80 dd3a bb97 efba d863 6dbb
000003b0: 427f da3a fe29 8dbb 9d42 4eba db0c c53b
000003c0: edc1 04bb 6a8f 3b3b 130c 82bc c644 ad3b
000003d0: 0f76 8b39 f062 12bb 00fa 5bbb 15cd d6bb
000003e0: 4266 cebb da26 f93a 0a66 b93b 7bd6 f43b
000003f0: 6aa8 14bc 9552 f5bb 779b 7dbc a530 ceba

action_model._discrete_distribution.branches.0.bias f4 [3]
0.0 0.0 0.0
00000000: 0000 0000 0000 0000 0000 0000

action_model._discrete_distribution.branches.1.weight f4 [3, 256]
-0.0070455642 -0.0037676138 0.020073323 0.0057743727 0.0022850716 -0.004570944 0.013139792 -0.0011271804
-0.0028812755 -0.005620771 0.0017584767 -0.0012725176 0.0070892246 -0.0012277575 -0.00013280664 0.0039595626
0.010784154 0.005187165 0.007253445 0.013063154 0.0061131804 0.00085551804 0.002758711 -0.0008111996
-0.009753236 0.0052206586 0.01151072 0.00032869107 -0.004266411 -0.005685837 -0.006876702 0.0043899543
0.0057336884 -0.00031213308 -0.0076449746 0.0041685635 0.0033252363 -6.328698e-05 0.0025609017 0.00019971005
0.008136059 -0.0017741969 -0.0017974401 -0.0023245225 0.00078282657 -0.0028306395 -0.00298313 -0.002930865
-0.0013773394 0.016149748 -0.0040346505 0.015118087 -0.004204981 0.011288485 -0.0076870522 0.0022136867
0.003233922 0.0054828404 0.0064438493 0.004030662 -0.0009057207 -0.0020194463 0.0027323347 -0.0071256133
-0.0019547432 -0.0069930265 0.00827521 -0.005583198 -0.009627431 0.0068245954 -0.0013787833 -0.004256587
-0.00059628155 -0.012568998 -0.0038527492 0.013636808 -0.000107529086 -0.0074183764 -0.003408918 -0.0056530866
0.00081849017 -0.0007703878 -0.011989371 -0.00010169619 -0.0006082526 -0.00047283075 -0.006955494 0.0028181481
0.003925653 0.0032908663 0.008833181 -0.011029511 0.004547359 -0.011705796 -0.004775807 -0.0024161537
0.0010446059 -0.0040306575 -0.0013219606 0.000630713 0.004077818 0.0031805616 -0.004747746 -0.011685072
0.005286543 -0.009916785 0.008791151 0.0047488078 0.004029728 -0.003421719 -0.00062189903 0.005102722
-0.0019155163 0.007304165 0.0017421835 0.010638471 -0.00090756285 0.004555003 -0.00037396644 0.008445071
-3.963322e-05 -0.0036842169 0.006506983 0.004977276 0.0022170767 0.019801285 0.00038937642 0.0036040344
-0.00021613455 0.0033026475 0.0029838437 0.0031238706 -0.0018252684 0.0011589656 0.012781425 0.0012053134
0.0063871085 0.0035764433 0.0029834483 -0.0003130751 -0.0052339453 0.0006981345 0.0006853741 0.0031639475
-0.002544177 -0.003805931 0.015488411 -0.00421003 -0.01199752 -0.005962128 0.0053311656 -0.0052203448
0.007975495 -0.0071133296 0.0021673914 0.0017818904 -0.007114563 -0.008898432 0.00066195166 0.0010792072
-0.002043605 -0.0011507213 -0.0052879783 0.0036285724 0.013538405 0.0046898704 -0.0057324613 0.0029531599
0.00020600576 -0.010144147 0.0042266934 -0.0059169694 0.0039302697 0.0055316132 -0.0028550941 0.0014683356
0.0017804491 0.0048555 0.0048877704 -0.010569932 -0.0078081884 0.0060764896 -0.0016792741 9.76971e-05
0.00011699166 -0.0011280158 -0.005797781 0.0027451846 -0.0066968203 -0.009855538 0.0021639261 -0.0008881436
0.0077640056 0.0070222775 -0.0058437595 -0.010082247 0.0016266843 0.001925257 0.008247543 -0.0033575848
-0.0024107292 0.0110835275 0.013775319 0.005282575 -0.004369634 -0.0041734814 -0.0033338026 -0.0035198708
-0.0013582128 9.721424e-05 0.0029829636 0.0055574304 -0.005322815 0.0024360535 0.0066165016 -0.00020613852
-0.0025862686 -0.0016841608 -0.012992653 0.0012752606 0.004253259 -0.0008489218 0.0032072675 0.0048317723
-0.0137510365 -0.005217458 0.0005428675 0.0018805458 -0.010400509 0.003349653 0.0018348277 -0.008734476
-0.0044294773 -0.0022804576 -0.004769506 0.0007964722 -0.005531785 -0.01218339 -0.0011958494 0.0043836907
0.010636643 0.0042967345 0.001061472 -0.004665044 0.008225331 -0.00892102 -0.0008286242 0.0028079515
0.00031760297 -0.006312447 -0.0021510373 0.005223069 0.00032526717 0.0038275302 -0.0018878867 -0.0071998313
00000000: 7ade e6bb 12ea 76bb cf70 a43c f336 bd3b
00000010: 24c1 153b dbc7 95bb 4848 573c e6bd 93ba
00000020: c8d3 3cbb 722e b8bb b07c e63a 9bca a6ba
00000030: ba4c e83b b5ec a0ba 0342 0bb9 38bf 813b
00000040: 05b0 303c 18f9 a93b 4fae ed3b d706 563c
00000050: 1351 c83b d844 603a 7ecb 343b afa6 54ba
00000060: 09cc 1fbc 0f12 ab3b 7597 3c3c 2b54 ac39
00000070: 40cd 8bbb 4250 babb f555 e1bb 9bd9 8f3b
00000080: aae1 bb3b cba5 a3b9 b282 fabb 7298 883b
00000090: 35ec 593b f0b8 84b8 cdd4 273b 4269 5139
000000a0: 1b4d 053c 2b8c e8ba 1598 ebba 0457 18bb
000000b0: 9a36 4d3a 4082 39bb 9e80 43bb c113 40bb
000000c0: d787 b4ba 7a4c 843c 1a35 84bb dab1 773c
000000d0: f0c9 89bb 56f3 383c abe3 fbbb 8013 113b
000000e0: 35f0 533b 66a9 b33b ed26 d33b a513 843b
000000f0: e36d 6dba b058 04bb f810 333b fa7d e9bb
00000100: 261b 00bb c225 e5bb bf94 073c 42f3 b6bb
00000110: 5fbc 1dbc dba0 df3b 4ab8 b4ba d77a 8bbb
00000120: c74f 1cba 33ee 4dbc 687e 7cbb eb6c 5f3c
00000130: 3d81 e1b8 da15 f3bb 2768 5fbb 873d b9bb
00000140: f28f 563a daf3 49ba 116f 44bc ba45 d5b8
00000150: 2473 1fba 45e6 f7b9 eaea e3bb aeb0 383b
00000160: c4a2 803b 93ab 573b 0cb9 103c 1fb5 34bc
00000170: 0302 953b abc9 3fbc 5f7e 9cbb 5558 1ebb
00000180: 28eb 883a 9b13 84bb a345 adba 6f56 253a
00000190: 379f 853b f870 503b fb92 9bbb bf72 3fbc
000001a0: bd3a ad3b 037a 22bc c308 103c e39b 9b3b
000001b0: cf0b 843b eb3e 60bb f006 23ba bc34 a73b
000001c0: 1012 fbba c757 ef3b fa59 e43a fb4c 2e3c
000001d0: 83e9 6dba 2242 953b ed10 c4b9 325d 0a3c
000001e0: d93b 26b8 e772 71bb 8838 d53b 6b18 a33b
000001f0: 604c 113b 4e36 a23c 3825 cc39 aa31 6c3b
00000200: 2da2 62b9 3b71 583b 978c 433b dab9 4c3b
00000210: d83d efba 6fe8 973a 2f69 513c 9bfb 9d3a
00000220: f34a d13b c362 6a3b f585 433b 3b24 a4b9
00000230: 8481 abbb 0303 373a adaa 333a 3b5a 4f3b
00000240: 35bc 26bb ed6c 79bb 1bc3 7d3c 4bf4 89bb
00000250: 3f91 44bc f45d c3bb 0fb1 ae3b 6d0f abbb
00000260: a7ab 023c ef16 e9bb cb0a 0e3b 528e e93a
00000270: 4821 e9bb bbca 11bc d386 2d3a 2f74 8d3a
00000280: 01ee 05bb cdd3 96ba c746 adbb 58cd 6d3b
00000290: 30d0 5d3c 7cad 993b 5fd7 bbbb cd89 413b
000002a0: 4003 5839 a333 26bc 1380 8a3b 23e3 c1bb
000002b0: 7ec9 803b 8942 b53b 881c 3bbb 2b75 c03a
000002c0: f55d e93a e31a 9f3b 9729 a03b 822d 2dbc
000002d0: d5db ffbb 4a1d c73b 171b dcba bbe2 cc38
000002e0: 6b59 f538 eed9 93ba 50fb bdbb 8ee8 333b
000002f0: 0071 dbbb 1f79 21bc a8d0 0d3b 4fd2 68ba
00000300: 3369 fe3b 221b e63b 027d bfbb 0230 25bc
00000310: 7836 d53a e858 fc3a b420 073c ed0a 5cbb
00000320: 53fd 1dbb af97 353c e0b1 613c 7319 ad3b
00000330: 262f 8fbb b3c1 88bb ed7b 5abb a2ad 66bb
00000340: 0f06 b2ba 7fdf cb38 d37d 433b 1b1b b63b
00000350: 026b aebb 32a6 1f3b 3dcf d83b e326 58b9
00000360: 637e 29bb 0fbf dcba 23df 54bc a526 a73a
00000370: ec5e 8b3b 2d8a 5eba 0531 523b d853 9e3b
00000380: 074c 61bc 36f7 aabb 394f 0e3a a57c f63a
00000390: e666 2abc da85 5b3b 9a7e f03a 0c1b 0fbc
000003a0: 2625 91bb bb73 15bb 8449 9cbb 58ca 503a
000003b0: fa43 b5bb d79c 47bc 0cbe 9cba 10a5 8f3b
000003c0: 5045 2e3c 9fcb 8c3b 1721 8b3a 3add 98bb
000003d0: 8ac3 063c 7829 12bc 0738 59ba 9c05 383b
000003e0: f383 a639 a5d8 cebb 6bf8 0cbb 4726 ab3b
000003f0: 9f88 aa39 4dd7 7a3b f772 f7ba 90ec ebbb

action_model._discrete_distribution.branches.1.bias f4 [3]
0.0 0.0 0.0
00000000: 0000 0000 0000 0000 0000 0000
