Assets/Agent2.onnx (onnx, 923545 bytes, 19 tensors)

discrete_action_output_shape f4 [1, 6]
00000000: 0000 4040 0000 4040 0000 0040 0000 0040
00000010: 0000 0040 0000 0040
3.0 3.0 2.0 2.0 2.0 2.0

network_body._body_endoder.seq_layers.0.weight f4 [256, 366]
00000000: 6cb8 233d d6ce b13c fdd8 96bc 46f9 d9bb
00000010: 0d2b 80bd 49c2 1fbd 272e 57bd 4c2c 84bd
00000020: f02f 963b f6ce 1a3c ba3d 903d f577 72bd
00000030: a053 8abc 4aa5 ff3d 1d0c 47bc 5bde 83bc
00000040: 3eaa 353d e742 343d 099a 21bd acd4 ae3c
00000050: 91c1 f33c 0b1e 83bd ecfd 24bc 6800 5bbd
00000060: e404 d23d dfde 80bc a82d 74bd 6800 89bc
00000070: ab1d 38bd fa19 af3c 5312 02bd db26 01bd
00000080: 4946 8b3c ef01 acbd 3486 fdbd 878e 923d
00000090: a12f 59bd ced3 c43c 1c92 713d 929c 2f3d
000000a0: 5219 a9bc 413e 19bd b33c bb3d a2a1 4abc
000000b0: 6b85 82bd ccd3 b3bb 86a9 333d 1cad e4bd
000000c0: db25 a43d 7eb6 dfbd cfd7 943d 8957 b5bd
000000d0: e046 513d 7368 d23c e88c 23bc 5b1a 47bd
000000e0: 2c98 183d 1737 2f3c 7a70 81bc e846 8cbd
000000f0: 4039 773a fe50 bdbc afeb abbc f553 763d
00000100: 7efa 92bd ce92 f3bb 1db3 f13c 4347 b1ba
00000110: 3c08 8bbd ceba 9e3b 65a7 17bd 9126 413c
00000120: 77ba a93b 2b88 0b3b 9719 ac3c bc2c 0e3d
00000130: 13d2 da3c e1cb c2bc 7f5e 993d f644 bebd
00000140: 57b6 10bc ed52 d0bc ceb2 87bd 89d0 393d
00000150: fee8 e43d c808 cebc e950 5bbc f2a9 613b
00000160: 6de6 86bd e521 2cbd cd97 cdbb 71b5 933d
00000170: d36b 66bd 49b4 abbd 5a85 ae3c 8718 8d3d
00000180: c122 b93c 3ddf c9bd 5da2 5a3c 099e 4c3b
00000190: 420a c73d e00c 833c 4352 2d3c 3a15 c3bc
000001a0: e9a5 6f3d e6ff 823d 6fce 83bc 87b0 433d
000001b0: 9268 623d 484c fe3c 75c3 633d 240f cb3c
000001c0: dcc9 8bbd 7f92 b9bc b724 02bd 8449 bd3c
000001d0: 3147 d4bd 0664 cbbd 64f0 ad3c c873 963b
000001e0: c2d4 283d eb47 4dbb b900 cc3c 1757 e8bd
000001f0: edcb 813c c4d2 983d f3e5 9d3c c5e9 143d
00000200: 1a4f 663d efbc 2ebc 9211 3cbc b0ec f53c
00000210: a972 c3bb 45a4 343d 695e f23c fe57 cd3c
00000220: 08b5 263c 2678 12bd 56ae 43bd c72f 53bd
00000230: 1a6b 1bbd 19da e5b9 123e 46bc d3af eabc
00000240: 1c2c f0bb ccf0 7b3d 79c7 b2bd 662b fabc
00000250: b857 7a3c b36c 963c 947a 65bc b580 e43c
00000260: 10f0 0a3b ce14 8a3c 4d7d cabc eb5d 4ebd
00000270: c429 4abd ab8f 10bd 56d2 d43c 87e1 263c
00000280: dc1b 0d3c c84f f83c 71a7 d0bc 88e4 d93d
00000290: 17af c7bd 2a42 23bc f8a6 673b ddc1 8e3d
000002a0: 5cb4 12be 2e62 6fbd b9f1 463d 58af b3bc
000002b0: 5865 603d 811c 9ab9 4dab dbbd 70a1 2e3c
000002c0: a8b4 783d 0ca0 a03d 6f03 6fbc be8d f2bc
000002d0: 7e28 6bbd cd58 923d f305 62bc b723 03bd
000002e0: 867d b13c 1ae0 0d3d 5348 733d 31cf 9bbd
000002f0: 8e02 2f3c bb28 33bb b3d1 143d 6fd4 833a
00000300: 0b3b 5cbd d6aa 903c 1d2d e73c 589b 22bc
00000310: 5a0b 7d3d 97c0 05bc 6f35 d0bd 7adc 3f3c
00000320: 29d0 ffba 7439 173d f91a ceba 5c73 b8bc
00000330: 380f 75bd 346e 103d 5e47 ac3a bf2f 4e3c
00000340: 063b 1bbb 7fee 4e3d 520a dc3b 7f9d 7bbd
00000350: fe84 7c3d 4091 1c3d 8b43 87bd df6b cb3b
00000360: 23b2 40bd 3d35 2dbd c9f2 a03d a5b5 1abd
00000370: 5cab b43d 4905 6cbd 8d50 fc3c 613a 80bc
00000380: a737 373c 6b8f da3c 020c 843d 74d9 943c
00000390: e1b8 8ebc e99e 043d 655c bcbc 7da0 3e3c
000003a0: 7138 45bd e9d6 f4ba 0b50 d73c 128d 8b3d
000003b0: 5ff9 7e3d b4b5 7bbc 5160 75bb 0091 73bd
000003c0: 0304 cfbc 8d00 81bd 7088 f93c 6d50 213d
000003d0: 8227 72bd 5126 e4bb 08a5 903c ce49 d4bb
000003e0: db49 ffbd ab59 783c 4ee9 39bc f141 eb3c
000003f0: caf5 e1bc f50f a0bc 1283 c13d e906 a23a
0.0399708 0.021705072 -0.018414015 -0.00665203 -0.06258211 -0.039003644 -0.05253425 -0.064537615
0.0045833513 0.009448757 0.070430234 -0.05919643 -0.016885579 0.12482698 -0.012148884 -0.016097238
0.04435181 0.044009116 -0.03945354 0.021341644 0.029755386 -0.064022146 -0.010070305 -0.053467184
0.10254839 -0.015731273 -0.059613854 -0.016723827 -0.04495017 0.021374691 -0.031755757 -0.031531196
0.017001288 -0.08398806 -0.12379113 0.07156091 -0.053023938 0.024026778 0.05897723 0.042873926
-0.020641956 -0.037412886 0.09142437 -0.012367638 -0.06373104 -0.0054878946 0.043862842 -0.111658305
0.08015033 -0.109234795 0.07267725 -0.08854587 0.051092982 0.02568457 -0.009982325 -0.04860912
0.037254497 0.010694287 -0.015800703 -0.06849462 0.0009430833 -0.02310991 -0.020986406 0.06013866
-0.07176684 -0.007433272 0.029504353 -0.0013525266 -0.0678868 0.004844046 -0.037024874 0.01178898
0.005179699 0.002129088 0.021008296 0.03471063 0.0267115 -0.023778858 0.07488727 -0.09290497
-0.008832536 -0.025430167 -0.06625901 0.04536489 0.11177252 -0.025150672 -0.01338599 0.003443357
-0.06586919 -0.04202451 -0.0062741996 0.072123416 -0.056255173 -0.08383996 0.021303821 0.06889444
0.02259958 -0.098570324 0.0133443745 0.0031222126 0.097187534 0.01599735 0.010578695 -0.023813833
0.058507834 0.06396465 -0.016089646 0.04777577 0.055275507 0.031042233 0.055606324 0.024787493
-0.06825611 -0.022652863 -0.031773295 0.023106344 -0.10365141 -0.09931187 0.021232791 0.004591439
0.041218527 -0.0031323384 0.024902688 -0.11344736 0.01584431 0.07462075 0.019274687 0.036355752
0.05622778 -0.0106651625 -0.011478798 0.030020088 -0.0059645963 0.044101972 0.029586034 0.025066372
0.010174997 -0.035759114 -0.04777368 -0.051559236 -0.037943937 -0.0004384078 -0.01209976 -0.028648293
-0.007329477 0.06150894 -0.08729453 -0.030538272 0.015279703 0.018362379 -0.014006276 0.027893404
0.0021200217 0.016855624 -0.024717951 -0.050382536 -0.049356237 -0.035293262 0.025979202 0.010185606
0.008612599 0.03031148 -0.025470467 0.10639292 -0.097501926 -0.009964505 0.0035347324 0.0697057
-0.14326614 -0.05844324 0.04857037 -0.021934196 0.05478415 -0.00029394406 -0.107260324 0.010658607
0.060719162 0.078430265 -0.014588221 -0.029608604 -0.057411663 0.07145844 -0.013795364 -0.032016482
0.0216663 0.034637548 0.059395146 -0.07607878 0.010681761 -0.002733751 0.036332797 0.0010057817
-0.053767245 0.017659586 0.028219754 -0.009924732 0.061778404 -0.008163593 -0.10166442 0.011710281
-0.0019516993 0.036920026 -0.0015724591 -0.022515945 -0.059828967 0.035261348 0.0013143828 0.012584626
-0.0023686304 0.050520416 0.0067150975 -0.061429497 0.06165027 0.03822446 -0.0660468 0.0062079276
-0.047044884 -0.0422871 0.078588076 -0.037770886 0.08821747 -0.057622228 0.030800128 -0.015652837
0.011182702 0.026679715 0.06447603 0.018170096 -0.017422142 0.03237811 -0.022993276 0.011634943
-0.04814953 -0.0018679771 0.026283285 0.068140164 0.062249538 -0.015363146 -0.0037441442 -0.059464455
-0.025270468 -0.06298933 0.030460566 0.03938334 -0.05911971 -0.0069625755 0.017656818 -0.0064785248
-0.12465259 0.015158097 -0.011347128 0.028717967 -0.027583022 -0.019538859 0.09448828 0.0012361679

network_body._body_endoder.seq_layers.0.bias f4 [256]
00000000: 0000 0000 0000 0000 0000 0000 0000 0000
00000010: 0000 0000 0000 0000 0000 0000 0000 0000
00000020: 0000 0000 0000 0000 0000 0000 0000 0000
00000030: 0000 0000 0000 0000 0000 0000 0000 0000
00000040: 0000 0000 0000 0000 0000 0000 0000 0000
00000050: 0000 0000 0000 0000 0000 0000 0000 0000
00000060: 0000 0000 0000 0000 0000 0000 0000 0000
00000070: 0000 0000 0000 0000 0000 0000 0000 0000
00000080: 0000 0000 0000 0000 0000 0000 0000 0000
00000090: 0000 0000 0000 0000 0000 0000 0000 0000
000000a0: 0000 0000 0000 0000 0000 0000 0000 0000
000000b0: 0000 0000 0000 0000 0000 0000 0000 0000
000000c0: 0000 0000 0000 0000 0000 0000 0000 0000
000000d0: 0000 0000 0000 0000 0000 0000 0000 0000
000000e0: 0000 0000 0000 0000 0000 0000 0000 0000
000000f0: 0000 0000 0000 0000 0000 0000 0000 0000
00000100: 0000 0000 0000 0000 0000 0000 0000 0000
00000110: 0000 0000 0000 0000 0000 0000 0000 0000
00000120: 0000 0000 0000 0000 0000 0000 0000 0000
00000130: 0000 0000 0000 0000 0000 0000 0000 0000
00000140: 0000 0000 0000 0000 0000 0000 0000 0000
00000150: 0000 0000 0000 0000 0000 0000 0000 0000
00000160: 0000 0000 0000 0000 0000 0000 0000 0000
00000170: 0000 0000 0000 0000 0000 0000 0000 0000
00000180: 0000 0000 0000 0000 0000 0000 0000 0000
00000190: 0000 0000 0000 0000 0000 0000 0000 0000
000001a0: 0000 0000 0000 0000 0000 0000 0000 0000
000001b0: 0000 0000 0000 0000 0000 0000 0000 0000
000001c0: 0000 0000 0000 0000 0000 0000 0000 0000
000001d0: 0000 0000 0000 0000 0000 0000 0000 0000
000001e0: 0000 0000 0000 0000 0000 0000 0000 0000
000001f0: 0000 0000 0000 0000 0000 0000 0000 0000
00000200: 0000 0000 0000 0000 0000 0000 0000 0000
00000210: 0000 0000 0000 0000 0000 0000 0000 0000
00000220: 0000 0000 0000 0000 0000 0000 0000 0000
00000230: 0000 0000 0000 0000 0000 0000 0000 0000
00000240: 0000 0000 0000 0000 0000 0000 0000 0000
00000250: 0000 0000 0000 0000 0000 0000 0000 0000
00000260: 0000 0000 0000 0000 0000 0000 0000 0000
00000270: 0000 0000 0000 0000 0000 0000 0000 0000
00000280: 0000 0000 0000 0000 0000 0000 0000 0000
00000290: 0000 0000 0000 0000 0000 0000 0000 0000
000002a0: 0000 0000 0000 0000 0000 0000 0000 0000
000002b0: 0000 0000 0000 0000 0000 0000 0000 0000
000002c0: 0000 0000 0000 0000 0000 0000 0000 0000
000002d0: 0000 0000 0000 0000 0000 0000 0000 0000
000002e0: 0000 0000 0000 0000 0000 0000 0000 0000
000002f0: 0000 0000 0000 0000 0000 0000 0000 0000
00000300: 0000 0000 0000 0000 0000 0000 0000 0000
00000310: 0000 0000 0000 0000 0000 0000 0000 0000
00000320: 0000 0000 0000 0000 0000 0000 0000 0000
00000330: 0000 0000 0000 0000 0000 0000 0000 0000
00000340: 0000 0000 0000 0000 0000 0000 0000 0000
00000350: 0000 0000 0000 0000 0000 0000 0000 0000
00000360: 0000 0000 0000 0000 0000 0000 0000 0000
00000370: 0000 0000 0000 0000 0000 0000 0000 0000
00000380: 0000 0000 0000 0000 0000 0000 0000 0000
00000390: 0000 0000 0000 0000 0000 0000 0000 0000
000003a0: 0000 0000 0000 0000 0000 0000 0000 0000
000003b0: 0000 0000 0000 0000 0000 0000 0000 0000
000003c0: 0000 0000 0000 0000 0000 0000 0000 0000
000003d0: 0000 0000 0000 0000 0000 0000 0000 0000
000003e0: 0000 0000 0000 0000 0000 0000 0000 0000
000003f0: 0000 0000 0000 0000 0000 0000 0000 0000
0.0 0.0 0.0 0.0 0.0 0.0 0.0 0.0
0.0 0.0 0.0 0.0 0.0 0.0 0.0 0.0
0.0 0.0 0.0 0.0 0.0 0.0 0.0 0.0
0.0 0.0 0.0 0.0 0.0 0.0 0.0 0.0
0.0 0.0 0.0 0.0 0.0 0.0 0.0 0.0
0.0 0.0 0.0 0.0 0.0 0.0 0.0 0.0
0.0 0.0 0.0 0.0 0.0 0.0 0.0 0.0
0.0 0.0 0.0 0.0 0.0 0.0 0.0 0.0
0.0 0.0 0.0 0.0 0.0 0.0 0.0 0.0
0.0 0.0 0.0 0.0 0.0 0.0 0.0 0.0
0.0 0.0 0.0 0.0 0.0 0.0 0.0 0.0
0.0 0.0 0.0 0.0 0.0 0.0 0.0 0.0
0.0 0.0 0.0 0.0 0.0 0.0 0.0 0.0
0.0 0.0 0.0 0.0 0.0 0.0 0.0 0.0
0.0 0.0 0.0 0.0 0.0 0.0 0.0 0.0
0.0 0.0 0.0 0.0 0.0 0.0 0.0 0.0
0.0 0.0 0.0 0.0 0.0 0.0 0.0 0.0
0.0 0.0 0.0 0.0 0.0 0.0 0.0 0.0
0.0 0.0 0.0 0.0 0.0 0.0 0.0 0.0
0.0 0.0 0.0 0.0 0.0 0.0 0.0 0.0
0.0 0.0 0.0 0.0 0.0 0.0 0.0 0.0
0.0 0.0 0.0 0.0 0.0 0.0 0.0 0.0
0.0 0.0 0.0 0.0 0.0 0.0 0.0 0.0
0.0 0.0 0.0 0.0 0.0 0.0 0.0 0.0
0.0 0.0 0.0 0.0 0.0 0.0 0.0 0.0
0.0 0.0 0.0 0.0 0.0 0.0 0.0 0.0
0.0 0.0 0.0 0.0 0.0 0.0 0.0 0.0
0.0 0.0 0.0 0.0 0.0 0.0 0.0 0.0
0.0 0.0 0.0 0.0 0.0 0.0 0.0 0.0
0.0 0.0 0.0 0.0 0.0 0.0 0.0 0.0
0.0 0.0 0.0 0.0 0.0 0.0 0.0 0.0
0.0 0.0 0.0 0.0 0.0 0.0 0.0 0.0

network_body._body_endoder.seq_layers.2.weight f4 [256, 256]
00000000: 4019 143d 5b11 da3d 36d2 a7bd 7a00 313d
00000010: 2259 2b3d 5e81 053e 8c39 d13c eecb 363c
00000020: f512 c13d 83a5 14bd 0cb7 3ebd ecfe c1bd
00000030: 058d 86bd 05b5 20bd ffd1 78bd e628 e6bd
00000040: d6b0 c43c b3f5 8a3d a22e 5e3d 421d 9e3d
00000050: ec08 16bd 6864 a13d 36d7 223d bc7b b1bc
00000060: b91d 13be ca78 81bd 4dfe 33bd 3e57 2b3d
00000070: 4ec6 81bd 433b 0a3d 2309 aa3a bbe9 92bc
00000080: 03a3 72bd a900 7ebd 690d e5bd 3636 29bd
00000090: 35eb 7bbd 248c 59bd ac1f 98bd 52ed 09bd
000000a0: 0cd9 8fbc 1ce7 4bbd 7bbc cb3d 2fd1 b3bc
000000b0: bcab 233b ef66 1bbc b882 0a3c 274d ebbc
000000c0: 4a0b 6e3c 65d1 8dbd fab4 873d cd99 33bd
000000d0: 3888 b73d 4a2d bd3b e1bb 1a3d a0c4 943c
000000e0: eff9 5dba 9066 41bc 27d9 113b 4b95 1b3d
000000f0: f1d2 97bc 99af e9bc a77c 86bd 3bac e7bc
00000100: fc36 6b3d d86a a5bd 397d ad3d 7281 9bbd
00000110: 8fd3 513d 8d0b 073d f23c 35bb dfc2 18bd
00000120: d0e3 c3bd 067f 593d dcb5 353b 474f febc
00000130: b5e0 14bc e5c0 413b 3250 c0bc eaa9 513d
00000140: 884f 083d f4a3 e6bc e25d 003d 405c 503c
00000150: dedc 3abc 6169 553d 3bb7 533d 6963 ab3c
00000160: d7dd 953c d34f 283b e4ef 303e 5e55 1d3d
00000170: fe77 cf3d ddbc f1bc 5619 983d 2b77 b5bd
00000180: e3f2 503c 923b 883c 9b97 363e f93e 92bb
00000190: ed13 c7bd 1241 b9bd 958e 71bd bd1d 923c
000001a0: 02d3 94bd c3d8 0dbc 8a1d 99bd 6f17 423d
000001b0: 08a7 3ebd c96e 04bd 929c 8dbc 8788 36bd
000001c0: 8e86 58bd 83a4 b93c 40d8 de3d 7cef 6ebd
000001d0: f0c0 80bc 8819 4e3d e9e0 d43c 3215 26bd
000001e0: a436 b4bc 476c 403b 3771 7cbd 1461 a2bc
000001f0: 61da fd3c b32a 953d d345 bdbd f9cb 273e
00000200: 93a7 e33c 04c0 2ebd d06f 68bd 7c32 b0bc
00000210: f903 f4bc 2e24 cfbc 543d 133d c3b2 94bd
00000220: e25a 1cbd 3e02 74ba f476 15be b437 bf3d
00000230: 6824 0e3e e670 edbc 91ae 62bd aa95 50bc
00000240: efc1 11bb 3065 913c 81b0 b93d 0e7b c93d
00000250: b725 88bc 0242 94bc 3cbf 08bd cb55 40bc
00000260: 116a 933d c5ec cabb 028f 55bd 34d3 0fbc
00000270: 2f26 54bd e942 b73b efbb 173d dd9e 3f3e
00000280: 517b 173d 7015 e53d dfa4 8cba b648 7e3d
00000290: 399f d03d 3c50 973d d16f f63c 960f f3bc
000002a0: 1798 48ba 448d 0f3d 71f4 0b3e 2fe6 c53d
000002b0: 4f71 41bd 3b97 56bd f2a3 cebd f28a 213e
000002c0: 9e0d 7d3c 1e0e 0e3d 5d8d 523d 9928 17bd
000002d0: 55e5 b23d 1ff7 abbc e2cd 143e 7bcd 36bd
000002e0: 1858 e53c 6e1a f53c 3a82 273c 5304 2dbd
000002f0: 32db d83c 2ce3 95bd df9b a53a 176b bfbd
00000300: 2882 ebbc 5596 933d 710f 95bd ecd0 3f3d
00000310: 4bdc 1f3d b9a1 b9bd 0f2c 0c3c 986e 753b
00000320: cde4 dabc 8d3e 96bd f7b1 183e 095b 353d
00000330: 6aad 89bc bef5 c0bc 81b9 15bd 89e5 3cbd
00000340: 6de6 c5bd fefa cfbc 1b6f ab38 5204 643d
00000350: b39f 963d f4da c13d d22d 173d 5a7d c9bc
00000360: 4eca a33c bdab 3c3d e2dc b3bd 09bc 913d
00000370: 32d1 ff3d e118 de3d ff96 7d3d 78a5 5f3d
00000380: 58ae c73c 6814 f8bc 43d5 59bc 9f13 5c3d
00000390: 3f53 0b3e 334a 41bd caf8 bdbc 9c04 e63d
000003a0: 5286 b8bd 69bc 19be c685 0d3d 5bbc 0fbe
000003b0: 7628 22bd d6cb 81ba 442a 743c e30a 663d
000003c0: 59a6 d13c 7234 ad3b 18be d33c 469f f73b
000003d0: e634 35bc 761e 35bd e5c4 b4bd 8a17 cf3c
000003e0: 85c5 a8bc c69f 393d fc87 08be 9a20 223d
000003f0: bdc9 d9bb 6b64 f33c 8568 edbc a7a1 613a
0.036156893 0.106478415 -0.081943914 0.043213345 0.04183305 0.13037631 0.025540136 0.011157019
0.09427444 -0.036290657 -0.046561286 -0.094724506 -0.06569866 -0.039235134 -0.060747143 -0.112382695
0.024010103 0.06785145 0.05424369 0.07720424 -0.036629602 0.07880479 0.039756022 -0.021665446
-0.14366807 -0.06321867 -0.043943692 0.041831248 -0.06336652 0.033747923 0.0012972694 -0.017933717
-0.05923749 -0.06201235 -0.111841984 -0.041311465 -0.061503608 -0.053112164 -0.07427916 -0.033673592
-0.01755955 -0.04978095 0.09948059 -0.021950332 0.0024974188 -0.0094849905 0.008454017 -0.028723313
0.014529059 -0.069247045 0.066263154 -0.043847848 0.089615285 0.005773221 0.03777683 0.018160164
-0.0008467724 -0.011804238 0.0022254677 0.037984174 -0.018533202 -0.028526114 -0.06566744 -0.028280368
0.057425484 -0.080770195 0.0847115 -0.07593049 0.05122715 0.03297 -0.0027654734 -0.03729522
-0.09564936 0.053099655 0.0027726805 -0.031043662 -0.009086777 0.0029564437 -0.02347574 0.051187433
0.033278972 -0.02815435 0.031339534 0.012717307 -0.011405198 0.05210245 0.051688414 0.020921426
0.018294258 0.0025682345 0.17279011 0.03841149 0.101303086 -0.029509002 0.074267074 -0.0886062
0.012753221 0.016629968 0.1783127 -0.0044630733 -0.097205974 -0.09045614 -0.058973867 0.017836446
-0.07266809 -0.008657637 -0.07476337 0.04738563 -0.046546012 -0.032332215 -0.017286573 -0.044563796
-0.052862696 0.022661453 0.1088109 -0.05833386 -0.015717 0.050317317 0.025986152 -0.040547557
-0.02199871 0.0029361413 -0.061631408 -0.019821681 0.03098792 0.07283535 -0.092418335 0.16386403
0.027789867 -0.04266359 -0.056747258 -0.021508448 -0.02978705 -0.025285807 0.03594716 -0.072606586
-0.03817261 -0.00093081954 -0.14596158 0.093367964 0.13881075 -0.028984498 -0.05534226 -0.012730995
-0.0022240838 0.017748445 0.090668686 0.09837924 -0.016619546 -0.018097881 -0.0333855 -0.011739205
0.07197965 -0.006192776 -0.052138336 -0.008778382 -0.051794227 0.005592693 0.03704446 0.18712945
0.036982838 0.111857295 -0.0010730288 0.06208106 0.10186619 0.0738835 0.030082615 -0.029670518
-0.00076520577 0.03504683 0.13667466 0.09663045 -0.0472272 -0.05239032 -0.10089864 0.1577566
0.015445141 0.034681432 0.051404346 -0.03690395 0.08735148 -0.02099186 0.14531663 -0.044629555
0.027996108 0.02991983 0.0102239195 -0.042240452 0.026471708 -0.0731872 0.0012634954 -0.09346598
-0.028748587 0.07206408 -0.07278336 0.046830103 0.039028447 -0.09064049 0.008555426 0.0037449952
-0.026720429 -0.07336149 0.14911638 0.04427627 -0.016806323 -0.023554679 -0.036553863 -0.04611734
-0.09663091 -0.025388237 8.1746104e-05 0.055668183 0.07354679 0.0946559 0.036908932 -0.024595905
0.019993927 0.04606222 -0.087823644 0.07115943 0.12491073 0.10844589 0.06191158 0.054601163
0.024375126 -0.030283168 -0.013295474 0.05372965 0.13605975 -0.047189903 -0.023189921 0.11231348
-0.090099946 -0.15013279 0.034551404 -0.14036696 -0.039589368 -0.0009902667 0.014902655 0.056162726
0.025592016 0.005285793 0.02584748 0.0075568287 -0.011059975 -0.044218503 -0.08826617 0.025279779
-0.020601997 0.045318387 -0.13333124 0.039581873 -0.0066463635 0.029710969 -0.028980503 0.0008607157

network_body._body_endoder.seq_layers.2.bias f4 [256]
00000000: 0000 0000 0000 0000 0000 0000 0000 0000
00000010: 0000 0000 0000 0000 0000 0000 0000 0000
00000020: 0000 0000 0000 0000 0000 0000 0000 0000
00000030: 0000 0000 0000 0000 0000 0000 0000 0000
00000040: 0000 0000 0000 0000 0000 0000 0000 0000
00000050: 0000 0000 0000 0000 0000 0000 0000 0000
00000060: 0000 0000 0000 0000 0000 0000 0000 0000
00000070: 0000 0000 0000 0000 0000 0000 0000 0000
00000080: 0000 0000 0000 0000 0000 0000 0000 0000
00000090: 0000 0000 0000 0000 0000 0000 0000 0000
000000a0: 0000 0000 0000 0000 0000 0000 0000 0000
000000b0: 0000 0000 0000 0000 0000 0000 0000 0000
000000c0: 0000 0000 0000 0000 0000 0000 0000 0000
000000d0: 0000 0000 0000 0000 0000 0000 0000 0000
000000e0: 0000 0000 0000 0000 0000 0000 0000 0000
000000f0: 0000 0000 0000 0000 0000 0000 0000 0000
00000100: 0000 0000 0000 0000 0000 0000 0000 0000
00000110: 0000 0000 0000 0000 0000 0000 0000 0000
00000120: 0000 0000 0000 0000 0000 0000 0000 0000
00000130: 0000 0000 0000 0000 0000 0000 0000 0000
00000140: 0000 0000 0000 0000 0000 0000 0000 0000
00000150: 0000 0000 0000 0000 0000 0000 0000 0000
00000160: 0000 0000 0000 0000 0000 0000 0000 0000
00000170: 0000 0000 0000 0000 0000 0000 0000 0000
00000180: 0000 0000 0000 0000 0000 0000 0000 0000
00000190: 0000 0000 0000 0000 0000 0000 0000 0000
000001a0: 0000 0000 0000 0000 0000 0000 0000 0000
000001b0: 0000 0000 0000 0000 0000 0000 0000 0000
000001c0: 0000 0000 0000 0000 0000 0000 0000 0000
000001d0: 0000 0000 0000 0000 0000 0000 0000 0000
000001e0: 0000 0000 0000 0000 0000 0000 0000 0000
000001f0: 0000 0000 0000 0000 0000 0000 0000 0000
00000200: 0000 0000 0000 0000 0000 0000 0000 0000
00000210: 0000 0000 0000 0000 0000 0000 0000 0000
00000220: 0000 0000 0000 0000 0000 0000 0000 0000
00000230: 0000 0000 0000 0000 0000 0000 0000 0000
00000240: 0000 0000 0000 0000 0000 0000 0000 0000
00000250: 0000 0000 0000 0000 0000 0000 0000 0000
00000260: 0000 0000 0000 0000 0000 0000 0000 0000
00000270: 0000 0000 0000 0000 0000 0000 0000 0000
00000280: 0000 0000 0000 0000 0000 0000 0000 0000
00000290: 0000 0000 0000 0000 0000 0000 0000 0000
000002a0: 0000 0000 0000 0000 0000 0000 0000 0000
000002b0: 0000 0000 0000 0000 0000 0000 0000 0000
000002c0: 0000 0000 0000 0000 0000 0000 0000 0000
000002d0: 0000 0000 0000 0000 0000 0000 0000 0000
000002e0: 0000 0000 0000 0000 0000 0000 0000 0000
000002f0: 0000 0000 0000 0000 0000 0000 0000 0000
00000300: 0000 0000 0000 0000 0000 0000 0000 0000
00000310: 0000 0000 0000 0000 0000 0000 0000 0000
00000320: 0000 0000 0000 0000 0000 0000 0000 0000
00000330: 0000 0000 0000 0000 0000 0000 0000 0000
00000340: 0000 0000 0000 0000 0000 0000 0000 0000
00000350: 0000 0000 0000 0000 0000 0000 0000 0000
00000360: 0000 0000 0000 0000 0000 0000 0000 0000
00000370: 0000 0000 0000 0000 0000 0000 0000 0000
00000380: 0000 0000 0000 0000 0000 0000 0000 0000
00000390: 0000 0000 0000 0000 0000 0000 0000 0000
000003a0: 0000 0000 0000 0000 0000 0000 0000 0000
000003b0: 0000 0000 0000 0000 0000 0000 0000 0000
000003c0: 0000 0000 0000 0000 0000 0000 0000 0000
000003d0: 0000 0000 0000 0000 0000 0000 0000 0000
000003e0: 0000 0000 0000 0000 0000 0000 0000 0000
000003f0: 0000 0000 0000 0000 0000 0000 0000 0000
0.0 0.0 0.0 0.0 0.0 0.0 0.0 0.0
0.0 0.0 0.0 0.0 0.0 0.0 0.0 0.0
0.0 0.0 0.0 0.0 0.0 0.0 0.0 0.0
0.0 0.0 0.0 0.0 0.0 0.0 0.0 0.0
0.0 0.0 0.0 0.0 0.0 0.0 0.0 0.0
0.0 0.0 0.0 0.0 0.0 0.0 0.0 0.0
0.0 0.0 0.0 0.0 0.0 0.0 0.0 0.0
0.0 0.0 0.0 0.0 0.0 0.0 0.0 0.0
0.0 0.0 0.0 0.0 0.0 0.0 0.0 0.0
0.0 0.0 0.0 0.0 0.0 0.0 0.0 0.0
0.0 0.0 0.0 0.0 0.0 0.0 0.0 0.0
0.0 0.0 0.0 0.0 0.0 0.0 0.0 0.0
0.0 0.0 0.0 0.0 0.0 0.0 0.0 0.0
0.0 0.0 0.0 0.0 0.0 0.0 0.0 0.0
0.0 0.0 0.0 0.0 0.0 0.0 0.0 0.0
0.0 0.0 0.0 0.0 0.0 0.0 0.0 0.0
0.0 0.0 0.0 0.0 0.0 0.0 0.0 0.0
0.0 0.0 0.0 0.0 0.0 0.0 0.0 0.0
0.0 0.0 0.0 0.0 0.0 0.0 0.0 0.0
0.0 0.0 0.0 0.0 0.0 0.0 0.0 0.0
0.0 0.0 0.0 0.0 0.0 0.0 0.0 0.0
0.0 0.0 0.0 0.0 0.0 0.0 0.0 0.0
0.0 0.0 0.0 0.0 0.0 0.0 0.0 0.0
0.0 0.0 0.0 0.0 0.0 0.0 0.0 0.0
0.0 0.0 0.0 0.0 0.0 0.0 0.0 0.0
0.0 0.0 0.0 0.0 0.0 0.0 0.0 0.0
0.0 0.0 0.0 0.0 0.0 0.0 0.0 0.0
0.0 0.0 0.0 0.0 0.0 0.0 0.0 0.0
0.0 0.0 0.0 0.0 0.0 0.0 0.0 0.0
0.0 0.0 0.0 0.0 0.0 0.0 0.0 0.0
0.0 0.0 0.0 0.0 0.0 0.0 0.0 0.0
0.0 0.0 0.0 0.0 0.0 0.0 0.0 0.0

network_body._body_endoder.seq_layers.4.weight f4 [256, 256]
00000000: 4678 873d f8c9 a2bd 3854 d23d a151 643d
00000010: 8d2d b53d 4452 4c3c ea25 f93c 7fd8 5fbd
00000020: 73d9 613d 762a c43b 8acd 05bd 9ed8 71bd
00000030: 56e5 013a 7c2d 20bd dbd9 95bd 2b86 8d3d
00000040: c136 7cbd dc8b 413e 0958 1dbd d09c 5d3c
00000050: 6a9c be3d 0e68 993d acfc b4bd c743 443d
00000060: adf3 163a 1c92 d73a e69b 7c3d a3b3 f7bc
00000070: f152 473d 4fff 1a3d 8ae7 443b b52a 3e3d
00000080: 5822 8fbd 512f 16be 68d6 d8bd 8a3d 22bb
00000090: 1c02 6cba 5d9f bdbd 8d66 9bbc 9884 2d3b
000000a0: 725e fabc 6e47 31bd 5fde 3a3d 1ffa b93d
000000b0: e48d 43bd 7b49 b53d 144a 35bd 9e9d 5c3c
000000c0: 7e6f 55bc 29e4 b6bd bf02 c83d b3ef 663c
000000d0: d92c 0b3c 41d9 1d3c d379 14bd bc94 93bd
000000e0: 09ee b33c 085b b03c 90b1 133d 99eb a2bd
000000f0: 8a64 ac3d 9747 1abc 93c6 91bd 822b 16bd
00000100: 6a3b 3bbc aba7 e2ba 2ff8 c1bc 4e6d b8bd
00000110: e216 14bd 4dfb 28bd 14b1 073d 89e8 c93c
00000120: 0881 85bc 745e 2dbe 3e87 263d 9201 88bc
00000130: 9232 0cbd 2b64 d63c aea8 58bc ffef 973d
00000140: 9f22 8c3b 8b45 07bd 6a01 133d 7208 113d
00000150: cc85 ef3c a4a2 803c 8834 78bd 23f5 89bc
00000160: 3038 65bd 93a6 3fbd 38fe b3bd d8be 733d
00000170: 43a0 3c38 7d09 48bd 700f 933c 96aa adbd
00000180: 64ad 0a3d db66 52bd 4fd5 a2bd 9b59 b03d
00000190: b13b b0bd 865a b9bd 9559 9b3b 87e4 783c
000001a0: 1d39 ae3d 1614 603d 998f 90bd cf60 bfbc
000001b0: 57bf 8fbc a2f8 883d b98e 23be 58dc 463d
000001c0: 8ae8 153b 4ea7 f8bd cc21 76bd 93a0 7fbd
000001d0: 3769 c6bd 1ebf 8fbc 2066 1e3d c94c 343b
000001e0: ee7a ab3c c7b4 203d a760 013e 1822 283d
000001f0: 16c4 65bc f106 513d 0ea2 39bd e7fe 373c
00000200: 4ad4 413c d95d a93d c06e fcbd e4fd a43d
00000210: 7c32 623c 7260 90bd d15c 84bd 3356 06bd
00000220: 796a c13d 8fc3 9bbd d804 663d 8726 dc3b
00000230: 6a53 4cbc dccd c6bd 0f13 0d3d be62 71bc
00000240: f07c 92bd d4bf 29bd ab65 f1bc c2ab 7dbc
00000250: dfb7 d1bd f1dd 3dbd 2176 083d 5a08 59bd
00000260: 64d6 7b3d b56a 20bc 8f44 613d bb23 d23c
00000270: 2918 c83d 4020 f53d e40e b4bd 1261 8f3d
00000280: bf9a 11bd 50b3 ccbd 3a5a 963c ce9e 68bd
00000290: edec 093d 0530 f9bb 679e 1c3d 1c8f 1abe
000002a0: 8a8f d8b9 72d5 a0bd 3a95 8abd bf57 853d
000002b0: 1d28 023d f5f3 89bc 3fd3 893d 2ea3 20bd
000002c0: 33c5 893d 5ba3 adbd 4810 16bb 6be8 e03d
000002d0: 8e30 ac3c e1f8 92bc 3cb6 903d eda1 513d
000002e0: c43a 943d cb52 de39 021f 57bd 4caf 073a
000002f0: 137b 7fbc 7a67 8dbb d20e 77bc 7952 d43d
00000300: 69a6 75bb 5ccd d6bd e74e 9dbd f1fe 2ebd
00000310: bffa e9bc cce4 fa3d 78eb b33d 8b37 383d
00000320: b803 8bbd 9468 653d 6b9b 173c b60c 513d
00000330: 65e8 0cbd 8286 c2bd bde5 9b3d 0ad6 db3c
00000340: 879b 45bc 654d eebb 8143 193d 4b25 123e
00000350: 89a7 aebd cbc6 f2bc 2166 c73d 16ea 4cbd
00000360: ec16 c8bd 3594 f93d 529e 903d cf3f 273d
00000370: 674c 8e3b d041 f33d 8981 ccbc d1ad 143b
00000380: 2e32 f43c 1e1c 11bc facc a13d 1a4b 8e3d
00000390: 80ba 343d 849a 2c3d a54c cbba 82e0 d6bc
000003a0: 5acd e43c 23f9 683c c6e3 583c d40b 3a3c
000003b0: 13e4 ecbb a4a4 22bd 4551 093d ed0c e73c
000003c0: 613c e0bb 5898 16bd 343e b9bc c608 633d
000003d0: 5b34 a8bd d879 c4bd c090 153d b1fc 58bd
000003e0: 7d9a cabb 34bf 403c 3607 c0bd 7f48 c93d
000003f0: 6462 aebc 07ae 383d f28b 57bc abb0 ed3b
0.06614737 -0.07948679 0.1026997 0.05574191 0.08846579 0.0124707855 0.030413587 -0.054649826
0.055139016 0.005986507 -0.03266672 -0.059044473 0.0004955133 -0.039105877 -0.07316943 0.06910356
-0.061575655 0.18901008 -0.038414035 0.013526157 0.09307177 0.0749055 -0.08837256 0.0479162
0.00057583564 0.0016446742 0.061672114 -0.030237025 0.048663083 0.037841137 0.0030045235 0.046427447
-0.069889724 -0.14666487 -0.1058777 -0.0024755918 -0.0009003 -0.09258912 -0.018969798 0.0026476737
-0.030562613 -0.04328101 0.045622226 0.0908091 -0.04774274 0.08851906 -0.0442601 0.013465313
-0.01302707 -0.08930237 0.09766149 0.014095235 0.008494579 0.009634317 -0.036248993 -0.07206103
0.02196409 0.021527782 0.03605801 -0.07955093 0.08417614 -0.009416482 -0.07117953 -0.036662586
-0.01142774 -0.0017292401 -0.023677913 -0.09005223 -0.036154635 -0.041255284 0.03312786 0.024647014
-0.016296878 -0.16930562 0.04065632 -0.016602311 -0.034227915 0.02617081 -0.01322381 0.074188225
0.004276588 -0.033025306 0.03589002 0.035408445 0.029238604 0.015702553 -0.060596973 -0.016840523
-0.055961788 -0.046789717 -0.08788723 0.059508175 4.497195e-05 -0.048837174 0.017951697 -0.08479802
0.033856764 -0.051367622 -0.07950842 0.08610841 -0.08605135 -0.09050469 0.0047409036 0.015191204
0.08506987 0.054706655 -0.07058639 -0.023361592 -0.017547293 0.06688048 -0.15972413 0.04854998
0.00228742 -0.12141286 -0.060090825 -0.062408995 -0.09688037 -0.017547186 0.038671613 0.0027511588
0.02093264 0.039234903 0.12634526 0.04104814 -0.014023801 0.05103201 -0.045320563 0.011230207
0.011830399 0.08269853 -0.123258114 0.08056238 0.013805982 -0.070496455 -0.06463016 -0.03279705
0.09444136 -0.07605659 0.056156963 0.00671846 -0.012471059 -0.09707233 0.034442004 -0.014733015
-0.07152736 -0.041442707 -0.029467424 -0.015482845 -0.10240149 -0.046354238 0.03331578 -0.05298648
0.061483756 -0.009791066 0.054997023 0.025651803 0.09770233 0.11969042 -0.08791903 0.070009366
-0.035547968 -0.09995139 0.01835357 -0.056792073 0.033673216 -0.0076046013 0.038237 -0.15093654
-0.00041305675 -0.078532115 -0.06766744 0.06510877 0.031776536 -0.01683996 0.06729745 -0.03921812
0.06727066 -0.08478423 -0.0022897888 0.1098183 0.021019246 -0.01794094 0.070660084 0.051179815
0.07237771 0.00042404825 -0.052519806 0.00051759626 -0.015593308 -0.004315314 -0.015079217 0.10367293
-0.0037483221 -0.10488388 -0.07681065 -0.0427236 -0.028561948 0.12250671 0.087851465 0.044974845
-0.06787819 0.056007937 0.009253363 0.051037513 -0.034401316 -0.094983116 0.076121785 0.02683546
-0.012061006 -0.0072724097 0.037417892 0.14272039 -0.085280485 -0.029635807 0.097362764 -0.05002793
-0.09769997 0.121864714 0.07061447 0.040832337 0.004342604 0.11877787 -0.02496411 0.002268661
0.029809084 -0.008856801 0.07900424 0.06947918 0.044123173 0.042139545 -0.0015510513 -0.0262301
0.02792995 0.014219555 0.013237899 0.011355359 -0.007229337 -0.039707795 0.03352477 0.028204406
-0.006843135 -0.03676638 -0.022612669 0.05542829 -0.08213111 -0.09593552 0.036514997 -0.05297536
-0.006182967 0.011764336 -0.093763754 0.09828281 -0.02128715 0.04508784 -0.013155924 0.0072537265

network_body._body_endoder.seq_layers.4.bias f4 [256]
00000000: 0000 0000 0000 0000 0000 0000 0000 0000
00000010: 0000 0000 0000 0000 0000 0000 0000 0000
00000020: 0000 0000 0000 0000 0000 0000 0000 0000
00000030: 0000 0000 0000 0000 0000 0000 0000 0000
00000040: 0000 0000 0000 0000 0000 0000 0000 0000
00000050: 0000 0000 0000 0000 0000 0000 0000 0000
00000060: 0000 0000 0000 0000 0000 0000 0000 0000
00000070: 0000 0000 0000 0000 0000 0000 0000 0000
00000080: 0000 0000 0000 0000 0000 0000 0000 0000
00000090: 0000 0000 0000 0000 0000 0000 0000 0000
000000a0: 0000 0000 0000 0000 0000 0000 0000 0000
000000b0: 0000 0000 0000 0000 0000 0000 0000 0000
000000c0: 0000 0000 0000 0000 0000 0000 0000 0000
000000d0: 0000 0000 0000 0000 0000 0000 0000 0000
000000e0: 0000 0000 0000 0000 0000 0000 0000 0000
000000f0: 0000 0000 0000 0000 0000 0000 0000 0000
00000100: 0000 0000 0000 0000 0000 0000 0000 0000
00000110: 0000 0000 0000 0000 0000 0000 0000 0000
00000120: 0000 0000 0000 0000 0000 0000 0000 0000
00000130: 0000 0000 0000 0000 0000 0000 0000 0000
00000140: 0000 0000 0000 0000 0000 0000 0000 0000
00000150: 0000 0000 0000 0000 0000 0000 0000 0000
00000160: 0000 0000 0000 0000 0000 0000 0000 0000
00000170: 0000 0000 0000 0000 0000 0000 0000 0000
00000180: 0000 0000 0000 0000 0000 0000 0000 0000
00000190: 0000 0000 0000 0000 0000 0000 0000 0000
000001a0: 0000 0000 0000 0000 0000 0000 0000 0000
000001b0: 0000 0000 0000 0000 0000 0000 0000 0000
000001c0: 0000 0000 0000 0000 0000 0000 0000 0000
000001d0: 0000 0000 0000 0000 0000 0000 0000 0000
000001e0: 0000 0000 0000 0000 0000 0000 0000 0000
000001f0: 0000 0000 0000 0000 0000 0000 0000 0000
00000200: 0000 0000 0000 0000 0000 0000 0000 0000
00000210: 0000 0000 0000 0000 0000 0000 0000 0000
00000220: 0000 0000 0000 0000 0000 0000 0000 0000
00000230: 0000 0000 0000 0000 0000 0000 0000 0000
00000240: 0000 0000 0000 0000 0000 0000 0000 0000
00000250: 0000 0000 0000 0000 0000 0000 0000 0000
00000260: 0000 0000 0000 0000 0000 0000 0000 0000
00000270: 0000 0000 0000 0000 0000 0000 0000 0000
00000280: 0000 0000 0000 0000 0000 0000 0000 0000
00000290: 0000 0000 0000 0000 0000 0000 0000 0000
000002a0: 0000 0000 0000 0000 0000 0000 0000 0000
000002b0: 0000 0000 0000 0000 0000 0000 0000 0000
000002c0: 0000 0000 0000 0000 0000 0000 0000 0000
000002d0: 0000 0000 0000 0000 0000 0000 0000 0000
000002e0: 0000 0000 0000 0000 0000 0000 0000 0000
000002f0: 0000 0000 0000 0000 0000 0000 0000 0000
00000300: 0000 0000 0000 0000 0000 0000 0000 0000
00000310: 0000 0000 0000 0000 0000 0000 0000 0000
00000320: 0000 0000 0000 0000 0000 0000 0000 0000
00000330: 0000 0000 0000 0000 0000 0000 0000 0000
00000340: 0000 0000 0000 0000 0000 0000 0000 0000
00000350: 0000 0000 0000 0000 0000 0000 0000 0000
00000360: 0000 0000 0000 0000 0000 0000 0000 0000
00000370: 0000 0000 0000 0000 0000 0000 0000 0000
00000380: 0000 0000 0000 0000 0000 0000 0000 0000
00000390: 0000 0000 0000 0000 0000 0000 0000 0000
000003a0: 0000 0000 0000 0000 0000 0000 0000 0000
000003b0: 0000 0000 0000 0000 0000 0000 0000 0000
000003c0: 0000 0000 0000 0000 0000 0000 0000 0000
000003d0: 0000 0000 0000 0000 0000 0000 0000 0000
000003e0: 0000 0000 0000 0000 0000 0000 0000 0000
000003f0: 0000 0000 0000 0000 0000 0000 0000 0000
0.0 0.0 0.0 0.0 0.0 0.0 0.0 0.0
0.0 0.0 0.0 0.0 0.0 0.0 0.0 0.0
0.0 0.0 0.0 0.0 0.0 0.0 0.0 0.0
0.0 0.0 0.0 0.0 0.0 0.0 0.0 0.0
0.0 0.0 0.0 0.0 0.0 0.0 0.0 0.0
0.0 0.0 0.0 0.0 0.0 0.0 0.0 0.0
0.0 0.0 0.0 0.0 0.0 0.0 0.0 0.0
0.0 0.0 0.0 0.0 0.0 0.0 0.0 0.0
0.0 0.0 0.0 0.0 0.0 0.0 0.0 0.0
0.0 0.0 0.0 0.0 0.0 0.0 0.0 0.0
0.0 0.0 0.0 0.0 0.0 0.0 0.0 0.0
0.0 0.0 0.0 0.0 0.0 0.0 0.0 0.0
0.0 0.0 0.0 0.0 0.0 0.0 0.0 0.0
0.0 0.0 0.0 0.0 0.0 0.0 0.0 0.0
0.0 0.0 0.0 0.0 0.0 0.0 0.0 0.0
0.0 0.0 0.0 0.0 0.0 0.0 0.0 0.0
0.0 0.0 0.0 0.0 0.0 0.0 0.0 0.0
0.0 0.0 0.0 0.0 0.0 0.0 0.0 0.0
0.0 0.0 0.0 0.0 0.0 0.0 0.0 0.0
0.0 0.0 0.0 0.0 0.0 0.0 0.0 0.0
0.0 0.0 0.0 0.0 0.0 0.0 0.0 0.0
0.0 0.0 0.0 0.0 0.0 0.0 0.0 0.0
0.0 0.0 0.0 0.0 0.0 0.0 0.0 0.0
0.0 0.0 0.0 0.0 0.0 0.0 0.0 0.0
0.0 0.0 0.0 0.0 0.0 0.0 0.0 0.0
0.0 0.0 0.0 0.0 0.0 0.0 0.0 0.0
0.0 0.0 0.0 0.0 0.0 0.0 0.0 0.0
0.0 0.0 0.0 0.0 0.0 0.0 0.0 0.0
0.0 0.0 0.0 0.0 0.0 0.0 0.0 0.0
0.0 0.0 0.0 0.0 0.0 0.0 0.0 0.0
0.0 0.0 0.0 0.0 0.0 0.0 0.0 0.0
0.0 0.0 0.0 0.0 0.0 0.0 0.0 0.0

action_model._discrete_distribution.branches.0.weight f4 [3, 256]
00000000: 2f13 61bb 5751 0ebc 0813 c8b9 3c8d 05ba
00000010: 5d92 33bc a751 c23b 0035 693b a5ae b63b
00000020: be27 b23b 0b29 2f3b 01b2 03bc 2718 d2bb
00000030: 0b83 fa3a 770f 9c3a 976e 113c 7fe7 71bb
00000040: ff1e 9a3b 518c ad3a 5f4a 53bb 4a6e 09b8
00000050: 9a27 a93a 4728 0cbc 0bb9 8f3b 5d1b 48bc
00000060: cce0 2d3a 7906 ba3b e54e 34bb 3229 8a3b
00000070: 804c 6e3b 0802 d93b 0b23 ad3b ebe4 bfbb
00000080: 3f88 013c 9d6a d439 c6cb ae3b 1f32 f1bb
00000090: afad 043c cdeb 76bc 9be9 97bb 5840 a53a
000000a0: bf16 003b 478b c7bb fde8 54bc c837 a13b
000000b0: 145a 113b 3336 a5bb ee11 803b c9b5 023c
000000c0: d3b9 e5b9 efb2 7e3b 8f66 2c3c 52ab fa3a
000000d0: a3bf 1abb 267f a23b 0bfa 14bc 4906 02bc
000000e0: b69a 363b fbd8 523b 57db 02bc 75c4 88bc
000000f0: d998 c1bb 92ee 51bc 5667 adbb e2bb 84bb
00000100: dbab 7a3b ae76 0f3c f89a ce3a b874 4f3c
00000110: 019c c43b a805 0bbc c823 b8bb 1a20 07bb
00000120: 2dcc ef3b f46f c13b 91e5 8b3c 2f7e a73a
00000130: 2f98 f0bb 8df7 26ba 9b13 52bb b968 aa3b
00000140: f29b 9a3b ebdc a0bb 7fdf cf3b 8864 743b
00000150: b0d2 b0b9 e3f4 7ebb 3e35 40bb f2b8 2cba
00000160: c3f9 b7bb dafc dc3b a6f1 17bb 508a c239
00000170: b17d 2d3c 125e 8e3b 085e 5d3b 21fe 9ebb
00000180: 52be e0bb 4789 f0b9 2571 10bb af95 04bb
00000190: de8e c6b9 7b3f 193b 6163 083c dd92 9e3a
000001a0: d075 99bb aa56 e1bb aaf2 ad3c df50 8cba
000001b0: 8f5d a83b be4e 1abb 5475 263c dbf3 343b
000001c0: ebc3 94bb c824 8abb 77f2 a63a 1bc0 19bb
000001d0: be87 3e3b 2f22 0fbc 5391 353b a506 153b
000001e0: 0f8c 4c3b 7065 4dbb e423 9cbb eb97 ecba
000001f0: b72e 4bbb 6def 7dbb 07b1 bb3b 63c8 31bc
00000200: e1b8 463b c08d f5bb 1132 90b9 1755 dfbb
00000210: 582a 463c e880 40bb fa65 7a38 0a7c 8c3b
00000220: 28bf 7e3b ab78 f73b a2f0 4d3c 6fdb c5ba
00000230: b8eb 1bbb 2271 ed3b 6226 26b9 8774 d93a
00000240: 78f1 6c3a d4d4 26bc f49e 823b 53a6 1ebb
00000250: 1651 90ba 666f 34bc eb82 6a3b ab59 80bb
00000260: 3630 0b3c 005c 14bb 0704 6dbb f786 51bc
00000270: 8ca8 12bb cfa0 043b 467a 933a f8c9 8d38
00000280: 0e73 afbb 1e8d 0d3b 2843 f7b9 eb91 853a
00000290: c5e3 f73b 0ded e3ba a880 cdbb 210d 8fb9
000002a0: 0f03 26ba eba1 a5bb 1bda 5a3c d0c8 f53b
000002b0: a332 703b 819f b03b 47ef 73bb 87ca 01bc
000002c0: e380 173c 6dd0 f83a 2949 4bbc e7ca a93a
000002d0: c369 c6bb 5036 64bb 7bd0 65bc c0dc 9d3a
000002e0: af3e 49bb a29a 53bb 013e 42bb d318 f7ba
000002f0: b706 e5bb 1b10 b03a fdd4 d3bb 8096 05bb
00000300: 9570 a03b 47a9 a2bb 9222 a73a 2364 4b3c
00000310: 9097 4abb 173c 6fbb 037a 2dbb 73d8 ce3b
00000320: c276 23bc 9d60 ef3b bae7 ecba ec97 cbbb
00000330: b313 653b 8d21 4fbc fb21 3bbb 09bd c53b
00000340: 86a5 8fbb 2b70 66bb d9ee a4bb 3ee1 883b
00000350: 2f49 d5bb 3f00 c7b9 e57a 9cbb 6303 64bc
00000360: d89d 963b 5e39 813b f3be 503b 7cb4 9dbb
00000370: 7511 d83b 20fc d7bb 85d0 f7ba cb08 b2b7
00000380: 800a e03b 1c0a 913b 07fc 9abb 23ca 9d3b
00000390: dbde 143b 12b3 ee3a 4cfd 04bc 92fd 8ebb
000003a0: 499b 223c fdab f1bb 05cb 7f3b 9879 d0b8
000003b0: 9e26 05bc 7de8 733b 6852 eb3b b2df d33a
000003c0: 2255 d7b9 bac2 50bb c9d5 89bc 1509 c13b
000003d0: 4f58 d03b cd29 8f3a 8b87 05bc fae2 9c3b
000003e0: 4ae5 4ebb 876b 3f3b c80f 29b9 d86a 503b
000003f0: a5e0 d1ba 9d38 f2bb a050 62bb 58da 533b
-0.003434371 -0.008686385 -0.00038161152 -0.0005094593 -0.010960189 0.005930144 0.003558457 0.0055750185
0.0054368665 0.0026727344 -0.008038045 -0.0064115706 0.001911254 0.0011906464 0.008876464 -0.0036911664
0.004703402 0.001324067 -0.0032240374 -3.276606e-05 0.0012905479 -0.008554525 0.0043860725 -0.012213555
0.00066329236 0.005677041 -0.0027512845 0.0042163366 0.0036361516 0.0066225566 0.0052837185 -0.0058561466
0.007906019 0.00040515224 0.0053343503 -0.007360711 0.00809805 -0.015070868 -0.0046360022 0.0012607677
0.0019544808 -0.006089601 -0.012995002 0.0049199797 0.0022178935 -0.0050418614 0.0039083874 0.007977911
-0.00043816734 0.0038863977 0.010522499 0.0019124544 -0.002361276 0.004959005 -0.009092818 -0.007936069
0.002786321 0.0032172787 -0.007986865 -0.01669524 -0.0059081134 -0.012813227 -0.0052918596 -0.0040507177
0.0038249406 0.008756323 0.0015762737 0.012662105 0.0060000424 -0.008485235 -0.0056195 -0.00206185
0.007318041 0.0059032384 0.01707724 0.0012778695 -0.0073423604 -0.00063692854 -0.0032055143 0.005200472
0.004718297 -0.004909148 0.0063437815 0.0037291367 -0.0003372631 -0.0038903288 -0.002932861 -0.00065888383
-0.0056144907 0.0067440094 -0.0023184805 0.00037105614 0.010589049 0.00434471 0.003377797 -0.004852072
-0.0068586254 -0.00045878647 -0.0022040096 -0.002023082 -0.00037871947 0.0023383785 0.008324475 0.0012098212
-0.004683234 -0.0068767862 0.021233875 -0.0010705254 0.005138106 -0.002354547 0.010159809 0.002761117
-0.004539957 -0.0042158104 0.0012737055 -0.002346045 0.0029072608 -0.008736177 0.0027705028 0.0022739556
0.003121141 -0.003134098 -0.0047650207 -0.0018050646 -0.0031003186 -0.0038747445 0.0057278904 -0.010850999
0.0030322599 -0.0074937046 -0.00027503123 -0.0068155634 0.0120950565 -0.002937371 5.9699618e-05 0.0042872475
0.0038871262 0.0075522265 0.012569578 -0.0015095304 -0.0023791622 0.0072461525 -0.00015845292 0.0016590514
0.0009038667 -0.010182578 0.003986234 -0.0024208024 -0.0011010494 -0.011012888 0.00357836 -0.0039169393
0.008495381 -0.0022637844 -0.003616573 -0.012788526 -0.0022378294 0.002023745 0.001125165 6.7610235e-05
-0.0053542918 0.0021599005 -0.00047161547 0.0010190582 0.007564994 -0.0017389372 -0.0062714405 -0.00027284867
-0.0006332853 -0.0050547025 0.013357664 0.0075007454 0.0036651276 0.005390108 -0.0037221478 -0.007921821
0.009247038 0.0018983014 -0.012407579 0.0012954146 -0.0060550882 -0.0034822412 -0.014026756 0.0012043938
-0.0030707528 -0.0032288213 -0.0029639008 -0.0018852003 -0.006989326 0.0013432534 -0.006464599 -0.0020383894
0.0048962333 -0.004964027 0.0012751392 0.012414011 -0.0030913092 -0.0036504322 -0.002647043 0.006312424
-0.009977045 0.0073052184 -0.0018074431 -0.006213179 0.0034954369 -0.0126422765 -0.002855419 0.0060344976
-0.0043837456 -0.0035162072 -0.0050333557 0.0041772416 -0.0065089683 -0.0003795642 -0.0047753924 -0.013916823
0.004596453 0.0039436063 0.0031852096 -0.004812775 0.006593878 -0.006591335 -0.0018906748 -2.1223348e-05
0.006837189 0.004426254 -0.004729751 0.0048153563 0.002271584 0.0018211326 -0.008117031 -0.004363724
0.009924718 -0.007375239 0.0039030921 -9.9408615e-05 -0.008126883 0.0037217431 0.0071814544 0.0016164689
-0.00041071424 -0.0031854347 -0.016825574 0.0058909752 0.0063581835 0.0010922492 -0.008149992 0.0047878
-0.0031569772 0.0029208378 -0.00016122975 0.0031801965 -0.0016012384 -0.0073920027 -0.003453292 0.0032326188

action_model._discrete_distribution.branches.0.bias f4 [3]
00000000: 0000 0000 0000 0000 0000 0000
0.0 0.0 0.0

action_model._discrete_distribution.branches.1.weight f4 [3, 256]
00000000: adea b3bb c785 b838 03a6 e03b e870 0f3a
00000010: bb96 cc3b 3f3e efbb 2613 913b 7338 bb3b
00000020: 7793 e53b 9665 9a39 8f33 583b 5318 e9bb
00000030: 28f3 4a3b 36db 973a bb21 db3a 5a42 9b3b
00000040: 7bbb 65bb fdbd b3bb 3fae 143c 6fad 93bb
00000050: b806 25ba f649 0b3c 3ef8 203c 2458 483a
00000060: 4ab9 553c 97b8 83bb 4171 bc3a df39 00bc
00000070: 7520 31bc 6fce a33a abc6 263c 7600 9dbb
00000080: 53dd 8a3a 8c5e 253c f1e6 84bc f5f3 24bb
00000090: 8283 d63b f722 4ebb 8568 e8ba 5fb3 f8bb
000000a0: 17cd 0bbb c16f 123a fb7f a33a e1f3 b6bc
000000b0: 8709 c0ba cf76 263c f0ae 5fba b760 f43b
000000c0: fa03 2fbb e47e 90bc 4709 bd3b 7f24 15bb
000000d0: 3277 cd3b 0a02 b43a d94e a03b 0f12 0abc
000000e0: 1357 8f3b 99ad 01bc db4f a03b d609 caba
000000f0: fbed 14bc 8d18 f6bb ea78 49bc abc9 393b
00000100: 5f93 743c db7a 143b 0f86 a63b 4cc1 a4ba
00000110: 2731 19bb 633d 2dbc cb30 83bb ffbf 243c
00000120: cf2f 95bb 3011 053b 12b3 6dbc 7b82 7bbc
00000130: f8d3 efba 6ac1 dc3a 8d75 50bc d313 a63b
00000140: 9700 8b3b 6f13 7a3b 1230 7f3b 346c 083b
00000150: 7f4b 38bc bbeb 003c 5bca 2dbc 1071 c6bb
00000160: cff3 11bb 703f 433b 8f5a 84bb 4014 5ebb
00000170: a068 123c a123 c4ba 067a 823b dbd5 503c
00000180: 56ec 17bc e3c4 cd3b ad7b 983b 3ca4 48bc
00000190: df13 0fbc f216 ccba 3df3 d03b 53d0 80bc
000001a0: 18d0 1cbc 8741 35bb 0f43 263b bf93 04bb
000001b0: bd5c e0bb a939 423b 7558 7b3c d54b 1f3c
000001c0: bd03 fdba b165 1d3c f347 c2bb b03b fdba
000001d0: a8f3 72bb 2341 dbbb 4b96 823a fc21 313b
000001e0: 2bc8 553b 1a23 90bb 9eff 15bc 6887 523a
000001f0: 2b38 ccbb fb77 68bb 04c1 81bc 105e 25bc
00000200: 40ef 59b9 8e8a c3bc 4e85 1cbb b3cc 69bb
00000210: 9633 263b bbf5 b3bb 28fb b839 fd3e 2dbc
00000220: 97df d3ba 6bb6 c7ba d031 a13b 818c 32bb
00000230: 6de8 4bbb ef5e 6039 8079 cf3a c256 e9bb
00000240: 2f49 24bb d297 6bbb cfb0 13bb 8b0c 5e3b
00000250: 4c5a 0a3b 91ac b63b afc6 df3b 72dc 743b
00000260: c3e6 71bb 2a7e 75bc 0e35 22bb f31d 37bc
00000270: b3a7 02bc bf6f 9cbb dc0b a3ba 92af 0c3c
00000280: 0084 f8bb ef17 d6ba d079 773b a992 993b
00000290: f590 c23a 6eb7 11bc 45f6 823a 1b9c 62bc
000002a0: 2d21 3ebb dd61 f93a f348 b23b 47ad 903a
000002b0: b86d 2fbc 68e1 80bb 5369 83ba 47bf 93ba
000002c0: ffd8 a03a b30c b13b aa39 f8bb 93c1 f03a
000002d0: d3fd c33b 4a93 dbb9 bf2a 68bb 222b 363b
000002e0: 54d0 8c3a 6724 9eba 77dc dd3b b203 603b
000002f0: 03f0 16bc 2dc4 f13a 7770 84bb f803 583b
00000300: c7c6 01bb e32b 943a 2242 faba e3a7 12bc
00000310: 3c36 973a 6332 a1ba 6b71 8b3b 44ba a9bb
00000320: cd5f 943b 6cf8 b03b fb27 86bb 2ebc bbbb
00000330: db8c 9f3b 7733 763c 517c 2ebc eb68 cfba
00000340: aa4e ee3b 14b2 16bc dfb0 93bb eb6a 2ab9
00000350: c0d5 a13b 7b60 eebb 59ba 23bb cca3 3c3c
00000360: d646 af3b bb71 77bb a70f 6d3b 5a22 65bc
00000370: 05bd 60bb 0316 713b a3e6 9e3b 852d 703b
00000380: 7b86 e5bb 9da9 143c 5b27 81bb afcc 7fbc
00000390: 68a9 0f3c 5c3b 283a ce41 30bb f196 bfbb
000003a0: 0b4c 933b b7dc 9739 dd0e 6d3a dafe b5b9
000003b0: d821 a63a 3b1a 18bc 5dc7 0bbc fb54 a6ba
000003c0: 59ec 3eb9 33bc 02bc 86b5 92bb aeea 89bb
000003d0: 779d 4ebb 0d2c b9bb 4735 52b9 f088 e1bb
000003e0: 57ab edbb 6578 d3ba b7e6 66bb a160 a1bc
000003f0: d921 87bb eb4e cfbb 9a65 15bb 8baf 043c
-0.005490622 8.798722e-05 0.0068557276 0.00054718414 0.0062435544 -0.0073011215 0.0044273315 0.0057135164
0.0070061046 0.00029448856 0.0032989716 -0.0071134954 0.0030967686 0.0011585716 0.0016718426 0.0047381343
-0.0035054374 -0.005485295 0.009074747 -0.004506759 -0.00062952517 0.00850152 0.009824811 0.00076425285
0.013044665 -0.0040198076 0.0014377014 -0.007826298 -0.010810961 0.0012497435 0.010179202 -0.0047913147
0.0010594524 0.0100933425 -0.016223403 -0.0025169824 0.0065464387 -0.0031453946 -0.0017731345 -0.007589742
-0.002133196 0.00055861106 0.0012474054 -0.022333087 -0.0014651277 0.010160162 -0.00085328426 0.0074578184
-0.002670525 -0.017638631 0.005768928 -0.002275735 0.0062703127 0.0013733518 0.004892212 -0.008427157
0.0043743937 -0.007914924 0.004892332 -0.0015414308 -0.009089942 -0.007510251 -0.012296895 0.0028348963
0.014927714 0.0022656235 0.005081899 -0.0012569814 -0.0023375244 -0.010573718 -0.0040036193 0.010055541
-0.0045528184 0.0020304434 -0.014508026 -0.015350933 -0.0018297425 0.001684231 -0.012723339 0.005068281
0.0042420137 0.0038158556 0.0038938564 0.0020816447 -0.011248468 0.0078687025 -0.010607327 -0.0060559586
-0.0022270565 0.002979245 -0.0040391157 -0.0033886582 0.008936077 -0.0014964232 0.0039818315 0.0127463
-0.0092726555 0.0062795742 0.004653415 -0.012246188 -0.008732765 -0.0015570803 0.0063766525 -0.015724337
-0.009571098 -0.0027657466 0.002536956 -0.0020229665 -0.0068469928 0.002963642 0.015340914 0.00972267
-0.0019303482 0.009606765 -0.005928987 -0.0019320156 -0.00370715 -0.0066911145 0.0009963004 0.0027028313
0.003262053 -0.0043987157 -0.009155182 0.00080310414 -0.0062322817 -0.0035471905 -0.015839107 -0.010093227
-0.0002078386 -0.023869779 -0.0023883167 -0.0035674989 0.0025360337 -0.00549194 0.0003528234 -0.0105741
-0.0016164657 -0.001523686 0.004919268 -0.0027244391 -0.0031113878 0.0002139767 0.0015829057 -0.007120938
-0.0025068035 -0.0035948646 -0.0022535806 0.0033881988 0.002111095 0.0055747707 0.006829105 0.003736284
-0.0036911226 -0.014983693 -0.0024750861 -0.011176574 -0.007974553 -0.0047740634 -0.0012439447 0.008586781
-0.007584095 -0.0016334037 0.0037761815 0.0046866727 0.0014844226 -0.008893831 0.0009991607 -0.013831164
-0.0029011474 0.0019026358 0.005440825 0.0011037969 -0.010707311 -0.0039331205 -0.0010025896 -0.0011272215
0.0012271701 0.005403125 -0.0075752335 0.0018368236 0.005981186 -0.00041880674 -0.003542587 0.0027796705
0.0010743239 -0.0012065292 0.006770666 0.003418189 -0.009212497 0.0018445306 -0.004041727 0.003296135
-0.0019802318 0.0011304583 -0.0019093195 -0.00895116 0.0011536549 -0.0012298342 0.004255464 -0.0051796753
0.004528022 0.005400708 -0.0040941215 -0.00572922 0.004869086 0.015026919 -0.0106497565 -0.0015824115
0.007272561 -0.009197731 -0.0045071687 -0.00016252293 0.004938811 -0.007274685 -0.0024982898 0.011513662
0.0053490205 -0.0037756998 0.003617266 -0.013985241 -0.0034292352 0.0036786802 0.0048492714 0.0036648226
-0.0070045567 0.009073642 -0.003941459 -0.015612765 0.008768417 0.00064175366 -0.0026894691 -0.005846851
0.004495149 0.0002896541 0.00090430473 -0.0003471289 0.0012674881 -0.009283598 -0.008531419 -0.0012690121
-0.00018207858 -0.0079794405 -0.0044772057 -0.004208884 -0.0031526962 -0.005651003 -0.00020047008 -0.0068827793
-0.0072530913 -0.0016133903 -0.0035232732 -0.019699397 -0.004123908 -0.0063265464 -0.0022796155 0.008098493

action_model._discrete_distribution.branches.1.bias f4 [3]
00000000: 0000 0000 0000 0000 0000 0000
0.0 0.0 0.0
